output/gym_finger/Finger-v0-run1/actor.pkl (torch_old, 5203 bytes, 6 tensors)

fc1.weight f4 [32, 13]
0	0xbe49c836	-0.1970528
1	0x3e229561	0.15877296
2	0xbde9f8a4	-0.114243776
3	0x3dbb06de	0.09132169
4	0xbdca0b0c	-0.09865388
5	0x3cc1e780	0.023669958
6	0x3d2b14f1	0.04176802
7	0xbdb17d91	-0.08666528
8	0x3d82f13a	0.063936666
9	0xbe0ae1ad	-0.13562651
10	0x3e103b4d	0.14085121
11	0x3cf7fb90	0.030271322
12	0x3df2b66e	0.11851202
13	0x3e96a75e	0.29424566
14	0xbe1b1c0e	-0.15147421
15	0xbd527f28	-0.051390797
16	0xbe28f1f4	-0.16498548
17	0xbd82fcb4	-0.063958555
18	0x3e044b2b	0.129193
19	0xbe55ff67	-0.2089821
20	0xbcf438a0	-0.029812157
21	0xbe2dd4f7	-0.16975771
22	0xbde09ab0	-0.10967004
23	0x3e29085f	0.165071
24	0xbe17c982	-0.14822963
25	0xbdcdb084	-0.10043433
26	0x3eb9e3bf	0.3630657
27	0x3cbda9c0	0.023152232
28	0x3c1fc750	0.00975211
29	0xbe3b857f	-0.18312643
30	0xbe2d8e48	-0.16948807
31	0xbd89d8c0	-0.06730795
32	0xbe4eb1bb	-0.20184986
33	0xbe0d5bbc	-0.13804525
34	0xbe2c2929	-0.16812576
35	0x3cf2b634	0.029627897
36	0xbe2e1aa3	-0.17002349
37	0x3dd07baa	0.10179837
38	0xbc099ad0	-0.008398727
39	0x3e249ca4	0.16075379
40	0x3e30e439	0.1727456
41	0x3d7a897c	0.06116627
42	0xbe503681	-0.20333292
43	0x3d72d1a0	0.059281945
44	0xbe1e2cf7	-0.1544684
45	0xbe41e679	-0.18935575
46	0x3db78896	0.089615986
47	0x3da55c46	0.080742404
48	0xbe30a7cc	-0.1725151
49	0x3d615bf0	0.05501932
50	0x3dee0c96	0.11623494
51	0xbe0badc4	-0.13640505
52	0x3dac310d	0.08407793
53	0xbe11a5f3	-0.14223461
54	0x3c922750	0.017841011
55	0x3e89cdb7	0.2691476
56	0x3db0c7c2	0.08631851
57	0xbdcc83d2	-0.0998608
58	0x3e6989d7	0.22806488
59	0x3e1ff1a1	0.15619518
60	0x3e171915	0.14755662
61	0x3bbe8504	0.0058141965
62	0x3e087275	0.13324912
63	0x3daade3a	0.083431676
64	0x3e136167	0.14392625
65	0x3de0e7d4	0.10981718
66	0xbe029944	-0.12753779
67	0xbd8037ff	-0.062606804
68	0xbda9befb	-0.0828838
69	0x3cebd410	0.028787643
70	0xbddeb523	-0.10874393
71	0xbe2f8333	-0.17139892
72	0x3e0af30d	0.13569279
73	0x3e0dd371	0.1385019
74	0xbe2b3e08	-0.16722882
75	0x3c9c6f78	0.019096121
76	0xbdc3bb1f	-0.09557175
77	0xbde63009	-0.11239631
78	0x3e256983	0.16153531
79	0xbe0ceba0	-0.13761759
80	0xbcc048c8	-0.023472205
81	0xbe721922	-0.236424
82	0xbd964721	-0.073377855
83	0xbdc4a913	-0.09602561
84	0x3d0ec1f9	0.034852955
85	0xbe34bb6c	-0.17649621
86	0xbd830bb8	-0.063987195
87	0xbe26e874	-0.16299611
88	0xbda56221	-0.08075357
89	0x3e1fbd51	0.15599562
90	0x3d2e2d68	0.04252377
91	0x3ca3bd08	0.019987598
92	0xbd894231	-0.06702078
93	0xbe318921	-0.17337467
94	0x3d0fdde0	0.035123706
95	0xbd0a4300	-0.033755302
96	0xbdf23a83	-0.118275665
97	0xbd8aab07	-0.06770902
98	0x3dd55d6e	0.10418211
99	0x3d9b05fe	0.07569502
100	0x3cfdcba6	0.030980896
101	0x3bf59b40	0.007495314
102	0xbc434240	-0.011917651
103	0xbe2025f1	-0.15639473
104	0x3e79a0ba	0.24377719
105	0x3caf7018	0.021415755
106	0x3dcdb11a	0.10043545
107	0x3bcf8225	0.006332653
108	0x3dcdcb46	0.10048537
109	0xbd281d9c	-0.041043863
110	0xbcb1379a	-0.021632958
111	0x3c759190	0.014988318
112	0x3d1daed8	0.038496822
113	0xbde10ff7	-0.10989373
114	0xbbd59060	-0.006517455
115	0xbdcff1d3	-0.10153546
116	0xbd5ba63c	-0.05362533
117	0xbca021b1	-0.019547315
118	0x3db18286	0.086674735
119	0xbd1ab328	-0.037768513
120	0x3e2c072b	0.1679961
121	0x3df8645a	0.121285155
122	0x3d521df0	0.051298082
123	0x3dfdd45e	0.123940215
124	0x3d800ce0	0.06252456
125	0x3e12494f	0.14285778
126	0x3e2de4be	0.1698179
127	0x3c0a08b0	0.008424923
128	0xbc1370a0	-0.00899902
129	0xbe018ae2	-0.12650636
130	0x3ec7acf2	0.38999134
131	0x3d798aec	0.0609235
132	0xbe14a756	-0.14516959
133	0x3e78500c	0.24249285
134	0x3cff2930	0.03114757
135	0xbd9a6304	-0.07538417
136	0x3ea83ff5	0.32861295
137	0xbd025dd4	-0.031827763
138	0x3d7ebc1c	0.062191114
139	0x3db53673	0.08848276
140	0x3e1aba51	0.15110137
141	0x3d679e70	0.056547582
142	0x3df16c32	0.11788215
143	0x3eb67e8e	0.3564343
144	0xbd80d685	-0.06290916
145	0xbb816c40	-0.003949672
146	0x3d2fa564	0.04288234
147	0xbb3c0200	-0.0028687716
148	0x3db8793a	0.09007497
149	0x3e822250	0.25416803
150	0xbad0c280	-0.0015927106
151	0xbdd32ef1	-0.10311688
152	0x3e86c0e7	0.26319048
153	0xbd9ab8df	-0.075547926
154	0xbd9cd8c8	-0.07658535
155	0xbd851de2	-0.0649984
156	0x3d093c5e	0.033504836
157	0xbe0b58c3	-0.13608079
158	0xbd83933e	-0.064245686
159	0x3e0510f7	0.12994753
160	0xbd5df1ba	-0.054185607
161	0x3d54cde4	0.051954165
162	0x3ce89e6f	0.02839586
163	0x3dc30aee	0.09523569
164	0xbe1cc655	-0.15310033
165	0x3e105284	0.14093977
166	0x3d18e0dc	0.037323818
167	0xbd8d2e89	-0.068936415
168	0xbdde9d0a	-0.108697966
169	0x3e51a34b	0.20472448
170	0x3e14e935	0.14542086
171	0xbe155368	-0.14582598
172	0xbe27a6a6	-0.16372165
173	0x3e01788d	0.12643643
174	0x3de813b6	0.113318846
175	0xbd85f091	-0.06540025
176	0x3e0becbd	0.13664527
177	0x3d755a7c	0.059900746
178	0xbe810aa8	-0.25203443
179	0xbd043590	-0.032277644
180	0x3d1779e8	0.036981493
181	0x3dcb79ae	0.09935318
182	0xbe1a9a5c	-0.15097946
183	0xbd811590	-0.06302941
184	0x3e2b0bfd	0.16703792
185	0x3e0f7cb6	0.14012417
186	0x3e30b8ed	0.17258044
187	0x3d853648	0.06504494
188	0xbe124b90	-0.14286637
189	0x3c36de90	0.0111614615
190	0x3daea156	0.08526866
191	0x3bf8349c	0.007574631
192	0x3d9065c0	0.07050657
193	0x3dc8ed1e	0.098108515
194	0xbdb552bb	-0.0885367
195	0x3edfbbe6	0.43698043
196	0xbdcee646	-0.10102515
197	0x3dc5079e	0.096205935
198	0x3ded6a24	0.1159251
199	0xbdf8045a	-0.12110205
200	0x3d6b7720	0.057486653
201	0x3e6ba3cf	0.23011707
202	0xbdbce6c1	-0.092237
203	0xbe2341f7	-0.15943132
204	0x3e9b0d7c	0.30283725
205	0xbdf27ad0	-0.11839831
206	0x3bc2f1a0	0.005949214
207	0x3e1c3b99	0.1525711
208	0xbe058ae7	-0.13041268
209	0x3b818b00	0.0039533377
210	0xbdb1fcab	-0.08690771
211	0xba846628	-0.0010101246
212	0xbd5fd47c	-0.054646
213	0xbd93ec9b	-0.07222863
214	0xbc694864	-0.014238451
215	0xbdadc49b	-0.08484765
216	0x3de1a5f6	0.11017983
217	0x3c213371	0.009838925
218	0x3d95267a	0.072827294
219	0xbde046ed	-0.10951028
220	0x3def09f6	0.11671822
221	0x3ec66faa	0.38757068
222	0xbd751dc8	-0.059842855
223	0xbe0d3c61	-0.13792564
224	0x3cba09f3	0.022709822
225	0xbe24df7f	-0.16100882
226	0xbdd8c133	-0.10583725
227	0x3e626133	0.22107391
228	0x3e300785	0.17190368
229	0xbdaa9e8f	-0.08331024
230	0x3e5bebb7	0.21476637
231	0x3dc869ce	0.09785806
232	0xbdfb0966	-0.12257652
233	0x3e11c3f7	0.14234911
234	0x3cc5b9c4	0.024136432
235	0xbda7c3ee	-0.081916675
236	0xbd579b36	-0.052638255
237	0x3db37707	0.08762937
238	0x3d94a90c	0.07258806
239	0x3deb3056	0.11483829
240	0x3e060bb7	0.13090406
241	0xbdc2c380	-0.09509945
242	0xbc6f9000	-0.014621735
243	0x3ded5a57	0.115894966
244	0x3d53946c	0.051655218
245	0xbe15c497	-0.14625774
246	0xbdb22756	-0.08698909
247	0xbe4a5430	-0.19758677
248	0x3df5ac4e	0.11995755
249	0xbdd5e582	-0.10444166
250	0x3da056cc	0.07829055
251	0x3e0e7d69	0.13915028
252	0xbdd15eaf	-0.102231376
253	0x3dcf0990	0.10109246
254	0xbdeb4364	-0.11487463
255	0xbdb1c033	-0.08679237

fc1.bias f4 [32]
0	0xbe3695eb	-0.17830627
1	0x3c2d8d98	0.010592841
2	0x3f01f8a3	0.50770015
3	0x3eae8c94	0.34091628
4	0x3e72628f	0.2367041
5	0x3e31daa9	0.17368568
6	0xbe2327fb	-0.1593322
7	0xbe03d359	-0.12873591
8	0x3ef7e006	0.48413104
9	0xbd9e540f	-0.07730877
10	0x3edc4ab8	0.43025756
11	0x3f0de337	0.5542483
12	0x3e18a9be	0.14908502
13	0x3e6d1966	0.2315422
14	0xbe3d4b1a	-0.1848568
15	0x3f14f7fd	0.581909
16	0xbe8ded3e	-0.27720064
17	0x3ea9184d	0.33026353
18	0xbea2860e	-0.317429
19	0x3ca14e1b	0.019690564
20	0xbd8385b7	-0.064219885
21	0xbdc22562	-0.094797865
22	0x3eca71a2	0.3953982
23	0xbe7c8bb2	-0.24662665
24	0x3eee02da	0.4648655
25	0x3eaa8b21	0.33309272
26	0xbe8bb950	-0.2728982
27	0xbd4af4ca	-0.049549855
28	0xbe7a7616	-0.24459109
29	0xbddf3068	-0.10897905
30	0x3ebdc259	0.37062338
31	0x3f122cac	0.57099414

fc2.weight f4 [16, 32]
0	0xbdfc19a8	-0.12309581
1	0xbe64f66b	-0.22359626
2	0xbac54cae	-0.001505276
3	0x3d79a5fd	0.060949314
4	0x3e80877e	0.25103372
5	0x3bbf1aa4	0.005832033
6	0xbe30acd0	-0.17253423
7	0x3e740496	0.23829874
8	0x3e80ba8c	0.25142324
9	0x3d2da800	0.042396545
10	0x3e9effa0	0.310544
11	0x3e9d0951	0.3067117
12	0xbcee0e9d	-0.029059703
13	0x3e2a8474	0.1665209
14	0xbe29873f	-0.16555499
15	0x3e5fc0ea	0.21850935
16	0x3da23250	0.079197526
17	0x3e2d258e	0.16908857
18	0xbde36b2b	-0.11104425
19	0xbe125db0	-0.14293551
20	0x3e81a309	0.25319698
21	0x3c16e7e9	0.009210565
22	0xbe33e1e0	-0.17566633
23	0xbe017273	-0.12641315
24	0x3dd34547	0.10315948
25	0xbdf535eb	-0.11973175
26	0x3d81b5e2	0.063335195
27	0xbe19f618	-0.15035284
28	0x3dec68b7	0.1154341
29	0xbcb3f216	-0.021966022
30	0x3e9914d8	0.29898715
31	0x3e2d9f78	0.16955364
32	0xbcec1f86	-0.028823625
33	0x3e86f813	0.2636114
34	0x3eac4268	0.33644414
35	0x3cc1d515	0.023661176
36	0x3db911ab	0.09036573
37	0x3d911a29	0.07085068
38	0x3d3f88a3	0.046761166
39	0x3c56a028	0.013099708
40	0x3e92cf44	0.28673756
41	0x3b9c90ea	0.0047780173
42	0x3d2e005d	0.042480815
43	0x3e94dc2d	0.2907423
44	0x3df901ff	0.12158584
45	0x3df6657d	0.12031076
46	0xbe121a1a	-0.1426777
47	0x3e492b45	0.19645412
48	0xbe2f6f27	-0.17132245
49	0x3e68c693	0.22732
50	0x3e2556f3	0.1614645
51	0x3d58562d	0.05281656
52	0x3dcdfa34	0.10057488
53	0x3cea86c9	0.028628724
54	0x3eb7001b	0.35742268
55	0xbd717890	-0.058952868
56	0x3e11f9b6	0.14255413
57	0x3ced893e	0.028996106
58	0xbe4b2d09	-0.19841398
59	0xb9874615	-0.00025801422
60	0xbe6a9065	-0.22906645
61	0x3ebd4650	0.36967707
62	0xbd02ecdd	-0.03196417
63	0xbdcc801e	-0.09985374
64	0x3e4e12c7	0.2012435
65	0x3e981077	0.29700062
66	0x3e909da8	0.28245282
67	0x3d47d00c	0.048782393
68	0x3e0eb869	0.13937534
69	0x3e95a788	0.2922938
70	0xbc2998ff	-0.0103514185
71	0xbdd2a8a3	-0.10286071
72	0x3e57954b	0.21053044
73	0x3e1554be	0.14583108
74	0x3e2d81de	0.16944072
75	0x3cefd460	0.029276073
76	0x3e4abb4b	0.19798009
77	0x3dc4b46f	0.096047275
78	0xbcdd1aad	-0.026990259
79	0x3ed66c92	0.41879708
80	0x3dacfa79	0.08446211
81	0x3e9ed891	0.31024602
82	0xbd788720	-0.06067574
83	0xbb4931e5	-0.0030699905
84	0xbd99cd9a	-0.075099185
85	0xbde83c2e	-0.11339603
86	0x3e80afa2	0.25133997
87	0x3d9d6a27	0.076862626
88	0x3e0cf166	0.13763961
89	0x3e29ce76	0.16582665
90	0xbe611ba3	-0.21983199
91	0x3e7a8ce0	0.24467802
92	0xbd849a20	-0.064747095
93	0xbe038dde	-0.12847087
94	0x3e2ce328	0.16883528
95	0x3ceecd2e	0.029150572
96	0xbc99efd4	-0.018791117
97	0x3db887c6	0.09010272
98	0x3c85c10d	0.016327405
99	0x3d10d5a9	0.035360012
100	0x3e17430d	0.14771672
101	0x3da7e7ae	0.08198486
102	0x3d0ee1da	0.034883358
103	0x3e1360e8	0.14392436
104	0x3e70675f	0.23476933
105	0x3da3df9b	0.08001634
106	0x3ea7100b	0.32629427
107	0x3e71f210	0.23627496
108	0xbdd974b3	-0.10617962
109	0x38b4ccd4	8.621221e-05
110	0xbe530f01	-0.20611192
111	0x3e75bddc	0.23998207
112	0xbc0ad8a6	-0.008474505
113	0x3ed210f7	0.41028568
114	0x3d8adbdc	0.06780216
115	0x3dc1a68f	0.09455597
116	0xbe3a72c5	-0.18207844
117	0x3e6f3fa2	0.23364118
118	0x3e5c87bf	0.21536158
119	0x3e43d35d	0.19123597
120	0x3ed2d541	0.41178325
121	0x3eb079b7	0.3446786
122	0x3e3129e2	0.17301133
123	0xbdc6bd97	-0.0970413
124	0x3d87e035	0.06634561
125	0x3dec25ba	0.11530633
126	0x3eb9d421	0.36294654
127	0x3ea94920	0.33063602
128	0xbe1251a2	-0.14288953
129	0x3dadfd33	0.084955595
130	0xbc460fe2	-0.012088748
131	0x3e79631f	0.24354218
132	0x3eaa2eb3	0.33238754
133	0x3de96809	0.11396796
134	0x3d14a24f	0.036287602
135	0x3cefe668	0.029284671
136	0x3e5c6457	0.21522652
137	0x3e806f40	0.25084877
138	0x3dc90d41	0.09816981
139	0x3efc6a64	0.4929992
140	0x3c0ad5d1	0.008473829
141	0x3d22a952	0.039712258
142	0xbe1190f5	-0.14215453
143	0x3ef421c4	0.4768201
144	0x3e3cbcef	0.18431447
145	0x3edad4f9	0.4274061
146	0x3dfa75ed	0.12229524
147	0xbcfa22c6	-0.03053416
148	0x3ebe881e	0.37213224
149	0x3e42a209	0.19007124
150	0xbd15619c	-0.03647004
151	0xbe1af9a2	-0.1513429
152	0x3e304d43	0.17216973
153	0x3e966de3	0.29380712
154	0xbd83bd31	-0.0643257
155	0xbdebeed8	-0.11520165
156	0xbd06c4c9	-0.032902513
157	0x3ea0b055	0.3138453
158	0x3d0b42ae	0.033999138
159	0x3ee6ebe6	0.4510185
160	0x3e5ed422	0.2176061
161	0x3e624731	0.2209747
162	0xbdf87f96	-0.1213371
163	0x3c3d1eb5	0.011542966
164	0x3eb22784	0.34795773
165	0x3eacb8f3	0.33734855
166	0x3e6cce99	0.23125686
167	0x3e27ca38	0.16385734
168	0xbdaa9815	-0.083297886
169	0xbd8b69c5	-0.06807283
170	0x3ea93622	0.33049113
171	0x3eaa5d3b	0.33274254
172	0x3e92d48d	0.28677788
173	0xbb860461	-0.0040898775
174	0xbd77b70e	-0.06047731
175	0x3eb443c8	0.35207963
176	0xbd812726	-0.06306295
177	0x3e998225	0.29982105
178	0xbe1ab81b	-0.15109293
179	0x3e3696d8	0.1783098
180	0xbd7b4ffb	-0.061355572
181	0x3e12bde4	0.1433025
182	0x3e89df2d	0.26928082
183	0x3df56359	0.1198184
184	0x3e8de677	0.27714893
185	0x3e179b4f	0.1480534
186	0x3d6a84a8	0.057255417
187	0x3e6f8b35	0.23392947
188	0x3df7ff09	0.12109191
189	0x3e4bc278	0.19898403
190	0x3e68b632	0.22725752
191	0x3ead94cd	0.33902588
192	0x3df59564	0.119913846
193	0x3b43e580	0.0029891431
194	0xbe1387bc	-0.14407247
195	0xbe6e2072	-0.23254564
196	0xbe105538	-0.14095008
197	0xbdde492c	-0.108538
198	0xbe1ba294	-0.15198737
199	0xbde3d1b8	-0.11123985
200	0x3e55ee26	0.20891628
201	0xbe7d5e64	-0.24743038
202	0xbdb6dc7c	-0.08928773
203	0xbd80a648	-0.06281716
204	0xbcc46620	-0.023974478
205	0x3e2f2a8e	0.17106077
206	0xbd32dd68	-0.04366818
207	0xbe25c764	-0.16189343
208	0x3dd91698	0.106000125
209	0x3e19f970	0.15036559
210	0xbd66dac0	-0.05636096
211	0xbc691160	-0.014225334
212	0xbe7590c2	-0.23981002
213	0x3cb304b0	0.021852821
214	0xbe56dcdc	-0.20982689
215	0x3d0078c8	0.031365186
216	0x3d5921b8	0.053010672
217	0xbd7c5020	-0.06159985
218	0xbe32694e	-0.17422983
219	0xbdaad4b0	-0.08341348
220	0xbde80224	-0.11328533
221	0xbd828b54	-0.06374231
222	0xbd8f211c	-0.06988737
223	0xbc5f1940	-0.01361686
224	0x3e28ef5f	0.16497563
225	0xbdaa35c2	-0.08311035
226	0x3eb2f628	0.34953427
227	0x3de49804	0.11161807
228	0x3e4ec4d9	0.20192279
229	0x3e3023c2	0.1720114
230	0xba66bff2	-0.0008802406
231	0xbd2ab8f4	-0.04168029
232	0x3d887071	0.066620715
233	0x3e04d75f	0.12972783
234	0x3eb21579	0.34782007
235	0x3db5aaf7	0.088704996
236	0x3e8c85f8	0.2744596
237	0x3e7a59fd	0.2444839
238	0xbdcc0a7c	-0.09962937
239	0x3e96f7e0	0.2948599
240	0x3e71ce14	0.23613769
241	0x3e3ca2e1	0.18421508
242	0x3cded1df	0.027199684
243	0xbe3ab63a	-0.18233576
244	0x3afe222c	0.0019388846
245	0x3de04131	0.10949934
246	0x3dd99797	0.106246166
247	0xbdc9a539	-0.09845967
248	0x3ece9e23	0.40355024
249	0x3d89f0c3	0.06735375
250	0xbda8de8e	-0.08245574
251	0x3dd74959	0.10512037
252	0x3da534f3	0.0806674
253	0x3dfcaf62	0.12338139
254	0x3e5b3846	0.21408185
255	0x3ec19781	0.378109

fc2.bias f4 [16]
0	0x3d1b9de3	0.03799237
1	0x3e73a47c	0.23793215
2	0x3e7c9724	0.2466703
3	0x3eb47963	0.3524886
4	0x3ee6a5f5	0.4504849
5	0x3e8aa44b	0.2707847
6	0xbd114c6c	-0.035473272
7	0x3eb52fde	0.35388082
8	0x3d93de08	0.072200835
9	0x3e83457b	0.25638947
10	0x3e493ab3	0.19651298
11	0xbdcaad13	-0.098962925
12	0x3e9685e7	0.29399034
13	0x3e37be0d	0.17943592
14	0x3e6e9fe9	0.23303188
15	0x3d1e28ef	0.038613256

fc3.weight f4 [3, 16]
0	0x3e1acb2b	0.15116565
1	0x3d86b731	0.0657791
2	0x3dc43e6e	0.0958222
3	0x3d9ce552	0.07660927
4	0x3d984956	0.07435863
5	0x3d8b3589	0.067973204
6	0x3b3a10e0	0.0028391406
7	0x3da69926	0.081346795
8	0x3d0003a6	0.03125348
9	0x3db03338	0.08603519
10	0x3dc0119f	0.09378361
11	0x3b26e24c	0.0025464473
12	0x3d9b3d2f	0.07580029
13	0x3dc0f878	0.09422392
14	0x3dafd14a	0.085848406
15	0x3df64d14	0.1202642
16	0x3e274790	0.16335893
17	0x3e69a03e	0.22815034
18	0x3dc36e37	0.09542506
19	0x3e6408dc	0.22269005
20	0x3e5c435e	0.21510074
21	0x3dd97949	0.106188364
22	0x3a049ba4	0.00050585927
23	0x3e06d7ba	0.1316823
24	0x3df1b678	0.11802381
25	0x3d5f2c1a	0.054485418
26	0x3daade83	0.08343222
27	0x3b1c36c4	0.0023836354
28	0x3dc4b850	0.09605467
29	0x3defb808	0.11705023
30	0x3cecd7ca	0.02891149
31	0xbbd2c55b	-0.006432218
32	0x3e49c26c	0.19703072
33	0xbd288a8f	-0.041147765
34	0xba0653fe	-0.000512421
35	0xbc0c5144	-0.008564297
36	0x3c81ea91	0.01585892
37	0xba5f703b	-0.00085234985
38	0x393de930	0.00018111314
39	0xbab71cf9	-0.0013970427
40	0x3e0e45d0	0.13893819
41	0x3c971516	0.018442672
42	0x3c4aa236	0.012367776
43	0x3ab30ef8	0.0013661077
44	0x3b5573f5	0.0032570336
45	0x3c84adec	0.016196214
46	0x3a35cc3b	0.0006935035
47	0x3dc94980	0.09828472

fc3.bias f4 [3]
0	0x3b7eef5b	0.0038899991
1	0x3ece3ee0	0.40282345
2	0xbe49e775	-0.197172
