output/gym_finger/Finger-v0-run1/actor.pkl (torch_old, 508320 bytes, 6 tensors)

fc1.weight f4 [400, 13]
0	0x3b9984f0	0.004685037
1	0xbd12ac15	-0.03580864
2	0x3d1d0543	0.038335096
3	0x3d2da94b	0.04239778
4	0x3c7991ec	0.015232544
5	0xbb90ef80	-0.004423082
6	0xbcabb7c7	-0.020961655
7	0xbc2af854	-0.010435183
8	0x3c27b218	0.010235332
9	0xbc38b314	-0.011273164
10	0xbc983c1c	-0.01858335
11	0xbd00cc60	-0.031444907
12	0xbc120bd8	-0.008913957
13	0x3aaaef00	0.0013041198
14	0xbc8e0470	-0.0173361
15	0xbd3789c5	-0.04480912
16	0x3c8d8abe	0.017278071
17	0x3d1bf7b1	0.038078014
18	0xbbcd7bb0	-0.006270848
19	0xbd200166	-0.039063834
20	0x3d1b9657	0.037985172
21	0x3c117918	0.008878969
22	0xbd4a3faa	-0.04937712
23	0x3d16c6a7	0.036810543
24	0xbc7f2758	-0.015573345
25	0xbc528b88	-0.01285065
26	0xbc8d333c	-0.017236345
27	0xbc508858	-0.012727819
28	0xbd318ae5	-0.04334535
29	0xbd3d2195	-0.046174604
30	0xbd1797ed	-0.037010122
31	0x3c6e17d4	0.014532048
32	0x3c213868	0.009840108
33	0xbd080fe4	-0.03321828
34	0xbc08cbb8	-0.008349352
35	0xbc6137ec	-0.013746243
36	0x3d0fd155	0.035111744
37	0xbc696ea0	-0.014247566
38	0x3d004641	0.031317
39	0x3d125ae1	0.0357312
40	0x3c2597e0	0.010107011
41	0x3cd1e872	0.025623534
42	0x3c258120	0.010101587
43	0x3d0d467f	0.03449106
44	0x3cdb5a12	0.026776347
45	0xbbc75a98	-0.0060837977
46	0xbd46c923	-0.048531663
47	0x3d388789	0.04505113
48	0x3d308c2b	0.043102425
49	0xbcb6f590	-0.02233389
50	0x3c96a81e	0.018390711
51	0x3d427485	0.047474403
52	0xbcf69633	-0.030100917
53	0xbd4036ff	-0.04692745
54	0x3d26676f	0.040625986
55	0x3b86add0	0.0041100755
56	0x3c12e1ac	0.008964937
57	0xbd0352ac	-0.032061264
58	0xbd2d74d2	-0.042347737
59	0xbc83ef40	-0.016105294
60	0xbb71f020	-0.0036916807
61	0xbc86e8cc	-0.016468428
62	0xbcef0f13	-0.029181993
63	0xbce2942d	-0.027658546
64	0x3cbd155e	0.023081478
65	0xbd44c352	-0.048037834
66	0xbcb2eec7	-0.021842374
67	0x3bb1cd80	0.005426109
68	0x3b2155a0	0.0024617687
69	0x3af170a0	0.0018420406
70	0xbc9d194a	-0.019177098
71	0xbd3f4185	-0.046693344
72	0xbd11f56e	-0.03563445
73	0xbc6edfd8	-0.014579736
74	0xbc66fdac	-0.014098566
75	0xbd4c386a	-0.04985849
76	0x3c1ccd54	0.009570438
77	0x3c3f3178	0.011669509
78	0x3d22edf7	0.039777722
79	0x3b288a50	0.0025717206
80	0x3d25e2f1	0.04049963
81	0x3be36170	0.0069391057
82	0xbc8cc26a	-0.017182548
83	0xbd11198b	-0.03542475
84	0x3c1fa9d4	0.00974508
85	0x3bd54ce8	0.006509412
86	0xbd3374dd	-0.04381262
87	0x3c8c57ea	0.017131764
88	0xbd0a787d	-0.033806313
89	0x3c28b568	0.010297157
90	0x3d22e78b	0.039771598
91	0x3cea0202	0.02856541
92	0x3ccb77e2	0.024837438
93	0xbd3aade5	-0.045575995
94	0x3badb050	0.005300559
95	0xbc8aab5c	-0.016927414
96	0x3d23d6d3	0.039999794
97	0xbd048f6e	-0.032363348
98	0x3ccf8b8e	0.0253351
99	0x3d016ca1	0.031597737
100	0x3d33f1c3	0.043931734
101	0xbd15ddf2	-0.036588617
102	0x3c4891a0	0.012241751
103	0x3d3e7e5d	0.04650723
104	0xbd30594f	-0.04305392
105	0xbc8d6374	-0.017259337
106	0xbd33a78d	-0.04386096
107	0xbd2ac01d	-0.04168712
108	0xbceda67d	-0.029010052
109	0xbbb6a0d0	-0.0055733696
110	0xbcb6c0e0	-0.022308767
111	0x3cd2362e	0.0256606
112	0x3c81ba42	0.015835885
113	0x3c1e6ef4	0.009670008
114	0xbb96f6b0	-0.004607044
115	0x3cc0bbaa	0.023526985
116	0x3cb2d92a	0.021832068
117	0x3c950ffa	0.018196095
118	0xbd2dd9cd	-0.04244404
119	0x3c26eeec	0.010188799
120	0x3b00e8e0	0.0019670054
121	0x3cd7ea0a	0.026356716
122	0xbc2fa5f8	-0.010720722
123	0x3c14aea8	0.009074844
124	0x3b9f5da8	0.0048634596
125	0x3c8f0692	0.017459188
126	0xbd31bb3f	-0.043391462
127	0xbd4990ca	-0.049210347
128	0xbd349945	-0.04409148
129	0xbd220c88	-0.039562732
130	0xbd3a8d85	-0.04554512
131	0x3d4a7099	0.049423788
132	0x3a4e2200	0.0007863343
133	0x3cd8bbd2	0.026456747
134	0xba504ac0	-0.0007945709
135	0x3d04d711	0.032431666
136	0xbd1257da	-0.035728313
137	0x3b2c4950	0.0026288815
138	0xbc4844d4	-0.012223441
139	0xbcbd8d9a	-0.02313881
140	0x3cb50c82	0.02210069
141	0xbd41ae82	-0.047285564
142	0x3cae37ca	0.021266837
143	0xbcc9ef37	-0.0246502
144	0x3c3c1f80	0.01148212
145	0x3a6ace00	0.0008957088
146	0x3bf76e98	0.0075510256
147	0xbbbe1ad8	-0.00580154
148	0x3d2eaa4b	0.042642873
149	0x3cd9a4e2	0.02656788
150	0xbb1eb6a0	-0.002421774
151	0xbd217bc2	-0.039424665
152	0x3cfa3d82	0.030546907
153	0x3d09db89	0.03365663
154	0x3d047505	0.03233816
155	0x3d101cc9	0.0351837
156	0x3d1e55bd	0.038655985
157	0x3d3aa759	0.04556975
158	0xbc845874	-0.016155459
159	0xbd398f83	-0.04530288
160	0xbd1b4580	-0.037908077
161	0xbc8c3bec	-0.017118417
162	0xbc126b60	-0.008936733
163	0x3d034bdd	0.03205477
164	0xbd34f172	-0.044175573
165	0xbb341e80	-0.0027484
166	0xbbfbdff0	-0.0076866075
167	0xbc32fcf8	-0.01092457
168	0xbc8e382c	-0.01736077
169	0xbccdf38d	-0.025140548
170	0x3b607000	0.0034246445
171	0xbd40238d	-0.046908904
172	0xbcebfc63	-0.02880687
173	0x3ce5b892	0.028042112
174	0xbc8aa894	-0.016926087
175	0x3ce24172	0.027619097
176	0x3b7c99b0	0.0038543753
177	0xbb8b2bc0	-0.0042471588
178	0xbc25d378	-0.010121219
179	0x3d4bbbab	0.04973952
180	0xbb8fc240	-0.00438717
181	0x3ccd8f2e	0.025092687
182	0x3cf94f12	0.030433211
183	0xbbdbd1d0	-0.006708361
184	0x3cab9c02	0.020948414
185	0xbcd06530	-0.025438875
186	0x3d3ece63	0.046583544
187	0x3cab9256	0.020943802
188	0xbc401e4c	-0.011725973
189	0xbd1ee720	-0.038794637
190	0x3d25ac0f	0.04044729
191	0xbce97033	-0.028495884
192	0xbceb99c0	-0.028759837
193	0xbd38ae0f	-0.04508787
194	0xbc5841c8	-0.013199277
195	0x3b7e4da0	0.0038803592
196	0xbcdb0eb0	-0.026740402
197	0xbbd6a540	-0.006550461
198	0xbd249d2b	-0.04018895
199	0xbca95470	-0.020670146
200	0x3d464d63	0.048413645
201	0x3ca4af22	0.020103041
202	0xb9e0f100	-0.00042904168
203	0x3cdef532	0.027216528
204	0xbb7bdeb0	-0.0038432293
205	0xbbf9a8d0	-0.007619001
206	0x3d08bf63	0.033385646
207	0xbd18127d	-0.037127007
208	0x3c2615c8	0.010137029
209	0x3ccd6b72	0.025075648
210	0xbc80de4a	-0.015730996
211	0x3d2b5421	0.04182828
212	0xbb338820	-0.002739437
213	0x3b077660	0.0020669922
214	0xbd38689f	-0.04502165
215	0x3b9ba170	0.0047494695
216	0x3d1fcf61	0.03901613
217	0x3d415375	0.04719873
218	0xbc4e0074	-0.01257335
219	0xbd09a8a2	-0.033608086
220	0xbb8bef70	-0.0042704865
221	0xbcef9f03	-0.029250627
222	0x3caa2f82	0.020774607
223	0xbd1864b3	-0.03720541
224	0x3c8537d2	0.016261969
225	0x3d0596c7	0.032614496
226	0xbc9e8a73	-0.019353127
227	0xbc857b04	-0.01629401
228	0x3d4ca2cb	0.04995994
229	0x3c4295e0	0.011876553
230	0xbba89770	-0.005145006
231	0x3bf04cf0	0.0073333904
232	0x3d1af97f	0.037835594
233	0xbd08e170	-0.03341812
234	0xbd48e1b5	-0.049043376
235	0x3c55201c	0.013008144
236	0x3cff6f56	0.031181019
237	0xbd21ba46	-0.039484285
238	0xbd0091bc	-0.031388983
239	0x3cb7a256	0.022416275
240	0xbbbd0098	-0.005767893
241	0x3be41328	0.0069602914
242	0x3c8d7d92	0.01727179
243	0x3d133591	0.035939757
244	0x3cbaf1a6	0.022820305
245	0x3cac2332	0.021012876
246	0x3bac24a8	0.005253393
247	0x3d226b15	0.039652903
248	0x3cd189c6	0.02557839
249	0x3a959b40	0.0011414066
250	0x3b56d9a0	0.0032783523
251	0x3ce0371e	0.027370032
252	0xbbd5d6d0	-0.006525852
253	0xbcaaf6b7	-0.020869596
254	0x3d1ad8b7	0.03780433
255	0x3c92ce6e	0.017920699

fc1.bias f4 [400]
0	0xbe052b21	-0.13004734
1	0xbe75d01a	-0.24005166
2	0xbd6f3bf8	-0.0584068
3	0x3e814547	0.25248167
4	0x3e25cfb8	0.1619252
5	0x3dc7ebd8	0.097617805
6	0x3dc87a40	0.09788942
7	0xbe85f704	-0.2616502
8	0xbe4bd3d0	-0.19905019
9	0x3e31c216	0.17359194
10	0x3dbdbe80	0.092648506
11	0x3d39eec0	0.045393705
12	0x3e3df27c	0.18549532
13	0xbcdeb550	-0.027186066
14	0xbd36db0c	-0.044642493
15	0x3d84f138	0.06491321
16	0xbe076034	-0.13220292
17	0x3e1305e4	0.14357716
18	0xbe5f621b	-0.21814768
19	0x3e3d0e4a	0.18462482
20	0xbcafa0b0	-0.021438926
21	0x3e3b7cac	0.18309277
22	0x3e883669	0.26604012
23	0x3e6c0b22	0.23051122
24	0xbced83e0	-0.028993547
25	0x3e63ae30	0.22234416
26	0xbd8af5ce	-0.06785165
27	0x3e8823e1	0.26589873
28	0xbe702f33	-0.23455505
29	0x3e8bb4c3	0.27286348
30	0xbd3b786c	-0.04576914
31	0xbe446034	-0.19177324
32	0xbd139960	-0.03603494
33	0xbe81c1a3	-0.25343046
34	0x3e65163e	0.22371766
35	0xbe51a06e	-0.20471355
36	0xbd09a478	-0.033604115
37	0xbe899779	-0.26873377
38	0xbe81bd2c	-0.2533964
39	0xbe4ebb95	-0.20188744
40	0x3e778a1e	0.24173781
41	0xbe7bfa2a	-0.24607149
42	0x3e74bfba	0.23901263
43	0x3d00dc78	0.031460255
44	0xbddfdbe6	-0.10930614
45	0x3c257080	0.010097623
46	0x3e21a56e	0.15785763
47	0x3d481978	0.048852414
48	0x3e4d6be4	0.20060688
49	0x3d75aaf8	0.0599775
50	0xbe2596a6	-0.16170749
51	0x3e2c4bd8	0.16825807
52	0xbd6af834	-0.05736561
53	0x3e2ac350	0.16676068
54	0xbd331e38	-0.04372999
55	0x3d293a88	0.041315585
56	0x3cc92b90	0.024556905
57	0xbd257c20	-0.040401578
58	0x3e84ba81	0.2592354
59	0x3cd1cb10	0.025609523
60	0xbdb6bf9a	-0.08923264
61	0x3d7a1f20	0.06106484
62	0xbdf035a6	-0.117289826
63	0xbdd63466	-0.10459213
64	0xbddbf310	-0.1073972
65	0xbe50344b	-0.20332448
66	0xbdc3b2d8	-0.09555596
67	0x3dc62818	0.09675616
68	0x3e576e76	0.21038231
69	0xbda59086	-0.08084206
70	0x3d038bc0	0.032115698
71	0x3d43ec58	0.047832817
72	0x3e6e44aa	0.23268381
73	0xbdf890be	-0.121369824
74	0x3e63468c	0.2219488
75	0x3d407558	0.046986908
76	0xbe108a4a	-0.14115253
77	0xbcfbd650	-0.03074184
78	0x3e4f1922	0.20224431
79	0xbde386e6	-0.11109714
80	0x3e6232c2	0.22089675
81	0x3e4470c8	0.19183648
82	0x3e4e5b1a	0.2015194
83	0xbe8668b6	-0.26251763
84	0xbd95515c	-0.07290909
85	0xbda4b528	-0.08042365
86	0xbddb4fbc	-0.107085675
87	0x3dc9a914	0.09846702
88	0xbda68e12	-0.081325665
89	0xbe3dab96	-0.18522486
90	0x3caac750	0.020846993
91	0x3e225680	0.1585331
92	0xbe813472	-0.25235325
93	0x3e4c4a8a	0.1995031
94	0xbe0ece81	-0.13945962
95	0x3e1c56de	0.15267512
96	0xbe8ca1e9	-0.27467278
97	0xbe80523f	-0.2506275
98	0xbdfdbcb6	-0.123895094
99	0x3e1ed802	0.15512088
100	0xbe73bb7c	-0.23801988
101	0x3d558ee8	0.05213824
102	0x3e85d957	0.2614238
103	0xbd150d94	-0.036389902
104	0x3db52358	0.08844632
105	0xbe82a167	-0.25513765
106	0x3ce48840	0.027897
107	0xbe1d08e4	-0.15335423
108	0xbe19c6f8	-0.15017307
109	0x3e4460a6	0.19177493
110	0x3dc28588	0.09498125
111	0x3e87b41b	0.26504597
112	0xbe22b32c	-0.15888661
113	0xbd83b554	-0.0643107
114	0xbd7092a0	-0.058733582
115	0xbdd51e14	-0.104061276
116	0x3e835905	0.25653854
117	0xbe171f7d	-0.14758106
118	0x3e36097c	0.17777056
119	0xbe772901	-0.24136735
120	0xbe31d9f7	-0.17368303
121	0xbd035cfc	-0.0320711
122	0x3d8bbf70	0.06823623
123	0xbe223eca	-0.15844265
124	0x3e0554c2	0.13020614
125	0xbe20311c	-0.15643734
126	0x3e30fe32	0.17284468
127	0x3e772b32	0.24137571
128	0x3e81e27f	0.25368115
129	0x3e8ae259	0.27125815
130	0x3e400cc0	0.18754864
131	0x3e88e947	0.26740476
132	0xbdbc4f58	-0.09194821
133	0xbe177f09	-0.14794554
134	0x3c4fe120	0.012687951
135	0xbd43299c	-0.047647104
136	0xbdaea6b6	-0.08527891
137	0xbe1650a5	-0.14679201
138	0xbe730dc5	-0.23735721
139	0x3e36f3d0	0.17866445
140	0x3e85204b	0.260012
141	0x3e2f72e2	0.17133668
142	0xbd180d30	-0.03712195
143	0xbe8265fe	-0.2546844
144	0xbe2e5848	-0.17025864
145	0xbcae7cb0	-0.02129969
146	0xbe8a4002	-0.2700196
147	0xbd7241ac	-0.05914466
148	0xbdbf956e	-0.09354673
149	0xbe717b6a	-0.23582235
150	0x3d39d868	0.045372397
151	0xbd07f8b0	-0.03319615
152	0x3e69bf62	0.22826913
153	0xbe85e57f	-0.26151654
154	0xbe05f926	-0.13083324
155	0x3c99fa20	0.018796027
156	0x3e239602	0.15975192
157	0x3d224cc8	0.039624006
158	0xbe076fd5	-0.13226254
159	0xbdf31750	-0.11869681
160	0x3e1d7e0e	0.15380117
161	0xbd8df276	-0.069310114
162	0x3e61b56e	0.22041866
163	0x3d486da0	0.04893267
164	0xbdcec33a	-0.1009583
165	0x3dda8fbc	0.106719464
166	0x3d86d0f0	0.065828204
167	0xbe6a81b2	-0.22901037
168	0xbe08a51e	-0.13344237
169	0x3da823d0	0.08209956
170	0xbc61cba0	-0.013781458
171	0x3e7842ee	0.24244282
172	0x3c94ddc0	0.018172145
173	0xbe486c76	-0.19572625
174	0x3e1ac142	0.15112785
175	0xbdaa60c0	-0.08319235
176	0x3e86dc6d	0.26340047
177	0x3cb6eca0	0.022329628
178	0x3ddd71dc	0.108127326
179	0x3d9ae8d4	0.0756394
180	0xbe8b28a8	-0.27179456
181	0xbcc674a0	-0.024225533
182	0xbe8ab46d	-0.2709078
183	0xbde339de	-0.11095022
184	0x3e4c96b0	0.19979358
185	0xbe818e51	-0.2530389
186	0xbdc2edfe	-0.0951805
187	0xbe180501	-0.14845659
188	0xbdbf0138	-0.09326404
189	0xbe10aece	-0.14129183
190	0xbe55f02b	-0.20892398
191	0x3e75199e	0.23935553
192	0xbe8b6917	-0.27228615
193	0x3de4b7c8	0.11167866
194	0xbd826b5e	-0.06368135
195	0xbd2431a8	-0.04008642
196	0xbad38a00	-0.001613915
197	0xbddc8b2c	-0.107687324
198	0xbd88afa2	-0.06674124
199	0x3e02e310	0.1278193
200	0xbe073feb	-0.13207977
201	0xbe819f58	-0.25316882
202	0x3db47aa4	0.08812454
203	0x3d368750	0.044562638
204	0x3e8821d9	0.26588324
205	0xbde7afc0	-0.113128185
206	0x3e4ba638	0.19887626
207	0xbd90a482	-0.070626274
208	0xbe132e2f	-0.14373086
209	0x3e7df87e	0.24801823
210	0x3d511788	0.05104783
211	0xbc8b0d40	-0.016974092
212	0x3ccc4e40	0.024939656
213	0x3e668282	0.22510722
214	0xbd2e0a6c	-0.042490408
215	0xbd4d6e04	-0.050153747
216	0x3d32fad0	0.043696225
217	0xbe48c27e	-0.19605443
218	0x3e6d818a	0.23193946
219	0xbe28305c	-0.16424698
220	0x3db18c4c	0.08669338
221	0xbd593c20	-0.053035855
222	0xbe0a6211	-0.13513972
223	0x3db87ea0	0.09008527
224	0x3db3779c	0.08763048
225	0x3e78c4ce	0.24293825
226	0xbe62c50f	-0.22145484
227	0xbdac4602	-0.084117904
228	0x3d24eb78	0.040263623
229	0x3e677ee6	0.22607002
230	0x3e55dbe6	0.20884666
231	0x3e66343a	0.2248086
232	0xbd0acf74	-0.03388925
233	0xbe52faea	-0.20603529
234	0xbceb2cf0	-0.028707951
235	0x3dfb3f8c	0.1226798
236	0x3e81086d	0.2520174
237	0x3e574e78	0.21026027
238	0xbd6155bc	-0.055013403
239	0x3e5711b2	0.21002844
240	0x3d8983f0	0.06714618
241	0xbd80ca9a	-0.06288643
242	0xbe223058	-0.15838754
243	0xbe43e9d6	-0.1913217
244	0xbdb468ee	-0.08809076
245	0xbe083e34	-0.13304979
246	0xbe790a83	-0.24320416
247	0xbe8dd851	-0.277041
248	0x3e7d718a	0.24750343
249	0xbe03389a	-0.1281456
250	0x3c980a70	0.018559664
251	0x3cac36a0	0.021022141
252	0x3e602792	0.21890095
253	0xbe4fc9d6	-0.20291838
254	0x3e517208	0.20453656
255	0xbe77679c	-0.24160618

fc2.weight f4 [300, 400]
0	0x3bee8f10	0.007280238
1	0xbce025ef	-0.027361838
2	0x3d27e858	0.040993065
3	0x3beda600	0.0072524548
4	0x3c8a1cf8	0.016859517
5	0xbd337e20	-0.043821454
6	0x3cfaa880	0.030597925
7	0xbd08360b	-0.033254664
8	0xbcf7fe51	-0.030272635
9	0xbcce7046	-0.02520002
10	0xbd473d28	-0.048642308
11	0xbd35c0f8	-0.044373482
12	0x3ca71ab0	0.020398468
13	0x3d270bde	0.0407828
14	0xbd6a520d	-0.057207156
15	0xbd2b6236	-0.041841708
16	0x3d55bbd0	0.052181065
17	0x3b04a4a0	0.0020239726
18	0x3d25959c	0.04042588
19	0x3bd68680	0.0065467954
20	0xbc93b300	-0.01802969
21	0x3d3d2200	0.046175003
22	0xbcd46a40	-0.02592957
23	0x3c599978	0.013281219
24	0x3d47ba1c	0.048761472
25	0x3d39cbc2	0.045360334
26	0x3d46401c	0.048400983
27	0xbd566abb	-0.05234788
28	0x3ccb88e8	0.024845555
29	0xbbd39b70	-0.0064577386
30	0x3cd9febc	0.026610725
31	0xbd0692ff	-0.03285503
32	0xbcfe3c77	-0.031034691
33	0x3d61f858	0.05516848
34	0xbd257d34	-0.040402606
35	0x3cd31bf4	0.025770165
36	0xbc89574e	-0.016765263
37	0xbc8a29fe	-0.016865727
38	0x3cc37e34	0.02386389
39	0x3d34aef0	0.044112146
40	0x3d3c57a2	0.04598201
41	0xbcaf29f8	-0.021382317
42	0x3c8bba18	0.01705651
43	0xbc29c9a4	-0.010363016
44	0x3d3c183c	0.04592155
45	0xbcebe8ac	-0.02879747
46	0x3c0b9058	0.008518301
47	0x3cef7c4c	0.029234074
48	0x3ce2ffa4	0.02770979
49	0x3c91f524	0.017817087
50	0x3d15e57a	0.0365958
51	0x3d28a5ae	0.04117363
52	0xbd323678	-0.043508977
53	0x3cc6d098	0.024269387
54	0xbc829704	-0.01594115
55	0xbd51bc1e	-0.051204793
56	0xbcb17c7c	-0.021665804
57	0xbd6b1ff8	-0.057403535
58	0x3d4d2440	0.0500834
59	0x3bc65990	0.006053157
60	0xbd4fe3d1	-0.050754372
61	0x3cedaa10	0.029011756
62	0x3cd0ebcc	0.025503062
63	0x3bad8b80	0.0052961707
64	0x3b807498	0.003920149
65	0x3d1ae5d2	0.03781683
66	0x3d4f14f6	0.0505571
67	0xbc533eb8	-0.012893371
68	0x3d001c7e	0.031277172
69	0xbcab86c8	-0.020938292
70	0xbd11ea3e	-0.03562378
71	0x3d13ec84	0.03611423
72	0x3ca254b0	0.019815773
73	0xbd450606	-0.048101448
74	0x3bced030	0.006311439
75	0xbc843136	-0.016136747
76	0x3d118e5c	0.035536155
77	0x3d3d3c9c	0.04620038
78	0x3d2b5336	0.041827403
79	0x3ca1ce5c	0.01975172
80	0xbd0e9619	-0.034811113
81	0x3c2bb688	0.010480531
82	0xbd0024ef	-0.031285223
83	0x3d4dd4ee	0.050251894
84	0x3d2da22a	0.04239098
85	0x3b867ad0	0.004103996
86	0xbc894e70	-0.016761035
87	0x3d5576b2	0.05211515
88	0xbd362382	-0.044467457
89	0xbcc4a002	-0.024002079
90	0x3c6905b8	0.014222555
91	0xbc11380c	-0.00886346
92	0xbb490f70	-0.0030679367
93	0xbc81e52a	-0.015856344
94	0xbcd3d862	-0.025860015
95	0xbd56a44f	-0.05240279
96	0x3bbba6a0	0.0057266504
97	0x3d001ea2	0.031279214
98	0x3ce9afbc	0.02852618
99	0xbd0b1607	-0.033956554
100	0xbd0eb42e	-0.0348398
101	0x3d3595a2	0.044332154
102	0xbd396d32	-0.045270152
103	0x3ced7c60	0.02898997
104	0xbd3c584a	-0.045982637
105	0xbc8c6bdc	-0.017141275
106	0x3c5cccf0	0.013476595
107	0x3cfa9c18	0.03059201
108	0xbca7ca74	-0.02048228
109	0x3d49a84a	0.04923276
110	0xbca4b78e	-0.020107057
111	0xbca6b524	-0.020350046
112	0x3d208ae2	0.03919495
113	0x3d0de59c	0.0346428
114	0x3d2b95f8	0.04189107
115	0x3a885ec0	0.0010404214
116	0x3d012fae	0.03153961
117	0xbbc310d0	-0.005952932
118	0x3d5838e6	0.052788638
119	0x3cb7aa28	0.022420004
120	0x3ce07a74	0.02740214
121	0xbd52d5ad	-0.05147331
122	0x3c166558	0.009179436
123	0xbd2a8a4e	-0.041635804
124	0x3d196e40	0.03745866
125	0xbcff5949	-0.031170504
126	0xbcbea21e	-0.023270663
127	0xbd441a54	-0.04787667
128	0x3bd2ce40	0.0064332783
129	0xbca2229e	-0.019791897
130	0xbd3fb050	-0.046799004
131	0x3a9a4420	0.001176957
132	0x3b9f8af0	0.0048688576
133	0x3c2c12d8	0.01050254
134	0x3c481268	0.01221142
135	0x3d13cdd8	0.03608498
136	0x3b5ba870	0.0033517145
137	0x3d384334	0.044985965
138	0x3be20460	0.006897494
139	0x3cbc3e94	0.022979058
140	0x3be9aa40	0.007130891
141	0xbd4c9e14	-0.049955443
142	0xbcec5c6a	-0.02885266
143	0x3c742860	0.014902204
144	0x3d14c6b4	0.03632231
145	0xbccbfc68	-0.02490063
146	0xbd07578a	-0.033042468
147	0xbbc37548	-0.0059649087
148	0x3c30c268	0.010788538
149	0xbcdf58c5	-0.027264008
150	0xbcf809a2	-0.03027803
151	0x3d347d2e	0.044064693
152	0x3c09ae38	0.008403353
153	0x3c180730	0.009279057
154	0xbcb6e87a	-0.02232765
155	0x3b46f3a0	0.0030357614
156	0xbd198588	-0.03748086
157	0x3d0b5e3c	0.034025416
158	0xbcf63717	-0.030055566
159	0xbc6e18a0	-0.014532238
160	0x3c7bc0a8	0.015365757
161	0xbd295df4	-0.041349366
162	0x3d678e42	0.056532152
163	0xbd66fa35	-0.05639096
164	0x3d2443e0	0.040103793
165	0x3d4d90b0	0.050186813
166	0x3d272c80	0.040813923
167	0xbca8b66e	-0.020594802
168	0x3d5df686	0.05419018
169	0x3d6c7a7a	0.05773399
170	0xbc859c1e	-0.016309794
171	0xba6f0b00	-0.00091187656
172	0x3c8a9e3c	0.016921155
173	0xbd1fb82a	-0.038993992
174	0x3b9d3cf0	0.004798524
175	0x3d6026a8	0.054724365
176	0xbd6277f4	-0.055290177
177	0x3c3f7660	0.011685938
178	0xbab30ea0	-0.0013660975
179	0xbd111115	-0.03541668
180	0x3b85f6a8	0.0040882416
181	0x3d30b514	0.04314144
182	0x3a168540	0.00057419017
183	0xbd68fadc	-0.056879863
184	0xbd6bd6bc	-0.057577834
185	0x3d63ab9a	0.055583574
186	0xbd1fab18	-0.038981527
187	0x3d3055ba	0.043050505
188	0x3cf0c6c4	0.029391654
189	0xbd28f188	-0.041245967
190	0xbcb72444	-0.02235616
191	0x3be093d0	0.006853558
192	0xbce91bf3	-0.02845571
193	0xbd5714a7	-0.05250993
194	0x3d0738f6	0.033013307
195	0x3ca5f5f0	0.020258874
196	0xbc7f96f4	-0.015599955
197	0x3b7dad40	0.0038708001
198	0x3d22594e	0.03963595
199	0x3bfd0550	0.0077215806
200	0xbc7974d4	-0.015225608
201	0x3b85d578	0.0040842853
202	0x3cf49020	0.02985388
203	0xbbc8c6f8	-0.0061272345
204	0xbc97934a	-0.01850285
205	0x3d603a2c	0.054742977
206	0x3d56d722	0.05245126
207	0x3cad7d5c	0.02117794
208	0xbb2ea180	-0.0026646554
209	0x3d0630e4	0.03276147
210	0xbd296488	-0.04135564
211	0xbc9e4ad8	-0.019322798
212	0x3c5a2090	0.013313428
213	0xbbf5e840	-0.007504493
214	0xbc62379c	-0.013807204
215	0x3d50acc8	0.050946027
216	0xbbea5908	-0.0071517266
217	0x3c8db68c	0.01729896
218	0xbd333c91	-0.043758933
219	0x3d638d44	0.055554643
220	0xbd31f850	-0.0434497
221	0xbccac284	-0.024750955
222	0xbd6b37ea	-0.05742637
223	0xbaee1060	-0.0018162839
224	0xbcddac31	-0.027059646
225	0x3d2aa7d2	0.041663952
226	0xbb8d4280	-0.004310906
227	0x3d311890	0.043236315
228	0xbcd6a04a	-0.026199479
229	0xbd550385	-0.05200531
230	0x39659200	0.00021893531
231	0x3ca901a0	0.020630658
232	0xbc550e84	-0.013003949
233	0xbc4bdd7c	-0.012442943
234	0x3d27dfb4	0.040984824
235	0xbcbd17fe	-0.02308273
236	0xbd58ff12	-0.05297763
237	0xbd3793e3	-0.04481877
238	0xbcf1a2cb	-0.029496571
239	0xbd6ae99e	-0.0573517
240	0x3d61a6ea	0.055090822
241	0x3c86e6f0	0.016467541
242	0x3cb95f38	0.022628412
243	0x3a843540	0.001008667
244	0x3d65108e	0.05592399
245	0xbc89cda6	-0.016821694
246	0x3ca64b8c	0.020299695
247	0xbaa01bc0	-0.0012215301
248	0xbd3b1c1a	-0.045681097
249	0x3bb7a600	0.0056045055
250	0x3c964bc0	0.018346667
251	0x3cbde520	0.023180544
252	0x3c9602ec	0.01831194
253	0xbc80dffa	-0.0157318
254	0x3d1ad658	0.03780207
255	0xbd66ddb9	-0.056363795

fc2.bias f4 [300]
0	0xbd2f2b5d	-0.042765964
1	0xbc9c5137	-0.019081695
2	0x3caea3ae	0.021318283
3	0x3a4446c0	0.0007487349
4	0x3cd5eb4a	0.026113171
5	0xbc1eb7c0	-0.009687364
6	0x3c819876	0.01581977
7	0xbd1f8f52	-0.03895504
8	0x3d043ff9	0.03228757
9	0xbcde2933	-0.027119255
10	0x3c3a8654	0.011384565
11	0x3c925a0a	0.0178652
12	0xbcdb3810	-0.026760131
13	0xbd06a80a	-0.0328751
14	0x3cbd065e	0.023074325
15	0x3d068d59	0.032849643
16	0xbc98c856	-0.018650215
17	0x3c17004c	0.009216379
18	0xbd312133	-0.043244552
19	0xbcf927ad	-0.030414427
20	0x3cad718a	0.021172304
21	0x3c9ad742	0.018901471
22	0x3d2872af	0.041124996
23	0x3c05bc80	0.008162618
24	0x38ca4c00	9.646267e-05
25	0xbc7273a0	-0.014798075
26	0x3d149f23	0.036284577
27	0x3c8260e2	0.015915338
28	0xbd0d8f8a	-0.034560718
29	0xbd2761eb	-0.040864866
30	0xbd3d5840	-0.04622674
31	0xbcf3407a	-0.02969383
32	0x3ce3433a	0.027742017
33	0x3c4369d4	0.011927087
34	0x3cdd5142	0.027016286
35	0xbd41067a	-0.047125317
36	0x3d42e869	0.047584925
37	0x3d019565	0.031636614
38	0x3b09cd30	0.0021026842
39	0xbd17aa5e	-0.03702771
40	0x3c064ca0	0.00819698
41	0x3be0f8b0	0.0068655834
42	0x3ca85ee2	0.020553056
43	0x3cbe454e	0.023226406
44	0xbd29111b	-0.04127608
45	0xbbe8ab58	-0.007100504
46	0xbd25badb	-0.040461402
47	0xbc3ae30c	-0.011406671
48	0x3cba2126	0.022720885
49	0x3cfdd242	0.030984048
50	0x3ce0e172	0.02745125
51	0xbbbc6bb0	-0.005750142
52	0x3d4a81eb	0.049440306
53	0x3ccb4b82	0.024816278
54	0x3ba14318	0.0049213283
55	0x3d360335	0.044436652
56	0x3cefc006	0.029266369
57	0xbd404263	-0.04693831
58	0x3d424075	0.047424752
59	0x3d2f9a31	0.042871658
60	0x3d30c221	0.043153886
61	0xbd3cca15	-0.046091158
62	0x3cfd34aa	0.030908901
63	0x3d14811b	0.036255937
64	0xbcaf6607	-0.021410955
65	0x3ca58276	0.02020381
66	0x3d1819cb	0.037133973
67	0xbc84599c	-0.01615601
68	0xbcb1e140	-0.021713853
69	0xbc5a36e0	-0.013318747
70	0xbd1c8bc3	-0.038219225
71	0x3c113588	0.0088628605
72	0x3c70a41c	0.014687564
73	0x3c45d858	0.012075506
74	0x3cc59246	0.0241176
75	0xbd3a1283	-0.04542781
76	0xbbabad40	-0.005239159
77	0xbc9318e0	-0.017956197
78	0xbd355e9a	-0.044279672
79	0x3c84e696	0.016223233
80	0x3cf363a2	0.029710595
81	0x3b3ce1d0	0.0028821118
82	0x3d2d87e7	0.042365935
83	0x3c88ee7a	0.016715277
84	0xbd2988b3	-0.041390132
85	0x3d28e1a5	0.041230816
86	0xbcfbb2a0	-0.030724823
87	0x3ce39296	0.027779859
88	0x3d30e1f1	0.043184225
89	0x3b94d698	0.004542183
90	0x3cf678a6	0.030086827
91	0xbcaec40a	-0.021333713
92	0xbcd22dcd	-0.025656605
93	0xbcbd8933	-0.02313671
94	0xbd2858fd	-0.04110049
95	0x3cb812a2	0.022469822
96	0x3d429683	0.04750682
97	0xbc9732ca	-0.018456835
98	0xbc2c4b38	-0.01051598
99	0x3ce6389e	0.028103169
100	0x3b866aa8	0.00410207
101	0x3cc105de	0.023562368
102	0xbc5c5a00	-0.013449192
103	0x3d3aba49	0.04558781
104	0x3d20c7db	0.039253097
105	0x3cd33762	0.025783245
106	0x3d118219	0.03552446
107	0x3d0aaf19	0.033858392
108	0xbd1793ad	-0.03700607
109	0xbbbf9458	-0.0058465414
110	0x3a9c0b00	0.0011905134
111	0xbb7e4c50	-0.003880281
112	0xbd3efdeb	-0.046628874
113	0xbd3e3fab	-0.046447437
114	0x3d146c67	0.036236193
115	0xbbc84530	-0.0061117634
116	0x3c9def62	0.019279186
117	0x3b000630	0.0019534938
118	0x3c8f61e6	0.017502736
119	0x3b907430	0.004408382
120	0x3aa62700	0.0012676418
121	0x3cfa8de6	0.03058524
122	0x3cc386d6	0.023868006
123	0x3cd49792	0.02595118
124	0x3d38b5e3	0.045095336
125	0x3d22313d	0.03959774
126	0x3b721e30	0.0036944263
127	0xbbb2ab68	-0.005452562
128	0x3cd446b2	0.025912616
129	0xbc87e6f4	-0.01658962
130	0x3d244403	0.040103924
131	0xbb9a26e8	-0.004704345
132	0x3d0150cf	0.031571206
133	0xbb6b10d0	-0.0035868175
134	0xbd43770b	-0.04772095
135	0xbc29d7f4	-0.010366429
136	0xbd3cf9b5	-0.046136577
137	0xbc7e4048	-0.0155182555
138	0x3c26e6f4	0.010186899
139	0xbd3ea523	-0.046544205
140	0x3d412c09	0.047161136
141	0xbd19e9f8	-0.037576646
142	0xbc88b71c	-0.016688876
143	0xbd33eefa	-0.043929078
144	0xbd274812	-0.040840216
145	0xbd2effab	-0.042724293
146	0xbd015a96	-0.03158053
147	0xbd3e1cea	-0.046414293
148	0x3cc2b2aa	0.023766834
149	0x3d327e2f	0.04357737
150	0x3cfc4892	0.030796323
151	0xbd232c76	-0.039837323
152	0x3cc1d4c2	0.023661021
153	0x3d22dec1	0.039763216
154	0xbc6af580	-0.014340758
155	0xbadeb1c0	-0.001699023
156	0x3c7ec31c	0.015549447
157	0xbcc0d2f7	-0.023538096
158	0xbcec941a	-0.028879214
159	0x3cfc0486	0.030763876
160	0xbd3e730f	-0.046496447
161	0x3c4c8e68	0.012485124
162	0x3cdbc536	0.026827436
163	0x3d17bad3	0.037043404
164	0x3c2059e8	0.00978706
165	0x3cb5def2	0.022201035
166	0xbd271e88	-0.0408006
167	0x3be04ed0	0.0068453327
168	0x3b5efca0	0.0034025088
169	0xbc2d3174	-0.010570873
170	0xbd42d820	-0.047569394
171	0x3d19e401	0.037570957
172	0xbccff7aa	-0.02538665
173	0xbbefe900	-0.007321477
174	0x3c4241c0	0.011856496
175	0x3c6bea5c	0.014399137
176	0x3d112957	0.035439815
177	0xbc0d6d78	-0.008632056
178	0x3d16d965	0.036828417
179	0xbc9ee89a	-0.019398022
180	0xbd4cabca	-0.04996852
181	0x3c4d8c34	0.012545634
182	0xbd406fe3	-0.046981703
183	0xbc85bf6a	-0.016326625
184	0xbaccc140	-0.0015621558
185	0xbd375c3a	-0.04476569
186	0x3d0e6761	0.03476656
187	0xbbbc94e8	-0.0057550557
188	0x3d2cbc3b	0.042171698
189	0xbd1b4ba8	-0.03791395
190	0xbd1f57fb	-0.038902264
191	0x3cfdb22a	0.030968744
192	0x3c5f1adc	0.013617244
193	0xbce1fa10	-0.02758506
194	0xbd2857ce	-0.041099362
195	0x3c6df35c	0.014523353
196	0x3cd48a52	0.025944863
197	0xbaa7bb60	-0.0012796931
198	0x3b3536a0	0.0027650967
199	0x3cc59c6e	0.024122443
200	0x3c663644	0.014051024
201	0xbd22fcbe	-0.039791815
202	0x3d038b0f	0.03211504
203	0x3c8164fa	0.01579522
204	0xbd15eec3	-0.036604654
205	0xbd330080	-0.04370165
206	0xbcd735fd	-0.02627086
207	0xbd1a7a62	-0.03771437
208	0xbc51ffac	-0.012817305
209	0xbcaa420d	-0.020783449
210	0xbcc1181d	-0.023571068
211	0xbcd8c747	-0.02646221
212	0xbd411ca8	-0.04714647
213	0x3cb3d44a	0.021951813
214	0xbc93e9d4	-0.018055834
215	0x3c7536c4	0.01496667
216	0x3d18fb37	0.037348952
217	0xbb63f250	-0.003478188
218	0xbc86ca1a	-0.016453791
219	0xbd3ec7e2	-0.04657734
220	0xbcb77a57	-0.022397203
221	0xbd424bab	-0.047435444
222	0x3d34e611	0.04416472
223	0x3c144194	0.009048838
224	0xbc4dce28	-0.0125613585
225	0x3d0e0571	0.034673158
226	0x3c9748f6	0.018467408
227	0x3d3ce43f	0.04611611
228	0xbc990880	-0.01868081
229	0x3d384d41	0.04499555
230	0xbc423d80	-0.011855483
231	0x3bb6cb18	0.00557841
232	0x3cd46792	0.025928292
233	0x3b5e3b50	0.0033909865
234	0x3ce6a56e	0.028155055
235	0x3bc50a10	0.0060131624
236	0xbbf1fc28	-0.0073847957
237	0xbc63b140	-0.01389724
238	0x3d028c4b	0.031872075
239	0x3d37a431	0.04483432
240	0x3cfc03e6	0.030763578
241	0x3ba25818	0.0049543492
242	0xbc519e54	-0.012794096
243	0xbcf6cc53	-0.030126726
244	0xbb4e0a30	-0.0031439178
245	0xbca23210	-0.019799262
246	0xbd1fb960	-0.038995147
247	0xbcbc3870	-0.02297613
248	0xbcae0da0	-0.021246731
249	0x3d332b27	0.043742325
250	0x3d170629	0.03687111
251	0xbd31614a	-0.043305673
252	0xbb9eba10	-0.0048439577
253	0x3bcecf40	0.006311327
254	0x3c80213a	0.015640844
255	0x3d26d81d	0.040733445

fc3.weight f4 [3, 300]
0	0xb933b830	-0.00017139385
1	0xba165cc8	-0.00057358714
2	0x3aa0b1c8	0.0012260014
3	0xba8530d6	-0.0010161649
4	0xbad55765	-0.0016276656
5	0xbace592a	-0.0015743126
6	0xbb22360b	-0.002475145
7	0xba748394	-0.0009327468
8	0xba6622dc	-0.0008778998
9	0xbb19d267	-0.0023471357
10	0x3a0d8270	0.000539816
11	0x3b13dc90	0.0022561885
12	0xbad6180b	-0.001633407
13	0xbabcebc2	-0.0014413523
14	0xba812226	-0.0009852096
15	0xbb051841	-0.0020308646
16	0xba6010d8	-0.0008547432
17	0xbaa6a7d7	-0.0012714815
18	0xbb010ddc	-0.0019692099
19	0x3a051e04	0.000507802
20	0x3b20225a	0.0024434538
21	0xba76b9ac	-0.00094118225
22	0x3b283948	0.0025668908
23	0x3b110a90	0.002213154
24	0xbaacd54c	-0.0013186126
25	0xbad02db1	-0.0015882758
26	0xbafd9f7a	-0.0019349896
27	0x3ac2c240	0.0014858916
28	0x3b1ef14c	0.002425271
29	0x3a07ded0	0.0005183043
30	0x3b42a654	0.002970119
31	0xbb3e898a	-0.002907368
32	0xbaddd8f4	-0.0016925619
33	0x3a98e6c8	0.0011665458
34	0x3b0882f6	0.0020830012
35	0x38603100	5.3451397e-05
36	0xbadbe8b4	-0.0016777725
37	0xba4c7644	-0.00077996054
38	0xbb21169e	-0.0024580131
39	0xbab70c6f	-0.0013965497
40	0x3ad67ac0	0.0016363487
41	0xbb194bc2	-0.0023391102
42	0x3a0b1158	0.00053050136
43	0x3b26f042	0.0025472795
44	0xbb06f76f	-0.002059426
45	0xbb221ae1	-0.002473526
46	0x3ad312a0	0.0016103573
47	0x3ad13310	0.0015960652
48	0x3903fe00	0.00012587756
49	0x39506bc0	0.00019876566
50	0x3af347bc	0.0018560807
51	0x3a750040	0.00093460456
52	0x3b402888	0.0029321034
53	0x3a88d418	0.0010439185
54	0x3b233224	0.0024901712
55	0xbb2919c1	-0.0025802704
56	0xb99e8800	-0.00030237436
57	0xbad8d2dd	-0.0016542334
58	0xb89d1c00	-7.491559e-05
59	0x3ad39d1c	0.0016144845
60	0xba82b848	-0.0009973133
61	0xb81a7480	-3.682496e-05
62	0x3b079e6a	0.0020693787
63	0xbb29a7d7	-0.0025887394
64	0xbb1611a2	-0.0022898694
65	0x3b3e8650	0.0029071756
66	0xbaf637c7	-0.0018784933
67	0x3aa39b98	0.0012482284
68	0x3a22f89c	0.0006216855
69	0xb9000bf0	-0.00012211478
70	0x3b048e18	0.0020226296
71	0xbaac9ac3	-0.0013168681
72	0x3987b668	0.0002588511
73	0xbaf7831c	-0.0018883678
74	0xbb295d26	-0.0025842874
75	0x3b3d7ff4	0.0028915377
76	0xb98927c0	-0.00026160292
77	0xb9297340	-0.0001616003
78	0xbb039433	-0.0020077347
79	0xbaf405bc	-0.0018617432
80	0xbacd4cfa	-0.00156632
81	0x3b3e8272	0.002906945
82	0x3ad29248	0.0016065324
83	0xb9ca6590	-0.00038604112
84	0xb9aa2170	-0.0003244984
85	0x3a90b498	0.0011040149
86	0x3b36de06	0.0027903332
87	0xbad55465	-0.0016275762
88	0xbb2dd5e6	-0.0026525198
89	0x3b270862	0.0025487174
90	0x3b10bdc8	0.0022085775
91	0x3ad97220	0.0016589798
92	0x3a0e97dc	0.0005439499
93	0xb9e0f2d8	-0.00042905542
94	0x3b0064a0	0.0019591227
95	0xb918deb0	-0.00014578807
96	0xbb07a785	-0.0020699215
97	0xbaae67ca	-0.0013306078
98	0x3a8aa700	0.0010578334
99	0x3afec7a4	0.001943816
100	0xbab4334d	-0.0013748199
101	0x3b0d74ce	0.0021584514
102	0x3b41c04e	0.0029564085
103	0x3aaadea8	0.0013036327
104	0x3a4db49c	0.0007847042
105	0x39fbc9e8	0.00048024883
106	0xbb43ea2b	-0.0029894214
107	0xbb1c8541	-0.0023883136
108	0x3a722918	0.0009237691
109	0xb8975320	-7.215724e-05
110	0x3a6a5348	0.00089388015
111	0x3ace9160	0.0015759878
112	0x3b17a852	0.0023141098
113	0x3a004c5c	0.0004894191
114	0xba7fe158	-0.0009761057
115	0x3aa5dbfc	0.0012654061
116	0xbb3669f7	-0.0027834156
117	0xba978dbe	-0.0011562628
118	0xbae19675	-0.0017210977
119	0x38dd1b60	0.000105432
120	0x3b2dd9e2	0.0026527573
121	0xbb43839f	-0.002983309
122	0x3b0bd138	0.002133442
123	0xb8c953e0	-9.60005e-05
124	0xbafc78b8	-0.0019262051
125	0x3af2b740	0.0018517748
126	0x3b2b8d80	0.002617687
127	0xb90a3080	-0.00013178773
128	0x3a496ad8	0.00076834625
129	0x3ad861d8	0.0016508652
130	0x3b230444	0.0024874369
131	0xb9d79f30	-0.000411266
132	0xba8df2e4	-0.0010829833
133	0xbb22d148	-0.002484398
134	0x3a4c5858	0.00077951467
135	0x3b44808e	0.002998385
136	0xb9ef0850	-0.00045591826
137	0x3a895e24	0.0010480327
138	0xbb2baa6e	-0.0026194113
139	0x3b3367a6	0.0027375012
140	0x3a2e13c8	0.0006640521
141	0x3a22c754	0.0006209512
142	0x39467780	0.00018927269
143	0x3b31d8ec	0.0027137352
144	0x3b10b5da	0.0022081048
145	0x3a9d5088	0.001200215
146	0xbb0f4c83	-0.0021865673
147	0xb9f50bf8	-0.0004673896
148	0x3925abf0	0.00015799678
149	0xbb02f900	-0.0019984841
150	0xb8a2a900	-7.756241e-05
151	0x3a9250dc	0.0011163014
152	0x39c7ab98	0.00038084085
153	0xbb045583	-0.002019257
154	0xb9000b60	-0.00012211269
155	0xbb2180a6	-0.002464333
156	0xba219924	-0.00061644823
157	0xba66d8c8	-0.00088061066
158	0x3a467664	0.0007570742
159	0x3a6a5df4	0.00089403917
160	0x3b184540	0.0023234636
161	0xba7baa14	-0.0009600234
162	0x3a9fad90	0.0012182463
163	0xbb3ef1aa	-0.0029135742
164	0x3ab8dd04	0.0014103954
165	0x3a2c1000	0.00065636635
166	0xbb28c898	-0.0025754329
167	0x3ab00ebc	0.0013432126
168	0x398fc838	0.0002742426
169	0xb997f0a8	-0.00028980267
170	0x3a6e99e8	0.00091019133
171	0x3a79ee30	0.0009534089
172	0xb9887040	-0.00026023574
173	0x3b32c620	0.0027278736
174	0x3a7a7218	0.00095537445
175	0x399b7a08	0.00029654824
176	0xba791ac8	-0.0009502587
177	0xbab52fd7	-0.0013823461
178	0x3b1845de	0.0023235003
179	0xba1c4258	-0.0005960814
180	0xbab0ff4b	-0.0013503818
181	0xb9b50608	-0.00034527504
182	0x3a86f2c0	0.0010295734
183	0x3a8c4468	0.0010701539
184	0x3b1beaf0	0.0023791157
185	0x39888168	0.00026036357
186	0x3b3ba92c	0.002863477
187	0x39ee5788	0.00045460113
188	0xb98038d0	-0.0002445639
189	0x3ae0ba9c	0.0017145458
190	0x3a1cdad4	0.00059835357
191	0xbaf6bc8b	-0.0018824501
192	0x3a708308	0.00091747986
193	0xbb053b96	-0.0020329705
194	0xba857edc	-0.0010184902
195	0xbb43710a	-0.0029822015
196	0x3b0d6cc4	0.0021579722
197	0xbb1379c0	-0.0022502989
198	0xbb2c0f05	-0.002625407
199	0xb7d5f600	-2.5506131e-05
200	0xbb398ec2	-0.002831385
201	0x3af9c918	0.0019057123
202	0xbaafa703	-0.0013401214
203	0x3b0f3b58	0.002185544
204	0x39064b80	0.00012807362
205	0xbac009b5	-0.001465133
206	0x3b03ca92	0.0020109755
207	0x3a83efc8	0.0010065967
208	0xbb38bae1	-0.002818756
209	0xbb255781	-0.0025229158
210	0x3b3e0faa	0.0029001036
211	0x3ac5ada8	0.0015081661
212	0x39f15148	0.0004602766
213	0x3aa2ef94	0.0012431019
214	0x3b02b40c	0.0019943742
215	0xbb1ddb7e	-0.0024087126
216	0x3a9f6f70	0.0012163948
217	0xba8dce42	-0.0010818916
218	0x3a88a148	0.0010424042
219	0x3b1a0ad2	0.0023504985
220	0xbaaa8262	-0.0013008828
221	0x3b3e9328	0.0029079411
222	0xbac550ab	-0.0015053948
223	0xbaecf555	-0.0018078486
224	0xbb2581cb	-0.0025254365
225	0x3b420114	0.0029602693
226	0x3aac51c8	0.0013146931
227	0x3aa890a4	0.0012860489
228	0x39d3c928	0.0004039493
229	0xbb07b452	-0.0020706845
230	0xba7d08b8	-0.0009652483
231	0x3806f6c0	3.2177893e-05
232	0x3b192e48	0.0023373533
233	0xb97359e0	-0.00023207767
234	0x3a0427a0	0.0005041305
235	0xbb37394e	-0.002795774
236	0xbaaa0113	-0.0012970291
237	0xbb21a85a	-0.0024666996
238	0x3b1f0b58	0.0024268236
239	0x3af2bfdc	0.0018520313
240	0xb9f70708	-0.0004711675
241	0xbac8c122	-0.0015316347
242	0x3b3a4aa0	0.0028425828
243	0x3a10fa44	0.00055304565
244	0xbaf36443	-0.0018569309
245	0xbaeaf93b	-0.001792706
246	0x3a5011e4	0.0007937236
247	0xb9f01520	-0.00045792107
248	0x3a5c32dc	0.00083999126
249	0xbb24b94d	-0.0025134862
250	0x3a947760	0.001132708
251	0x3a55f204	0.00081613683
252	0x3b12eadc	0.002241782
253	0xbb21818e	-0.002464387
254	0xbacb1758	-0.0015494628
255	0xba97c77f	-0.001157984

fc3.bias f4 [3]
0	0x3c5be928	0.013422288
1	0x3d2c28b8	0.04203102
2	0xbd13d726	-0.036093853
