output/gym_finger/Finger-v0-run1/actor.pkl (torch_old, 5203 bytes, 6 tensors)

fc1.weight f4 [32, 13]
-0.08229956 0.16765793 -0.12653878 0.09922092 -0.17133854 -0.10946828 0.09369956 0.07114901
0.026111558 0.12839474 0.058387563 -0.12674136 0.15063702 -0.05274503 0.045015723 0.09709157
0.035733074 0.032591462 -0.062101908 -0.094742134 -0.05613842 0.122777835 0.12626664 0.043780923
0.17258827 -0.15725069 -0.14186645 0.017782465 -0.08083068 -0.07422079 0.15884702 -0.14905387
0.066201404 0.07521449 -0.124391764 -0.050160944 -0.1501967 -0.012233943 0.090413496 0.16708697
-0.1325707 0.052067548 0.01604779 0.11084859 -0.08120233 -0.09826898 0.020590484 0.07381685
0.09476207 -0.051069364 -0.11635722 0.027650699 -0.10636516 -0.06528831 0.03707464 -0.06029956
0.028200597 0.15808891 -0.16402306 -0.09715057 0.14445157 0.14164375 -0.057268083 -0.10469808
-0.17085588 -0.036040574 0.052752182 0.17353629 -0.13713697 0.13388328 -0.1265442 -0.011883959
0.08257447 -0.035061672 0.102479145 0.014076844 0.13889278 -0.0135201365 -0.026945665 0.090184346
-0.04979427 0.043394774 0.0709413 0.042469338 -0.15143776 -0.04188876 0.0740277 -0.09576187
-0.052071713 -0.13334095 -0.13677052 -0.16198213 -0.023698077 -0.14695233 -0.049701944 0.033983693
0.021986887 -0.08811563 0.10952793 -0.09097092 0.12123357 -0.15729977 -0.08483402 0.04633729
0.04579392 -0.0066702813 -0.04086484 0.091737464 -0.07793378 -0.13476977 0.048681676 0.06291352
-0.0518587 0.026600122 -0.09853079 0.0605886 0.040585265 -0.13345839 -0.118079685 -0.09202387
0.07930721 0.16750841 -0.08124465 0.15355875 -0.021718487 0.052914247 0.14740737 0.12950973
-0.10100915 -0.012116179 -0.09571016 0.0204003 -0.16519919 -0.090544835 -0.16972645 0.08589603
0.08370049 -0.16662069 -0.034662396 -0.1636864 -0.16571403 -0.05125849 -0.024735227 0.12626527
0.051476493 -0.06286883 -0.1419092 0.027350396 0.025516614 -0.016272247 0.048748016 -0.11680873
0.0070129335 -0.12679805 0.109132275 -0.16274723 -0.026507825 0.08333732 -0.16411708 -0.08911738
0.051707402 0.054411426 0.100463495 0.15490986 -0.045593113 -0.04083827 0.07057941 -0.0797819
0.0025107563 -0.021568224 0.13883962 -0.07863177 0.049921483 -0.018112078 0.16726772 -0.1586707
0.08479576 -0.09268284 0.08592154 0.08455087 -0.16846192 0.019934863 -0.057482846 -0.0022960752
0.10310386 0.1413564 -0.034440964 -0.11301106 0.07493676 -0.028266579 -0.13473745 -0.13677798
-0.034574226 -0.0067843795 -0.10215599 -0.022107765 0.07438941 0.106447354 0.045917332 0.1097406
-0.020895496 0.08572103 -0.10271716 -0.103869766 0.034119785 0.16041492 -0.14044847 0.17389537
0.13653524 0.07424809 0.07765482 -0.11517267 0.08684324 -0.064099394 -0.019375205 -0.06167133
0.07249966 0.03945008 -0.14307675 0.08565436 0.02219145 0.16354506 -0.05079566 0.17594577
0.08510457 -0.069296874 0.11904059 0.10523985 0.035263002 -0.09232583 -0.12037155 -0.088232785
0.124447 0.013798103 0.055391803 0.045893043 0.16362809 0.01569964 -0.054263204 0.062734425
-0.050356522 0.14798121 0.0415636 0.018897891 0.1524206 -0.09068155 -0.059407353 0.066598356
0.13226782 -0.049395636 0.095411584 -0.092339255 0.06217824 0.110865876 -0.081063986 -0.0970085
00000000: ac8c a8bd 85ae 2b3e 6293 01be 5634 cb3d
00000010: 5f73 2fbe e830 e0bd 8ee5 bf3d 92b6 913d
00000020: e8e7 d53c e979 033e cc27 6f3d 7dc8 01be
00000030: 9740 1a3e 2c0b 58bd 6862 383d f2d7 c63d
00000040: d85c 123d a07e 053d 925e 7ebd 2a08 c2bd
00000050: 66f1 65bd f272 fb3d 0b4c 013e a053 333d
00000060: fbba 303e 5306 21be 7045 11be 88ac 913c
00000070: 8e8a a5bd 1201 98bd cba8 223e 94a1 18be
00000080: 9a94 873d 0e0a 9a3d 1cc1 febd 9075 4dbd
00000090: 2acd 19be e070 48bc b62a b93d d918 2b3e
000000a0: 9dc0 07be c844 553d a876 833c 9604 e33d
000000b0: 684d a6bd 3f41 c9bd 60ad a83c 4a2d 973d
000000c0: 9e12 c23d 1c2e 51bd b24c eebd b883 e23c
000000d0: fad5 d9bd e1b5 85bd 94db 173d acfc 76bd
000000e0: f004 e73c 0fe2 213e a9f5 27be e1f6 c6bd
000000f0: 1deb 133e 0f0b 113e f091 6abd f26b d6bd
00000100: d8f4 2ebe 489f 13bd ac12 583d 7fb3 313e
00000110: a26d 0cbe b318 093e ce94 01be f0b4 42bc
00000120: ce1c a93d d49c 0fbd 96e0 d13d 90a2 663c
00000130: e939 0e3e 9083 5dbc 28bd dcbc 92b2 b83d
00000140: 14f5 4bbd b8be 313d ac49 913d 54f4 2d3d
00000150: 8012 1bbe 8c93 2bbd d69b 973d cd1e c4bd
00000160: 2649 55bd 888a 08be 920d 0cbe a5de 25be
00000170: 7822 c2bc ac7a 16be 4494 4bbd 7c32 0b3d
00000180: d81d b43c f875 b4bd 2e50 e03d f64e babd
00000190: 4e49 f83d 3113 21be 75bd adbd 2ccc 3d3d
000001a0: 6892 3b3d 6092 dabb e461 27bd dae0 bb3d
000001b0: bf9b 9fbd 1601 0abe 7066 473d ced8 803d
000001c0: ca69 54bd 80e8 d93c 83ca c9bd c02b 783d
000001d0: bc3c 263d 51a9 08be c3d3 f1bd 0377 bcbd
000001e0: d26b a23d 5387 2b3e 9863 a6bd 813e 1d3e
000001f0: f8ea b1bc 9cbc 583d f5f1 163e 339e 043e
00000200: e3dd cebd f082 46bc b003 c4bd 881e a73c
00000210: fa29 29be 926f b9bd c5cc 2dbe 42ea af3d
00000220: 2a6b ab3d 9d9e 2abe 28fa 0dbd 689d 27be
00000230: f0b0 29be 6cf4 51bd 88a1 cabc af4b 013e
00000240: 04d9 523d 60c1 80bd a550 11be f00d e03c
00000250: 3808 d13c 604d 85bc 00ac 473d 6a39 efbd
00000260: c0cc e53b 59d7 01be be80 df3d 36a7 26be
00000270: f026 d9bc c2ac aa3d 4f0e 28be 2c83 b6bd
00000280: 24cb 533d 84de 5e3d cebf cd3d b1a0 1e3e
00000290: d8bf 3abd 0846 27bd f08b 903d b164 a3bd
000002a0: 808b 243b d8af b0bc f92b 0e3e b209 a1bd
000002b0: 787a 4c3d c85f 94bc 3b48 2b3e 927a 22be
000002c0: 66a9 ad3d 80d0 bdbd a2f7 af3d 0229 ad3d
000002d0: 4881 2cbe 704e a33c 2273 6bbd c079 16bb
000002e0: 1e28 d33d bbbf 103e f811 0dbd 5872 e7bd
000002f0: 7278 993d 508f e7bc 9df8 09be 870f 0cbe
00000300: b49d 0dbd 804f debb 2937 d1bd 581b b5bc
00000310: 7a59 983d 1201 da3d d013 3c3d aebf e03d
00000320: 082d abbc 828e af3d 605d d2bd acb9 d4bd
00000330: 30c1 0b3d cf43 243e b9d1 0fbe a111 323e
00000340: e5cf 0b3e 620f 983d 7e09 9f3d a6df ebbd
00000350: deda b13d 8b46 83bd c0b8 9ebc 149b 7cbd
00000360: b47a 943d 6896 213d b682 12be 8e6b af3d
00000370: d8ca b53c 5b78 273e 1c0f 50bd 212b 343e
00000380: 4e4b ae3d 85eb 8dbd 8ecb f33d fe87 d73d
00000390: f06f 103d 5315 bdbd 5c85 f6bd 64b3 b4bd
000003a0: 12de fe3d 7011 623c 84e2 623d 58fa 3b3d
000003b0: 1f8e 273e 889c 803c 1843 5ebd e87a 803d
000003c0: a442 4ebd 6388 173e 983e 2a3d c0cf 9a3c
000003d0: 2514 1c3e 40b7 b9bd 2055 73bd b864 883d
000003e0: 3771 073e 1453 4abd 2667 c33d 5d1c bdbd
000003f0: 9cae 7e3d a60d e33d e004 a6bd 64ac c6bd

fc1.bias f4 [32]
-0.080444485 0.005950153 -0.22880842 0.1265572 -0.030979991 -0.12264949 -0.15683296 -0.027071625
0.004098803 0.21511152 -0.15840803 -0.25953177 -0.087672874 0.22974339 -0.11034387 0.05845061
-0.095553085 0.045012742 -0.103501424 0.2736105 -0.24092147 0.0590384 0.26822308 0.120397985
-0.1947057 0.16452047 -0.11026099 0.17683688 0.118958294 0.22083625 -0.060351416 0.2736092
00000000: 14c0 a4bd 80f9 c23b c14c 6abe 3698 013e
00000010: c0c9 fdbc a82f fbbd d298 20be 50c5 ddbc
00000020: 404f 863b 3246 5c3e b735 22be 59e1 84be
00000030: d68d b3bd da41 6b3e f8fb e1bd e869 6f3d
00000040: 56b1 c3bd 485f 383d 8ef8 d3bd ad16 8c3e
00000050: 1eb4 76be 40d2 713d 8954 893e 3893 f63d
00000060: ee60 47be 0e78 283e 84d0 e1bd ba14 353e
00000070: 68a0 f33d e622 623e 0c33 77bd 8116 8c3e

fc2.weight f4 [16, 32]
-0.23022279 -0.08424047 -0.17710036 -0.24026445 0.026170224 -0.1742436 0.0872916 -0.19317642
-0.23746073 0.036824137 -0.085686594 0.15340602 -0.17776248 0.16741118 0.06625727 0.028598517
-0.17849994 -0.020688653 -0.1960949 -0.23688653 0.07284868 0.20724005 -0.05256018 -0.15364435
-0.22093794 0.24636441 -0.09610787 -0.21740606 0.22366399 0.10363299 -0.07486424 -0.124286056
-0.06688079 -0.03491655 -0.24433774 0.041991085 0.155868 0.2436423 -0.23601538 0.040385216
0.24349862 -0.072134286 -0.15248933 0.08025223 -0.105285645 -0.07760477 0.17031768 0.05543229
0.13031796 0.07448211 -0.16411784 0.2165761 -0.14445159 0.23582143 0.13615274 -0.18004203
0.122090906 0.1991173 -0.133232 0.18319437 -0.11169487 0.24428186 0.19674745 0.045999438
-0.116832286 0.15639871 -0.07172051 -0.15724716 -0.07089728 -0.07267222 0.120660365 0.044642
0.14682376 -0.24080905 -0.09197956 -0.23968047 0.10671392 0.18887961 -0.21866593 -0.06635982
0.09762043 0.039300323 -0.094264925 -0.12596515 0.13469538 -0.011069953 0.13762563 0.23485366
-0.23591846 -0.19957954 0.073119015 -0.1843372 0.19687659 -0.005053818 -0.22178474 -0.20812929
0.23396522 -0.12602192 -0.050890267 0.228398 0.18046501 0.13276118 0.10093129 -0.03811115
-0.037730306 -0.01051271 0.05145356 0.2309398 -0.14077759 -0.18886241 0.045872957 0.122668356
0.18020728 0.025780112 0.15882358 0.13718116 0.07303473 0.22051537 -0.05533722 0.11913678
0.2496387 -0.21264893 -0.037089437 0.1949366 -0.12919399 0.158999 0.014220059 -0.18990332
-0.007561773 -0.16663367 -0.091011465 0.111592114 -0.011918515 -0.19432303 -0.054497987 0.17583916
0.24010941 0.07960838 0.08987391 0.06477162 -0.10781917 0.09992126 -0.008499563 0.24055487
-0.22143143 0.22876593 0.13593888 0.11817488 -0.013561666 0.22243866 0.15408942 0.14479417
-0.24373323 0.08531654 -0.022362024 -0.060527265 -0.05614072 0.22239393 -0.19540524 0.06678808
0.008091956 -0.1106748 -0.19670668 -0.22179899 -0.15408877 0.15076491 0.19107658 -0.23430043
0.23625451 -0.16358322 -0.19291046 0.002185434 -0.14088601 0.14526233 -0.23747501 0.15454257
0.041660726 0.20848686 -0.0571478 -0.22537443 0.05064091 -0.20276901 0.08734691 -0.22351375
0.23728615 0.16292837 -0.13182053 -0.14799437 0.16093045 -0.13041455 0.22149977 0.23774812
0.042749524 -0.2388179 0.13128003 -0.16560501 0.09460318 0.22250462 0.024055839 0.023865432
0.009272546 -0.2235581 0.12746301 -0.024282724 -0.20764542 -0.10518402 0.08425388 -0.116337836
-0.09552252 -0.16089773 0.0012927353 0.14135289 0.23915961 -0.1681056 0.08303866 -0.19377682
-0.2492803 0.11479291 -0.024288863 -0.017325908 0.18926954 -0.07509059 0.021309614 -0.01566106
0.05674532 -0.08081931 -0.18225688 0.06376746 0.21053466 0.09610507 -0.05340582 -0.025252342
0.07483071 0.12613109 -0.04553786 0.14163882 -0.13563976 -0.2145702 0.049513966 -0.23315305
0.19840872 0.020308167 0.0004091859 0.015009612 -0.026311845 -0.11816102 -0.12505394 0.049297303
-0.16947523 -0.14912683 0.17285106 -0.05584213 0.12153301 0.030718297 -0.06359011 -0.15919083
00000000: 86bf 6bbe 4486 acbd cc59 35be e207 76be
00000010: f062 d63c ea6c 32be f0c5 b23d 0ad0 45be
00000020: e828 73be e8d4 163d 747c afbd 7816 1d3e
00000030: 5e07 36be d66d 2b3e e4b1 873d 7047 ea3c
00000040: b0c8 36be 407b a9bc 1acd 48be 6292 72be
00000050: b031 953d bc36 543e 5849 57bd f254 1dbe
00000060: 8e3d 62be f446 7c3e 34d4 c4bd b29f 5ebe
00000070: 2c08 653e 883d d43d 6c52 99bd b089 febd
00000080: ccf8 88bd a804 0fbd ac33 7abe d8fe 2b3d
00000090: dc9b 1f3e 5e7d 793e 04ae 71be f86a 253d
000000a0: b457 793e 24bb 93bd 2a26 1cbe 485b a43d
000000b0: 00a0 d7bd 40ef 9ebd c267 2e3e f80c 633d
000000c0: 1272 053e 148a 983d 820e 28be 20c6 5d3e
000000d0: 1eeb 13be 2c7b 713e a06b 0b3e f05c 38be
000000e0: cc0a fa3d 68e5 4b3e f86d 08be 4e97 3b3e
000000f0: 48c0 e4bd 0625 7a3e 2a78 493e e869 3c3d
00000100: c445 efbd fc26 203e 34e2 92bd 6605 21be
00000110: 9832 91bd 2cd5 94bd c81c f73d 88da 363d
00000120: f858 163e a696 76be c85f bcbd cc6e 75be
00000130: d48c da3d a869 413e f6e9 5fbe a8e7 87bd
00000140: 38ed c73d 60f9 203d f80d c1bd 02fd 00be
00000150: 96ed 093e c05e 35bc bced 0c3e 7a7d 703e
00000160: 9c94 71be 945e 4cbe 6cbf 953d e4c2 3cbe
00000170: 049a 493e 809a a5bb 8a1b 63be d81f 55be
00000180: 9494 6f3e e40b 01be 5072 50bd 2ae1 693e
00000190: d2cb 383e 8cf2 073e 10b5 ce3d 701a 1cbd
000001a0: 188b 1abd 803d 2cbc f8c0 523d 7c7b 6c3e
000001b0: 0028 10be 2665 41be 48e5 3b3d 8c39 fb3d
000001c0: 4288 383e d030 d33c a6a2 223e 3879 0c3e
000001d0: 3c93 953d c8ce 613e 48a9 62bd fcfd f33d
000001e0: 4aa1 7f3e a4c0 59be 18eb 17bd 769d 473e
000001f0: 6e4b 04be a2d0 223e 40fb 683c 0476 42be
00000200: c0c8 f7bb 04a2 2abe 3864 babd 688a e43d
00000210: e045 43bc 9efc 46be 4839 5fbd 2e0f 343e
00000220: 3edf 753e b809 a33d d00f b83d fca6 843d
00000230: 4cd0 dcbd 84a3 cc3d c041 0bbc 0454 763e
00000240: ecbe 62be 9e41 6a3e 9033 0b3e ac05 f23d
00000250: c031 5ebc f6c6 633e 9ec9 1d3e ec44 143e
00000260: 3495 79be 70ba ae3d 9030 b7bc 70eb 77bd
00000270: d0f3 65bd 3cbb 633e 5018 48be 30c8 883d
00000280: 2094 043c 78a9 e2bd 7a6d 49be 461f 63be
00000290: 72c9 1dbe 1e62 1a3e 94a9 433e 74ec 6fbe
000002a0: b4ec 713e 5c82 27be 528a 45be 8039 0f3b
000002b0: 6c44 10be a6bf 143e a62c 73be 6840 1e3e
000002c0: 70a4 2a3d 947d 553e d013 6abd 8ec8 66be
000002d0: d86c 4f3d aea2 4fbe f0e2 b23d cae0 64be
000002e0: 24fb 723e b2d6 263e f6fb 06be d68b 17be
000002f0: f4ca 243e 648b 05be d6d0 623e 3e74 733e
00000300: 201a 2f3d ae8c 74be 466e 063e 5c94 29be
00000310: 50bf c13d 40d8 633e c010 c53c 7081 c33c
00000320: e0eb 173c 6aec 64be aa85 023e 90ec c6bc
00000330: 00a1 54be b86a d7bd 4c8d ac3d 8842 eebd
00000340: 50a1 c3bd 60c2 24be 0071 a93a d0be 103e
00000350: 42e6 743e e023 2cbe 2c10 aa3d 6e6d 46be
00000360: 5643 7fbe 8c18 eb3d 70f9 c6bc 10ef 8dbc
00000370: e0cf 413e 18c9 99bd 8091 ae3c a04b 80bc
00000380: c86d 683d 9884 a5bd 8ca1 3abe 8498 823d
00000390: 6696 573e bcd2 c43d 10c0 5abd 00de cebc
000003a0: d840 993d 8228 013e e885 3abd c409 113e
000003b0: 26e5 0abe 4ab8 5bbe 28cf 4a3d acbf 6ebe
000003c0: a82b 4b3e 505d a63c 0088 d639 e0ea 753c
000003d0: f08b d7bc 68fe f1bd 240e 00be f8eb 493d
000003e0: ea8a 2dbe b4b4 18be deff 303e b8ba 64bd
000003f0: 4ce6 f83d f0a4 fb3c 883b 82bd ec02 23be

fc2.bias f4 [16]
0.13083993 0.15505116 -0.057278514 -0.1362063 0.12150566 0.114118114 0.054557815 0.08730413
0.025957376 0.123989984 -0.053760603 -0.022191226 -0.13080403 0.17022668 0.15032525 0.012932122
00000000: e7fa 053e bbc5 1e3e e09c 6abd aa79 0bbe
00000010: f6d7 f83d c2b6 e93d 0478 5f3d 82cc b23d
00000020: 90a4 d43c 76ee fd3d 1434 5cbd 60ca b5bc
00000030: 7ef1 05be e74f 2e3e ddee 193e 40e1 533c

fc3.weight f4 [3, 16]
6.892346e-05 0.0017820043 0.00042690826 -0.0022415495 -0.0012085336 0.00060388586 -0.0002583887 0.0010025967
-0.00024178694 -0.00018955092 -0.0026402012 0.0020533544 0.00026910636 -0.0011310064 -0.0004445808 0.002858622
-0.0009508957 0.0010378701 0.0016723122 0.00017969683 -0.00089576887 -0.0019790195 0.0008696951 0.0020203697
-0.0016341455 -0.0024991056 -0.0013330408 -0.00044705067 -0.0024644025 0.00023487746 -0.0029826562 -0.00217987
-0.0004619651 0.0013507879 0.0021937313 0.0013524364 -0.0019888 0.0016908515 0.0027424577 -0.0021266313
0.0018506357 -0.0020217912 -0.0029013935 0.0017087245 4.2880187e-05 0.0021603988 -0.0007710345 0.0014237761
00000000: 008b 9038 2492 e93a a8d2 df39 f6e6 12bb
00000010: a967 9eba 184e 1e3a 5878 87b9 9069 833a
00000020: 3088 7db9 30c2 46b9 3a07 2dbb 9291 063b
00000030: d816 8d39 473e 94ba a016 e9b9 b857 3b3b
00000040: 8845 79ba 2409 883a 7c31 db3a 006d 3c39
00000050: 08d2 6aba 70b2 01bb 40fc 633a 2e68 043b
00000060: d330 d6ba 09c8 23bb 6db9 aeba 2062 eab9
00000070: d081 21bb 7049 7639 ab78 43bb 26dc 0ebb
00000080: e833 f2b9 ec0c b13a b4c4 0f3b 3c44 b13a
00000090: 8756 02bb 909f dd3a ceba 333b f45e 0bbb
000000a0: 0891 f23a 0780 04bb 4e25 3ebb 48f7 df3a
000000b0: 40da 3338 7a95 0d3b 401f 4aba 009e ba3a

fc3.bias f4 [3]
0.18237674 -0.09152585 -0.012775421
00000000: f8c0 3a3e e871 bbbd 0050 51bc
