output/gym_finger/Finger-v0-run1/actor.pkl (torch_old, 508320 bytes, 6 tensors)

fc1.weight f4 [400, 13]
0	0xbcb89b7d	-0.02253508
1	0x3aae5760	0.0013301186
2	0x3c44e428	0.012017287
3	0x3cc6e936	0.024281126
4	0xbd280360	-0.041018844
5	0x3ce04e86	0.027381193
6	0xbcbd46ba	-0.023105014
7	0xbb88e980	-0.004178226
8	0x3ca6da9a	0.02036791
9	0x3d23df3d	0.04000782
10	0x3d10c3fd	0.03534316
11	0x3c8079ba	0.015683044
12	0x3d409c8f	0.047024306
13	0x3c86d6c2	0.016459826
14	0xbb7c3a80	-0.0038487017
15	0x39844580	0.00025228783
16	0xbc41f678	-0.011838548
17	0xbcb411b7	-0.021981103
18	0x3c075628	0.008260287
19	0x3c9c6862	0.019092742
20	0xbbf35bb0	-0.0074267015
21	0x3ca2dd4a	0.01988091
22	0x3d07c641	0.033148054
23	0x3d318ca7	0.043347027
24	0xbd207a9a	-0.039179422
25	0x3d17eea3	0.037092816
26	0xbd1d49f6	-0.038400613
27	0xbd402313	-0.04690845
28	0xbcb16bba	-0.021657813
29	0xbc25cc78	-0.01011955
30	0x3d1391d1	0.036027733
31	0x3c9f9dd2	0.019484434
32	0x3c2ac354	0.010422546
33	0xbc0069f8	-0.007837765
34	0xbd032954	-0.032021835
35	0xb8848a00	-6.319955e-05
36	0x3d4021f1	0.04690737
37	0xbcd672f3	-0.026177859
38	0xbd0d2f36	-0.034468852
39	0x3898d600	7.2877854e-05
40	0x3d4ac87d	0.049507607
41	0xbab08800	-0.0013468266
42	0xbbcfbf28	-0.0063399263
43	0x3c95fb6e	0.018308368
44	0xbd0c93ac	-0.03432052
45	0xbd1b2c75	-0.037884194
46	0xbc4da6a8	-0.012551941
47	0x3d25470b	0.040350955
48	0x3c3cd308	0.011524923
49	0x3cb079e2	0.021542493
50	0x3d40846b	0.047001284
51	0x3ba34010	0.004982002
52	0xbd476e55	-0.048689205
53	0xbcb4e353	-0.022081053
54	0x3cd55c0e	0.026044872
55	0xbccb0993	-0.024784839
56	0xbbb52fd0	-0.0055293813
57	0x3c6e04bc	0.014527496
58	0xbcc29eca	-0.023757357
59	0xbc84a596	-0.016192239
60	0x3c754bf4	0.014971722
61	0x3c7586e4	0.014985774
62	0x3cf9ada2	0.030478302
63	0xbce72fbd	-0.028221006
64	0xbcae2bb0	-0.021261066
65	0x3d3b4339	0.045718405
66	0xbd04976e	-0.032370977
67	0xbd29fe52	-0.041502304
68	0x3cd23e96	0.025664609
69	0xbd23bc83	-0.0399747
70	0x3caf701e	0.021415766
71	0x3cfcfbe6	0.030881833
72	0x3d2944d1	0.041325394
73	0x3cee1dee	0.029067006
74	0xbc53c668	-0.012925722
75	0x3d3583bb	0.04431508
76	0x3d469cd1	0.048489396
77	0xbac21000	-0.0014805794
78	0x3d0ba993	0.034097265
79	0xbca43a27	-0.02004726
80	0xbbd13898	-0.0063849203
81	0x3c97b46a	0.018518645
82	0x3cc94dda	0.024573255
83	0x3d3a2ce9	0.045452986
84	0xbd2213ca	-0.039569654
85	0x3d3ffbb1	0.04687089
86	0xbcf9bbe7	-0.030485107
87	0x3c9af102	0.01891375
88	0x3ce85a3e	0.028363343
89	0xbcb97b70	-0.022641867
90	0xbbee5068	-0.0072727688
91	0x3cd74462	0.026277725
92	0x3bfc71d0	0.007703997
93	0xbd0f2c08	-0.0349541
94	0xbccc0f0a	-0.024909515
95	0xbce79737	-0.028270347
96	0xbd4a8f72	-0.049453206
97	0x3b82dd40	0.00399366
98	0xbd0cac35	-0.034343917
99	0xbd1bfc16	-0.038082205
100	0xb8ad8400	-8.27387e-05
101	0x3d15dcdb	0.036587577
102	0xbd1c3925	-0.038140435
103	0xbd2e31ad	-0.042527843
104	0x3c924092	0.017853055
105	0x3cf1c092	0.02951077
106	0xbd0f8470	-0.03503841
107	0x39465e00	0.00018917769
108	0x3c58d024	0.013233218
109	0xbcb84ea7	-0.022498442
110	0x3c69714c	0.0142482035
111	0x3ab6d100	0.0013947785
112	0xbced4ce0	-0.02896732
113	0xbd1e21e3	-0.038606536
114	0xbca2860d	-0.019839311
115	0xbc9497c0	-0.018138766
116	0x3cb2df46	0.02183498
117	0x3ce51992	0.027966294
118	0x3cb43fa6	0.022003006
119	0x3c6a0a2c	0.014284652
120	0xbc11fe2c	-0.008910697
121	0x3cc4a84e	0.024006035
122	0xbc95c156	-0.018280666
123	0xbc04bd2c	-0.008101743
124	0xbcbb65d7	-0.02287571
125	0xbb6ba6d0	-0.0035957582
126	0x3d398a69	0.045298014
127	0xbd14f87d	-0.03636979
128	0x3d39d80f	0.045372065
129	0x3d1c1041	0.03810144
130	0xbc0a4aec	-0.008440714
131	0x3d0ad3d7	0.033893432
132	0x3cd41c32	0.02589235
133	0xbd2b81b0	-0.041871727
134	0xbb7e30a0	-0.0038786307
135	0x3d35bdc9	0.044370446
136	0x3d40a5db	0.047033172
137	0x3d3e5043	0.046463262
138	0xba9165c0	-0.0011092946
139	0x3d378d83	0.04481269
140	0xbb49d0b0	-0.0030794553
141	0xbb2bed00	-0.0026233792
142	0x3d39f4c1	0.04539943
143	0xbbd95b10	-0.00663317
144	0x3ce1d452	0.027567063
145	0xbd1f54c3	-0.038899194
146	0xbd1ec643	-0.038763296
147	0xbd154a58	-0.036447853
148	0xbbae56d8	-0.005320411
149	0xbcd5fe0a	-0.026122112
150	0xbca9235d	-0.020646745
151	0xbc9c69ad	-0.019093359
152	0xbc072b08	-0.008250006
153	0x3ca894be	0.020578738
154	0x3d1e3a61	0.038629893
155	0x3d0dabdf	0.034587737
156	0x3d2cd631	0.042196456
157	0x3d2d4ce1	0.042309646
158	0x3cee58d6	0.029095095
159	0xbca00f47	-0.019538535
160	0xbcd31d97	-0.025770945
161	0xbcd1a707	-0.02559234
162	0x3d2c5905	0.042077083
163	0xbd187b72	-0.0372271
164	0xbc576fd4	-0.0131492205
165	0x3c8ffbb2	0.017576072
166	0x3c7ef47c	0.015561219
167	0x3d375ed3	0.044768166
168	0xbd3c425f	-0.045961734
169	0xbcd557b7	-0.026042802
170	0x3c760fdc	0.01501843
171	0xbd28228d	-0.041048575
172	0xbd00c6e8	-0.03143969
173	0xba164b80	-0.0005733296
174	0xbd0a8394	-0.03381689
175	0x3d38445d	0.04498707
176	0x3b365cb0	0.0027826242
177	0x3b108cb0	0.0022056513
178	0xbce7d9a7	-0.028302027
179	0x3ca881c6	0.020569693
180	0xbcf41ae3	-0.029797977
181	0xbd46e56a	-0.04855863
182	0x3c49becc	0.012313556
183	0xbce6c3aa	-0.028169472
184	0xbd16cceb	-0.03681652
185	0x3a18b600	0.000582546
186	0x3b105b60	0.002202712
187	0xbcce7d33	-0.025206184
188	0x3cf72536	0.03016911
189	0x3ccc71da	0.024956632
190	0x3cd5c34e	0.026094105
191	0xbd0760f8	-0.03305146
192	0xba3ec4c0	-0.0007277243
193	0xbc954e4a	-0.018225808
194	0x3d3195b7	0.04335567
195	0xbd230ded	-0.039808203
196	0x3b9cf418	0.0047898404
197	0x3d1c24eb	0.038121145
198	0x3c305580	0.010762572
199	0x3d25ab89	0.04044679
200	0xbd0cdbe3	-0.034389388
201	0x3d3e68e5	0.046486754
202	0xbd0bdb78	-0.03414485
203	0x3b573080	0.0032835305
204	0x3d4a5189	0.049394164
205	0xbb823c30	-0.00397446
206	0x3d17b395	0.037036497
207	0x3bef2558	0.007298153
208	0xbd45ae90	-0.04826218
209	0xbcdd0213	-0.026978528
210	0x3d0d16eb	0.034445684
211	0xbc94fe3a	-0.01818763
212	0x3cb5a0c6	0.02217139
213	0xbcd5334a	-0.026025433
214	0xbcb7f367	-0.02245493
215	0x3cf6565e	0.03007048
216	0x3c297214	0.01034214
217	0xbb954798	-0.004555654
218	0x3bcf4f00	0.006326556
219	0xbd169990	-0.036767542
220	0x3bf3a2c0	0.007435173
221	0x3bd3dbf0	0.0064654276
222	0x3ca94376	0.02066205
223	0x3d3bd789	0.045859847
224	0x3d3aaf37	0.045577254
225	0x3c913e46	0.01772989
226	0x3c3f014c	0.011658024
227	0xbc914496	-0.0177329
228	0xbcd755a3	-0.026285952
229	0xbbfe3e18	-0.007758867
230	0xbd4992df	-0.049212333
231	0x3a887ba0	0.001041282
232	0xbc12236c	-0.008919578
233	0x3d2fc95d	0.042916644
234	0xbd1054d0	-0.035237134
235	0x3a408180	0.0007343516
236	0x3c052380	0.00812614
237	0xbd41624b	-0.04721288
238	0xbcbe5f1d	-0.023238713
239	0x3beefee8	0.007293571
240	0xbb9cc968	-0.0047847517
241	0x3d100687	0.035162475
242	0x3c172e78	0.009227388
243	0xbc149b14	-0.009070177
244	0x3d16b741	0.03679586
245	0xbc0fb974	-0.008772243
246	0x3ab46a40	0.0013764575
247	0xbcffe727	-0.031238152
248	0x3ced71b6	0.028984886
249	0x3c91de42	0.017806176
250	0x3d125001	0.03572083
251	0x3d09db29	0.033656273
252	0x3d4c4bfd	0.049877156
253	0xbba83890	-0.005133696
254	0xbc1c0d88	-0.0095247105
255	0x3a4e5080	0.0007870272

fc1.bias f4 [400]
0	0xbda06f06	-0.07833676
1	0xbdee6c56	-0.11641757
2	0xbcf4f4d8	-0.029901907
3	0xbdd0af2e	-0.10189663
4	0xbe1e9aa2	-0.15488675
5	0xbe59f36c	-0.21284264
6	0xbe838d07	-0.25693533
7	0xbe506b40	-0.20353413
8	0xbe2c25e8	-0.16811335
9	0xbd18c190	-0.03729397
10	0xbd915b7a	-0.07097526
11	0xbdac6762	-0.08418156
12	0xbd0cc93c	-0.0343716
13	0x3e7abb5a	0.24485531
14	0xbe36db20	-0.17857027
15	0x3ddfa62c	0.10920367
16	0xbd418098	-0.047241777
17	0xbe2f502b	-0.17120425
18	0x3e8bd96f	0.27314326
19	0xbe1265b6	-0.14296612
20	0xbe2f5d4c	-0.17125434
21	0xbdb7f7fc	-0.08982846
22	0x3e80753f	0.25089452
23	0xbe23a49b	-0.15980761
24	0x3e87e123	0.26538953
25	0xbe264d46	-0.16240415
26	0xbe72eee4	-0.23723942
27	0xbe7e7782	-0.24850276
28	0xbe720711	-0.23635508
29	0xbe82b931	-0.25531915
30	0x3d3bb868	0.04583016
31	0x3deba8ac	0.11506781
32	0x3e3718f6	0.17880616
33	0x3dc1da28	0.09465438
34	0xbd214158	-0.039368957
35	0x3b578480	0.0032885373
36	0xbdb72284	-0.0894213
37	0x3d659af8	0.056055993
38	0x3df7dce8	0.121026814
39	0x3e89e7cf	0.26934668
40	0xbe238836	-0.15969929
41	0xbe0768f7	-0.13223635
42	0x3db7d190	0.08975518
43	0x3e2a083c	0.16604704
44	0xbe657afd	-0.22410198
45	0x3e429514	0.19002181
46	0x3e82d98f	0.2555661
47	0xbd16c504	-0.036808982
48	0x3dbb4800	0.09144592
49	0xbdfd3ba8	-0.12364894
50	0x3d6a7088	0.057236224
51	0x3e8d2d19	0.2757347
52	0x3e37e46a	0.17958227
53	0x3d81f6e8	0.06345922
54	0x3e252eb0	0.16131091
55	0x3e8cd8f3	0.2750927
56	0xbe70b4eb	-0.23506515
57	0xbe3ee66a	-0.18642583
58	0x3e716ada	0.23575917
59	0x3e641b36	0.22276005
60	0xbe868642	-0.26274306
61	0x3e47f406	0.19526681
62	0x3d08df70	0.03341621
63	0xbcf67308	-0.030084148
64	0x3e1f57b0	0.15560794
65	0xbc861bb0	-0.016370624
66	0xbe8650a7	-0.26233408
67	0x3e5bb026	0.21453914
68	0xbe52b14a	-0.20575443
69	0xbdb806d4	-0.08985677
70	0x3d256360	0.040377975
71	0x3e7c9fe2	0.24670365
72	0xbd332670	-0.04373783
73	0x3dd5fd8c	0.10448751
74	0xbe1c6898	-0.15274274
75	0x3c9e96e0	0.019359052
76	0xbd8dfa9c	-0.069325656
77	0xbe79a9b1	-0.24381138
78	0x3e4e14ae	0.20125076
79	0x3e370d8e	0.17876264
80	0xbd8f5532	-0.069986716
81	0xbe1bdc6b	-0.15220802
82	0x3dcb843c	0.09937331
83	0x3e53f88c	0.20700282
84	0x3dd5bfac	0.10436949
85	0xbdb4cac4	-0.08827737
86	0xbe4f856e	-0.20265743
87	0x3de3ec28	0.111290276
88	0x3d7c4090	0.06158501
89	0x3e04db4a	0.12974277
90	0xbe6d982d	-0.23202582
91	0x3e893d6d	0.26804677
92	0x3d429070	0.047501028
93	0xbcc92d60	-0.02455777
94	0xbc679600	-0.014134884
95	0xbe8d8092	-0.27637154
96	0xbe07c6bd	-0.13259406
97	0xbd6b6458	-0.057468742
98	0xbe5f5663	-0.21810298
99	0x3e31e5ba	0.1737279
100	0x3e41d4c0	0.18928814
101	0xbd527190	-0.051377833
102	0x3c3ca460	0.011513799
103	0x3e67db52	0.22642258
104	0xbd450c28	-0.048107296
105	0x3e384588	0.17995274
106	0x3e8870a9	0.26648453
107	0x3dbac584	0.09119704
108	0xbd6bbe24	-0.05755438
109	0x3e32b6a4	0.17452484
110	0x3de2d3c0	0.11075544
111	0x3d4eaab8	0.05045578
112	0x3e18e59a	0.14931336
113	0x3e58cd86	0.21172151
114	0x3e4bf66a	0.19918218
115	0xbe22ec1e	-0.15910384
116	0xbdf43b84	-0.11925414
117	0xbda100dc	-0.07861492
118	0xbdc230c0	-0.094819546
119	0x3e5e3af2	0.21702173
120	0x3e218e08	0.15776837
121	0xbe8ad97b	-0.2711905
122	0x3e8df825	0.27728382
123	0x3dcfdaf0	0.10149181
124	0xbdfbe39e	-0.12299274
125	0xbe8ceca9	-0.27524307
126	0xbe22a3e9	-0.1588284
127	0xbe0ca27d	-0.1373386
128	0x3e688daa	0.2271029
129	0x3e31ab30	0.17350459
130	0x3e86c737	0.26323864
131	0x3e7ae02e	0.2449958
132	0xbd9bcdec	-0.07607636
133	0xbdc06418	-0.09394091
134	0x3d8df2b4	0.069310576
135	0xbe70fb18	-0.23533285
136	0xbccd7c80	-0.02508378
137	0x3bc58140	0.0060273707
138	0xbd8266ea	-0.063672855
139	0xbe5205a0	-0.20509958
140	0x3e80020d	0.25001565
141	0x3e35810a	0.17725006
142	0xbcf4e840	-0.029895902
143	0xbdb719a0	-0.089404345
144	0xbe4eb534	-0.20186311
145	0x3e6ba29a	0.23011246
146	0xbe1e3168	-0.15448534
147	0x3e187d48	0.14891541
148	0x3e4e9fea	0.2017819
149	0xbe6f92f9	-0.2339591
150	0x3db019c0	0.085986614
151	0xbe2a8115	-0.16650803
152	0xbdac5684	-0.08414939
153	0x3d730070	0.05932659
154	0x3e0647fe	0.131134
155	0x3e248a3c	0.16068357
156	0xbe6f0437	-0.23341452
157	0x3d13c140	0.03607297
158	0x3d5a16b0	0.053244293
159	0xbdab6eb4	-0.08370724
160	0x3e51b57e	0.2047939
161	0x3bc62780	0.0060471892
162	0x3e35fa5a	0.17771283
163	0x3e2749dc	0.16336769
164	0x3d4d0170	0.0500502
165	0xbdb11e64	-0.08648375
166	0x3e7adef2	0.2449911
167	0x3e548e40	0.20757389
168	0x3e69d22e	0.22834083
169	0xbe63c3ce	-0.22242662
170	0x3d8a1394	0.067420155
171	0x3b2ca000	0.0026340485
172	0x3d8f53b4	0.06998387
173	0x3dca7250	0.09885085
174	0xbe89aeb4	-0.268911
175	0xbe5d5f7c	-0.21618456
176	0xbe50be8d	-0.2038519
177	0x3dfe8f38	0.124296606
178	0x3e18905a	0.14898816
179	0x3e80609d	0.2507371
180	0x3e814d3d	0.2525424
181	0xbd4ec944	-0.05048491
182	0x3e102f88	0.14080632
183	0x3e293508	0.16524136
184	0xbe8328df	-0.2561712
185	0x3e66a126	0.22522411
186	0x3e659e62	0.224237
187	0x3e6ea93e	0.23306748
188	0x3e5c7c08	0.21531689
189	0xbda7b086	-0.08187966
190	0x3d7fb838	0.062431544
191	0xbe58370c	-0.21114749
192	0x3e0f1742	0.13973716
193	0x3cb413f0	0.021982163
194	0x3dd80154	0.10547128
195	0xbd7434c0	-0.05962062
196	0x3e4c32b6	0.1994122
197	0xbd3ee390	-0.04660374
198	0x3d96f098	0.07370108
199	0xbcbda5a0	-0.023150265
200	0x3d209bc0	0.039211035
201	0xbe7a0e5f	-0.24419545
202	0xbd9d7270	-0.07687843
203	0x3e1c07b4	0.15237314
204	0x3db2aa34	0.0872387
205	0xbdc2180c	-0.09477243
206	0x3e5e19d6	0.21689543
207	0xbe81c9b0	-0.25349188
208	0xbe03b56f	-0.1286218
209	0x3ddd8b74	0.10817614
210	0x3ba12240	0.004917413
211	0xbe2f9d7d	-0.17149921
212	0x3d3edc18	0.046596617
213	0xbde9dda8	-0.11419231
214	0x3d02d450	0.03194076
215	0x3e4ef37a	0.20210066
216	0xbe477ed0	-0.19481969
217	0x3d646db8	0.0557687
218	0xbe862863	-0.26202688
219	0x3e20ed78	0.15715587
220	0xbd8acb2e	-0.06777035
221	0xbe5b4089	-0.21411337
222	0xbe66789a	-0.22506943
223	0x3d718700	0.058966637
224	0x3d97e33c	0.074163884
225	0xbce6c5b8	-0.028170452
226	0x3e48a374	0.19593602
227	0x3bc51c00	0.0060153008
228	0x3dd343dc	0.103156775
229	0xbe065beb	-0.13121001
230	0xbc966570	-0.018358916
231	0xbe2b7706	-0.16744623
232	0xbe729b4d	-0.23692055
233	0xbe1e41d0	-0.15454793
234	0x3d397010	0.045272887
235	0xbe2aeb86	-0.16691408
236	0xbd01cbb0	-0.031688392
237	0xbe201a36	-0.15634999
238	0x3e504cfa	0.20341864
239	0xbda1980c	-0.07890329
240	0x3dc9ae9c	0.09847757
241	0xbe49618a	-0.19666114
242	0x3e39c93c	0.18143171
243	0x3e848c9d	0.2588853
244	0x3e6c602a	0.23083559
245	0xbcdb42c0	-0.026765227
246	0xbe6c36e7	-0.23067819
247	0xbdfb792c	-0.12278971
248	0xbe50025e	-0.20313403
249	0x3db87184	0.090060264
250	0x3c0f3fc0	0.0087432265
251	0x3e58f174	0.21185857
252	0xbe0ff85a	-0.14059582
253	0xbdd0174a	-0.10160692
254	0xbe61d931	-0.22055508
255	0x3e417448	0.18892014

fc2.weight f4 [300, 400]
0	0xbce37f9e	-0.027770814
1	0x3b421770	0.002961602
2	0x3cdfc7ac	0.02731689
3	0x3cbc15e8	0.022959664
4	0xbd376116	-0.044770323
5	0xbcd9ff66	-0.026611041
6	0xbd4806fa	-0.04883478
7	0xbd4e0aad	-0.05030315
8	0xbb679d10	-0.003534142
9	0xbd655366	-0.055987738
10	0xbd128f5e	-0.035781257
11	0xbd45f6cf	-0.04833108
12	0x3cd9a99c	0.026570134
13	0x3c1f4398	0.009720705
14	0x3d1c9eb4	0.03823729
15	0x3c2ab7d0	0.010419801
16	0xbc3bd224	-0.011463676
17	0xbd30aa4e	-0.043131165
18	0x3c387398	0.011258028
19	0x3ca71bdc	0.020399027
20	0xbcb6a870	-0.022297114
21	0x3d00dd98	0.03146133
22	0xbb3a8480	-0.0028460324
23	0xbcfc6417	-0.030809445
24	0x3d67561a	0.056478597
25	0xbc89e396	-0.016832154
26	0xbd1dd75a	-0.038535453
27	0x3d641dc4	0.05569245
28	0xbd052934	-0.032509997
29	0x3d286270	0.041109502
30	0x3d0702e4	0.03296174
31	0x3d1a0dde	0.03761088
32	0xbb06a000	-0.0020542145
33	0x3cfce42c	0.03087052
34	0xbd6547cf	-0.055976685
35	0x3c6ec610	0.014573589
36	0xbd43cab8	-0.04780075
37	0x3c879ac8	0.016553298
38	0xbc342b0c	-0.010996591
39	0xbd330e1e	-0.043714635
40	0x3d3735f6	0.044729196
41	0x3c954204	0.018219955
42	0xbd4594a4	-0.048237458
43	0xbc909bf6	-0.017652493
44	0x3cad0b4c	0.02112355
45	0x3d542206	0.05179026
46	0x3c3e1970	0.011602744
47	0xbce3c482	-0.027803663
48	0x3d11b4fe	0.035573
49	0xbc8ec3ba	-0.017427314
50	0xbc8dcf2a	-0.017310698
51	0xbd441cf1	-0.047879163
52	0x3c976618	0.0184813
53	0x3c9f2d54	0.019430794
54	0x3d06a3a4	0.032870904
55	0x3cfbf634	0.030757047
56	0x3d6be2e8	0.05758944
57	0xbd268abc	-0.04065965
58	0x3d69d7c2	0.05709053
59	0x3ccd6684	0.025073297
60	0xbd5dc783	-0.054145347
61	0x3d626954	0.05527623
62	0xbd234f3f	-0.039870497
63	0x3c3f88d0	0.0116903335
64	0xbd451069	-0.048111353
65	0xbd38cb30	-0.04511565
66	0x3d6b6940	0.05747342
67	0xbd640afb	-0.055674534
68	0x3cb37fe4	0.021911569
69	0xbd506291	-0.05087525
70	0x3d0f8fd4	0.035049275
71	0xbd235292	-0.039873667
72	0x3d1bf07c	0.03807114
73	0x3c060d98	0.008181952
74	0x3d47da3e	0.048792116
75	0x3ce138ec	0.027492963
76	0x3796e000	1.7985702e-05
77	0xbcb06f18	-0.021537349
78	0xbcd74238	-0.026276693
79	0xbcdb9d63	-0.026808446
80	0x3d186436	0.037204944
81	0x3bd052b0	0.0063575134
82	0xbcbfb058	-0.023399517
83	0x3d21cfa4	0.039504662
84	0x3d5196ea	0.051169313
85	0x3c295788	0.0103358105
86	0xbd3a9f6e	-0.0455622
87	0xbc66da8c	-0.014090192
88	0x3cbe02ec	0.023194753
89	0xbd3d5d84	-0.04623176
90	0x3d2938fa	0.041314103
91	0xbd524b03	-0.051341068
92	0x3d622c7a	0.055218197
93	0xbc031cc8	-0.008002467
94	0x3cf0f68c	0.029414438
95	0x3d137ef6	0.03600975
96	0x3c3790a8	0.011203922
97	0x3beb6aa0	0.0071843415
98	0x3d5ec3bc	0.054385886
99	0xbc1dbc14	-0.009627361
100	0x3c88aa3c	0.016682737
101	0xbd6a507a	-0.057205655
102	0x3c8187a4	0.015811749
103	0x3bb70a40	0.0055859387
104	0x3d64168c	0.055685565
105	0xbd0ec871	-0.034859125
106	0x3c275618	0.010213397
107	0x3d35f678	0.044424504
108	0xbcad4d32	-0.021154974
109	0x3c10a3b8	0.008828096
110	0x3a9072a0	0.0011020489
111	0x3cf0b6f0	0.029384106
112	0x3cd94af0	0.02652499
113	0xbd617201	-0.055040363
114	0xbd390060	-0.045166373
115	0x3c532c40	0.012888968
116	0x3cb657ac	0.022258602
117	0x3d476880	0.048683643
118	0x3ce6ca04	0.0281725
119	0xbd30148c	-0.042988345
120	0xbc6d2814	-0.014474887
121	0x3c8d656c	0.017260276
122	0xbb6d5450	-0.0036213584
123	0xbd471315	-0.048602182
124	0x3d474edc	0.04865919
125	0xbd0f40c6	-0.034973882
126	0xbd1fa88d	-0.038979102
127	0xbd4d6894	-0.05014856
128	0x3a83c360	0.0010052733
129	0xbd602a2d	-0.054727722
130	0xbbd98540	-0.006638199
131	0xbc84e1bc	-0.01622092
132	0x3d2fe064	0.042938605
133	0x3beb5790	0.007182069
134	0x3cdb8e74	0.026801325
135	0x3c896f10	0.016776592
136	0xb986c300	-0.00025703758
137	0x3c06d7d0	0.008230165
138	0x3d077d2c	0.033078358
139	0xbcce823e	-0.025208589
140	0x3c4f0048	0.012634344
141	0x3d0ac998	0.03388366
142	0xbd684737	-0.05670854
143	0xbd26026e	-0.04052966
144	0x3d684b94	0.056712702
145	0xbca602cc	-0.020265006
146	0xbcfe95fb	-0.031077376
147	0x3ca63764	0.020290084
148	0xbca9ec02	-0.02074242
149	0xbcb4a9ba	-0.022053588
150	0x3d02bbfc	0.031917557
151	0xbca54532	-0.020174596
152	0x3d48a318	0.048983663
153	0x3d5a306c	0.053268835
154	0x3c84ef94	0.016227521
155	0xbd09d1e7	-0.033647444
156	0xbc8a3fb8	-0.016876087
157	0x3ce63538	0.028101549
158	0xbcc0b580	-0.023524046
159	0xbccafe58	-0.024779484
160	0xbbda1ee8	-0.0066565163
161	0x3d695a8c	0.056971118
162	0xbce4bd1a	-0.027922202
163	0xbc2aa9b0	-0.010416433
164	0x3d536566	0.051610373
165	0x3d235090	0.039871752
166	0xbb9416f8	-0.0045193397
167	0x3cef094c	0.029179238
168	0xbd13addc	-0.036054477
169	0xbc70c93c	-0.0146964155
170	0x3b966910	0.004590161
171	0xbd3861f8	-0.045015305
172	0xbab986a0	-0.0014154501
173	0x3d13dd7e	0.036099903
174	0xbd05a7db	-0.032630783
175	0xbd323a62	-0.04351271
176	0x3d3d3f08	0.04620269
177	0x3d4040a2	0.04693664
178	0xbb8171e0	-0.0039503425
179	0x3d0e541c	0.03474818
180	0xbcd98251	-0.026551398
181	0x3b525000	0.003209114
182	0x3d568884	0.052376285
183	0x3c6d3708	0.0144784525
184	0x3c26d7f0	0.010183319
185	0xbc541c04	-0.012946133
186	0xbd04170f	-0.032248553
187	0xbcf34f72	-0.029700968
188	0xbd27ec04	-0.040996566
189	0xbc13dd88	-0.009024985
190	0xbb02bbf0	-0.0019948445
191	0xbcd6b044	-0.026207097
192	0xbcf908bf	-0.030399678
193	0xbce28015	-0.027648965
194	0x3d4f8630	0.05066508
195	0xbd339fc1	-0.043853525
196	0x3d5b1014	0.05348213
197	0x3ce6038c	0.028077863
198	0xbbe49a30	-0.0069763884
199	0xbcc19c70	-0.023634166
200	0x3cf3396c	0.029690467
201	0x3c6400c0	0.013916194
202	0xbd4c8320	-0.049929738
203	0x3ce042a0	0.02737552
204	0xbd1a3aa4	-0.03765358
205	0x3c99b480	0.018762827
206	0x3d33ba32	0.04387874
207	0x3d08ec0a	0.03342823
208	0xbc5a61f4	-0.013329018
209	0x3d316c02	0.043315895
210	0xbbc2feb0	-0.0059507713
211	0x3d00b5c0	0.03142333
212	0xbcc9900c	-0.02460482
213	0x3cae38e0	0.021267354
214	0xbd3d2124	-0.046174183
215	0xbcee2a3d	-0.029072875
216	0x3d1b0150	0.03784305
217	0x3d0b0b52	0.033946343
218	0x3d0183b4	0.031619743
219	0x3ba33820	0.004981056
220	0x3d577936	0.05260583
221	0x3d33d800	0.043907166
222	0xbcf61bb5	-0.030042509
223	0x3d00a2fc	0.031405434
224	0x3c552180	0.013008475
225	0xbca19ed6	-0.01972906
226	0xbd504d3a	-0.0508549
227	0xbcc27044	-0.023735173
228	0x3d39096c	0.045175
229	0xbd088bec	-0.033336565
230	0xbd21b4bc	-0.039479002
231	0x3ca0395c	0.019558601
232	0xbd5fe745	-0.054663915
233	0x3d0ff33c	0.035144076
234	0x3bf2d0d0	0.0074101463
235	0xbcc1a20a	-0.023636837
236	0xbc512db4	-0.012767244
237	0x3d67583e	0.05648064
238	0xbd107c30	-0.035274684
239	0xbc49e248	-0.012322016
240	0x3cb94c30	0.022619337
241	0xbb089840	-0.0020842701
242	0x3d08a39c	0.033359155
243	0xbd3dc6f1	-0.046332303
244	0x3ccf0818	0.025272414
245	0x3d179490	0.037006915
246	0x3cb25ddc	0.021773271
247	0xbbb7c9b8	-0.0056087635
248	0x3b5f6600	0.0034087896
249	0x3d1dd138	0.038529605
250	0x3c763240	0.015026629
251	0x3d37a7a4	0.04483761
252	0x3c0e02c8	0.008667655
253	0xbce4e184	-0.027939565
254	0x3cdc3db4	0.026884891
255	0xbd33a649	-0.043859754

fc2.bias f4 [300]
0	0xbd2315b8	-0.039815634
1	0x3d1438e5	0.03618707
2	0x3d305809	0.043052707
3	0xbcf88257	-0.030335588
4	0xbd24a51a	-0.040196516
5	0xbcf285fa	-0.0296049
6	0xbd0eb61b	-0.034841638
7	0xbcad830a	-0.021180648
8	0xbd1ae41d	-0.037815202
9	0xbc820eec	-0.015876256
10	0xbd0e67f3	-0.034767102
11	0xbce39e33	-0.027785396
12	0x3cc8a53a	0.024492849
13	0xbd42e41d	-0.047580827
14	0x3d36df5f	0.044646617
15	0xbc3a0b68	-0.0113552585
16	0x3d2cbae1	0.04217041
17	0xbd274025	-0.040832657
18	0xb9811900	-0.00024623424
19	0x3d0a8b75	0.033824403
20	0x3cc97d1e	0.024595793
21	0xbd07d1a6	-0.03315892
22	0x3d29b503	0.04143239
23	0x3be41a68	0.0069611557
24	0xbcebac83	-0.028768783
25	0x3d0ea6f5	0.03482719
26	0xbc0c2888	-0.008554585
27	0xbd091002	-0.033462532
28	0xbd391375	-0.04518457
29	0x3c82797a	0.015927065
30	0xbb8b0410	-0.0042424276
31	0x3d1f17e5	0.038841147
32	0x3bbb4980	0.005715549
33	0x3ba2a510	0.0049635246
34	0xbcde0a67	-0.02710457
35	0xbc7a0428	-0.01525978
36	0xbb349f00	-0.0027560592
37	0xbc05f8b4	-0.008176971
38	0xbcdfeac0	-0.027333617
39	0x3d2f329f	0.042772885
40	0x3a842d00	0.0010084212
41	0x3becfe18	0.007232439
42	0xbcd5c2fa	-0.026093949
43	0x3d3c5fd3	0.045989823
44	0x3ceea84e	0.029132988
45	0xbc747eb8	-0.01492279
46	0x3c2bb8b4	0.010481048
47	0x3c3fb254	0.011700232
48	0xbd03084c	-0.031990334
49	0x3d0898e5	0.033348937
50	0x3d4853d7	0.04890808
51	0x3c733f0c	0.0148465745
52	0x3d0a207f	0.033722397
53	0xbcd05a10	-0.02543357
54	0xbcc8558d	-0.024454856
55	0x3b9abc58	0.0047221594
56	0x3c628e64	0.013827894
57	0xbce8cd6d	-0.028418267
58	0xbcf4a497	-0.029863639
59	0x3caa778e	0.020808961
60	0xbce5719d	-0.028008277
61	0xbc47fb34	-0.012205888
62	0xbd2696e2	-0.040671237
63	0x3ca0e81a	0.019641925
64	0xbd368af7	-0.04456612
65	0xbc47a794	-0.01218595
66	0xbc660118	-0.014038347
67	0x3d0e7955	0.03478368
68	0xbd4080d8	-0.046997875
69	0xbc60be18	-0.013717197
70	0x3cdf1c12	0.027235065
71	0x3c864ea2	0.016394917
72	0x3d35904b	0.04432706
73	0x3ce122d2	0.027482424
74	0xbc6fbb88	-0.014632113
75	0x3c102e74	0.008800138
76	0x3d3dd8f3	0.046349477
77	0x3be261a8	0.006908614
78	0xbcf3ce27	-0.029761387
79	0xbd277b13	-0.040888857
80	0xbcea27dd	-0.028583461
81	0x3d3ceebb	0.04612611
82	0x3adf0440	0.0017014816
83	0x3ca88642	0.020571832
84	0xbcd8af63	-0.026450818
85	0xbb802190	-0.003910251
86	0xbc9aa7d3	-0.018878853
87	0xbd17eaf2	-0.037089296
88	0xbd346f07	-0.044051196
89	0xbd388f9d	-0.045058835
90	0xbd49ea68	-0.049295813
91	0x3ccd4792	0.025058541
92	0xbd0f395a	-0.034966804
93	0xbd21a6ce	-0.039465718
94	0x3bb260d0	0.00544367
95	0x3d1c7219	0.03819475
96	0xbd1b9662	-0.037985213
97	0xbc4e5a34	-0.012594748
98	0xbcab578d	-0.02091577
99	0x3d1f804d	0.038940717
100	0xbb55fb20	-0.0032650903
101	0x3d4110eb	0.047135275
102	0x3c267074	0.010158647
103	0xbd3a30a5	-0.045456547
104	0xbb39c350	-0.0028345175
105	0x3cd00732	0.025394056
106	0xbb5e7a20	-0.0033947304
107	0x3c677ca4	0.014128838
108	0x3c8cb772	0.017177317
109	0xbc201598	-0.009770773
110	0xbc52f568	-0.012875892
111	0xbcb00633	-0.021487331
112	0x3bf473a8	0.0074600764
113	0xbc266cb8	-0.0101577565
114	0xbbe4f3a8	-0.006987054
115	0x3d3cd369	0.046100054
116	0x3d449c49	0.048000608
117	0xbd0537f0	-0.03252405
118	0xbc88131a	-0.01661067
119	0x3d4513e3	0.04811467
120	0xbc07b218	-0.008282207
121	0xbd4a11cb	-0.049333375
122	0x3c546cbc	0.012965377
123	0x3c01d8e0	0.007925242
124	0xbd211ac3	-0.039332163
125	0xbc506920	-0.012720376
126	0x3ad0f460	0.001594197
127	0x3ba80aa8	0.0051282234
128	0xbcf75ce3	-0.030195659
129	0x3ce49e66	0.027907562
130	0xbcb066ed	-0.021533454
131	0x3c576004	0.0131454505
132	0xbc648138	-0.013946824
133	0xbbdbe110	-0.006710179
134	0xbd17cad0	-0.03705865
135	0xbd204ce8	-0.039135844
136	0xbcb742fd	-0.02237081
137	0x3c7b5ea4	0.015342388
138	0x3d268331	0.040652458
139	0xbd2f06a0	-0.042730927
140	0x3ca03c62	0.019560043
141	0xbd0fd67e	-0.035116665
142	0x3d4a0251	0.049318615
143	0xbcb5fe2d	-0.022215927
144	0xbc751618	-0.014958881
145	0xbd2b873d	-0.04187702
146	0x3d12d473	0.03584714
147	0x3ca0972a	0.01960333
148	0x3ce76282	0.028245214
149	0x3c7ecea4	0.015552197
150	0xbd22986e	-0.03969615
151	0x3d35d789	0.044395003
152	0x3bf5b370	0.0074981973
153	0x3cc60a7e	0.024174925
154	0x3d0c2b4f	0.03422099
155	0x3ba20f90	0.004945703
156	0xbd3b8d05	-0.045788784
157	0xb9700500	-0.00022890046
158	0x3d3be6a1	0.04587424
159	0xbc703b28	-0.014662541
160	0x3cbb9e62	0.022902671
161	0xbc03eee0	-0.008052558
162	0xbcf00d43	-0.029303199
163	0x3a695280	0.0008900538
164	0x3d135df9	0.03597829
165	0xbbedbb00	-0.007254958
166	0xbd46dd03	-0.048550617
167	0x3c68a88c	0.014200341
168	0x3d2c55a7	0.042073872
169	0xbc46e800	-0.012140274
170	0x3bb62a18	0.005559217
171	0x3ce89f6e	0.028396334
172	0xbcc1f06d	-0.023674214
173	0xbce607e0	-0.028079927
174	0xbc0e2dec	-0.008677941
175	0xbadd9a00	-0.0016906857
176	0x3d128669	0.035772715
177	0xbcc8b120	-0.024498522
178	0x3c69668c	0.0142456405
179	0xbc5f4594	-0.013627429
180	0xbd11d373	-0.035602044
181	0xbd3a5a92	-0.04549653
182	0x3aeedb40	0.00182233
183	0x3d060339	0.032717917
184	0xbd478972	-0.048715062
185	0xbc40dc48	-0.011771269
186	0xbd0ae848	-0.033912927
187	0xbcea57d7	-0.028606338
188	0x3c2f9dec	0.010718804
189	0xbcf60220	-0.03003031
190	0x3ce7c93a	0.028294194
191	0x3d3c65b5	0.045995433
192	0x3b4b6d30	0.0031040423
193	0xbc041c80	-0.008063436
194	0xbc8d220a	-0.017228145
195	0xbce1b827	-0.027553631
196	0x3b0b69b0	0.0021272711
197	0x3c9a9656	0.018870514
198	0xbd0f22d2	-0.034945317
199	0xbc3057b8	-0.010763101
200	0x3ca297fe	0.019847866
201	0xbcb58e00	-0.022162437
202	0xbd2c58f5	-0.042077024
203	0x3d29de61	0.041471843
204	0xbd1308f5	-0.035897214
205	0x3d309ebb	0.043120127
206	0xbbdbb9a8	-0.0067054816
207	0x3d1a2539	0.037633155
208	0xbd3a01ba	-0.045411803
209	0x3a163000	0.00057291985
210	0x3d36212f	0.04446524
211	0x3c0bd308	0.0085342005
212	0x3c930466	0.017946433
213	0xbccbf517	-0.024897141
214	0x3cfcdc3a	0.030866731
215	0xbd16c0dd	-0.036805023
216	0x3d09ed15	0.033673365
217	0x3a0694c0	0.000513386
218	0xbbf62270	-0.0075114295
219	0xb920e800	-0.00015345216
220	0x3bab5d98	0.005229663
221	0x3bc6e628	0.006069917
222	0xbc9c706d	-0.019096578
223	0xbbc5a328	-0.0060314126
224	0xbc2ba668	-0.010476686
225	0xbb1694d0	-0.0022976883
226	0xbc1eb258	-0.009686075
227	0xbce34673	-0.027743554
228	0xbc672188	-0.014107116
229	0x3d1e175b	0.038596492
230	0x3cc815ea	0.024424512
231	0xbd17328d	-0.036913443
232	0x3d361cf9	0.044461224
233	0x3d0cc4cb	0.034367364
234	0xbcab0dbd	-0.020880574
235	0x3cf70812	0.030155215
236	0xbcd03790	-0.02541712
237	0x3be737d0	0.007056214
238	0x3c9bc5fe	0.019015308
239	0x3c027408	0.007962234
240	0x3d0f811f	0.03503525
241	0x3aa316a0	0.0012442656
242	0xbd092694	-0.033484057
243	0x3cddc2de	0.027070459
244	0x3d16d8eb	0.036827963
245	0x3b93ac98	0.0045066588
246	0x3befc0f0	0.007316701
247	0x3cfc0d62	0.0307681
248	0x3beb6e10	0.0071847513
249	0x3d372a71	0.04471821
250	0x3bd08b90	0.0063642934
251	0xbc880536	-0.016604047
252	0x3afb6560	0.0019179992
253	0xbbf434f0	-0.0074525997
254	0x3cea4c3a	0.0286008
255	0x3cedf4b2	0.029047344

fc3.weight f4 [3, 300]
0	0x3ae3a610	0.0017368216
1	0xbb382e8a	-0.0028103911
2	0x3a8ff7dc	0.0010983902
3	0xbb377c71	-0.0027997757
4	0x39a3eaf0	0.00031264825
5	0x3aad2870	0.0013210904
6	0xba5d9068	-0.0008451999
7	0xbb318df7	-0.0027092674
8	0x3b2333b8	0.0024902653
9	0xbaa2e392	-0.001242744
10	0x3ab94eb4	0.0014137835
11	0x3b1a8594	0.0023578154
12	0x39da94e0	0.0004169112
13	0x3a89c628	0.0010511326
14	0x3a35a578	0.0006929259
15	0xbb11ac3d	-0.0022227906
16	0x3b0b4caa	0.0021255412
17	0xbb264112	-0.0025368375
18	0x3b33285e	0.0027337293
19	0x39d6b8a0	0.00040954817
20	0xbb121b1a	-0.0022293986
21	0xba402380	-0.00073295087
22	0xbb3410dc	-0.002747587
23	0x3a9d8f58	0.0012020869
24	0xbb1dcd3d	-0.002407863
25	0xbb0b08fe	-0.0021215077
26	0xba48d0f0	-0.00076605286
27	0x3b2d14e2	0.0026410152
28	0x397eb020	0.0002428894
29	0xbb200696	-0.0024417988
30	0x3a314d74	0.00067635556
31	0x3ac22c34	0.0014814199
32	0x3a181e98	0.00058028987
33	0xba8e64d8	-0.0010863794
34	0xbb3c82d1	-0.0028764496
35	0x3b2ce20c	0.0026379852
36	0x3af3e890	0.0018608738
37	0x3a554d54	0.0008136828
38	0x3ac5cae0	0.0015090369
39	0xba80c042	-0.0009822922
40	0x3adc06dc	0.0016786712
41	0xbb0c33cf	-0.0021393185
42	0x3b2bb5dc	0.0026200926
43	0xba8fa5c3	-0.0010959435
44	0x3a54ef1c	0.0008122788
45	0xb8944420	-7.069879e-05
46	0xbb23015a	-0.0024872632
47	0xba6d8bb0	-0.00090616476
48	0xba83262e	-0.0010005885
49	0x3a54f578	0.0008123736
50	0x3b220954	0.0024724798
51	0x3ab038f8	0.0013444712
52	0x3a9f1e7c	0.0012139822
53	0x39bbd880	0.00035828725
54	0xba883398	-0.0010391353
55	0xb61e5c00	-2.3597386e-06
56	0xba0e1d08	-0.0005421196
57	0xbaa6fb37	-0.0012739663
58	0xbaf91ddb	-0.001900609
59	0xba9fb543	-0.0012184758
60	0x393fc880	0.00018289872
61	0x3a94ca44	0.0011351784
62	0xbb387e46	-0.0028151437
63	0xbad44b70	-0.0016196799
64	0xbb287558	-0.0025704708
65	0x3a098ddc	0.0005247274
66	0xbab0f376	-0.0013500291
67	0xbb1e59d0	-0.002416242
68	0xbac860ee	-0.0015287676
69	0x3a277d84	0.0006389248
70	0x3b3664c6	0.0027831062
71	0x3a395224	0.000706943
72	0x3a864470	0.0010243785
73	0xbaeb533e	-0.0017953885
74	0xbb0f8094	-0.0021896707
75	0xbb24bbe5	-0.0025136408
76	0xbb0e4bfa	-0.0021712766
77	0xbaa098ff	-0.0012252628
78	0xbabec6a2	-0.0014555047
79	0xb90383e0	-0.00012542261
80	0x3b1a6e9a	0.0023564459
81	0x3b18723e	0.0023261453
82	0xbb229223	-0.0024806343
83	0xba00765c	-0.00049004494
84	0x3b047094	0.0020208703
85	0x3b362f18	0.0027799066
86	0x3a93f350	0.0011287723
87	0x3b0622bc	0.002046748
88	0x3ae4a6d8	0.0017444743
89	0xbb100223	-0.002197393
90	0xb759a200	-1.29719265e-05
91	0xba800416	-0.0009766843
92	0x3a8ab90c	0.0010583713
93	0x3a857df4	0.0010184632
94	0xbb31daf5	-0.0027138565
95	0x3b39c27e	0.0028344686
96	0x39bd40b8	0.00036097108
97	0x3b11e8ba	0.002226396
98	0xba8fa31f	-0.0010958648
99	0xbb309d17	-0.0026949102
100	0x3b2807ac	0.0025639338
101	0xb9c54960	-0.00037629437
102	0xbb0be426	-0.0021345704
103	0x3b0243b8	0.001987679
104	0xbb1ca1a4	-0.0023900056
105	0xbaef4c81	-0.0018257053
106	0xbb36d1ea	-0.0027896115
107	0x3a5e295c	0.0008474791
108	0xb964fb50	-0.00021837396
109	0xbb0303bc	-0.001999124
110	0xbad86204	-0.0016508703
111	0xbb3af976	-0.0028530038
112	0xba9319ca	-0.0011222896
113	0xba889210	-0.0010419507
114	0x3ad5e09c	0.0016317549
115	0x3ac559ec	0.0015056706
116	0xbb2281e2	-0.0024796654
117	0x3afe6474	0.00194086
118	0x39cb73a8	0.00038805348
119	0xb57d2000	-9.429641e-07
120	0xbad0355f	-0.0015885046
121	0x3a1bceb4	0.0005943582
122	0x3a567f90	0.00081824604
123	0x3a1e0e04	0.000602931
124	0xbb217292	-0.002463494
125	0x3a8b239c	0.0010615471
126	0x3ab05834	0.0013454021
127	0xbad6d9cf	-0.0016391816
128	0x3ae03cec	0.0017108
129	0x3a1bb940	0.0005940385
130	0x3a106434	0.00055080955
131	0xbaf6b8fe	-0.0018823443
132	0xbadee7b2	-0.0017006306
133	0x3b078ae2	0.0020682146
134	0xbabcad36	-0.0014394883
135	0x39a133c0	0.0003074687
136	0xbb410d06	-0.0029457225
137	0x39898d18	0.000262358
138	0xbb07a84d	-0.002069968
139	0x3a982570	0.0011607837
140	0xb97efe00	-0.0002431795
141	0xb9a183f8	-0.00030806637
142	0xbb0aa454	-0.0021155076
143	0x3a9ecbe8	0.0012115212
144	0xba491fc8	-0.0007672277
145	0x38b9fb40	8.8682864e-05
146	0xba8343ca	-0.001001471
147	0xbb0960fa	-0.0020962344
148	0xbad4a31f	-0.001622293
149	0x3a53d38c	0.0008080534
150	0xba861168	-0.0010228576
151	0x3a58b1d0	0.0008266242
152	0xbb25f91f	-0.002532549
153	0x3b1e4946	0.002415256
154	0x3b32c894	0.0027280198
155	0xbb433d30	-0.002979111
156	0xbb32c87b	-0.002728014
157	0xbaa294f8	-0.0012404015
158	0xb94662e0	-0.00018919585
159	0x3a0f3258	0.0005462519
160	0xba0ed144	-0.0005448053
161	0x3a2a9f84	0.0006508755
162	0x3a327a20	0.0006808359
163	0x3b104a04	0.0022016773
164	0x39db2b88	0.00041803368
165	0xb9a44c10	-0.0003133719
166	0xbb2844db	-0.0025675807
167	0xbad8d562	-0.0016543085
168	0xbb139782	-0.0022520726
169	0xbb2096d2	-0.0024503958
170	0x3aa939c8	0.0012910897
171	0xbb1ae6c0	-0.0023636073
172	0x39639910	0.00021705427
173	0xb85b0580	-5.221879e-05
174	0xba6622a0	-0.0008778963
175	0x39e14968	0.00042970036
176	0xb996d698	-0.00028770114
177	0x3ab32734	0.00136683
178	0x3a8d114c	0.0010762601
179	0xbaaf28d2	-0.0013363606
180	0x3b1e667e	0.0024169977
181	0x3b270ee6	0.0025491058
182	0x3a7d9a30	0.000967416
183	0xb9aedc38	-0.00033351942
184	0xbaa5cb2c	-0.0012649051
185	0xb9d75ac0	-0.0004107561
186	0x3ad57ef0	0.0016288441
187	0x3ac41c24	0.0014962
188	0xbb1ae006	-0.0023632064
189	0xbb12b3f5	-0.0022385095
190	0xbb1c2da9	-0.0023830927
191	0x3aa4e840	0.0012581423
192	0xb9d19c58	-0.00039980072
193	0x3a4b45dc	0.00077542453
194	0x3adb15d8	0.0016714884
195	0xbb178df5	-0.0023125384
196	0x389a5b60	7.360312e-05
197	0xbaa10620	-0.0012285151
198	0xbb25a09f	-0.002527274
199	0x3adb38fc	0.0016725357
200	0xba5c1554	-0.0008395512
201	0x3b0386e6	0.002006942
202	0x3b335e3c	0.00273694
203	0xba2fc178	-0.00067045493
204	0xbb358c3a	-0.002770199
205	0x3b131a7a	0.0022446201
206	0x3b15b58c	0.0022843806
207	0x3b363b42	0.0027806317
208	0x3b2e5cea	0.0026605674
209	0xba840580	-0.001007244
210	0xb98b24d0	-0.00026539573
211	0x39861c48	0.00025579543
212	0x3b090832	0.0020909426
213	0xbaee0179	-0.0018158398
214	0xbb1dea32	-0.002409589
215	0xbb38490c	-0.0028119711
216	0xba91a762	-0.0011112506
217	0x3ac9e73c	0.0015403996
218	0xbad0b842	-0.0015924054
219	0x3b387284	0.0028144429
220	0x39c2b988	0.00037140795
221	0xbadadecf	-0.0016698482
222	0xbad88d9a	-0.0016521693
223	0xbb3ce8ab	-0.0028825204
224	0x3ab1d7ac	0.0013568304
225	0xbac48c90	-0.0014995504
226	0x3aa0db60	0.001227241
227	0xbaedc579	-0.0018140516
228	0x3b42437c	0.0029642275
229	0xba231594	-0.0006221172
230	0xbad0c4d8	-0.0015927805
231	0x3a0df110	0.0005414644
232	0x3a91b7e4	0.0011117426
233	0x3aaffd84	0.0013426994
234	0xb90437e0	-0.00012609316
235	0x3aa8b6f8	0.0012871912
236	0xbb1f0068	-0.0024261717
237	0x3b3e2e8c	0.0029019443
238	0xbac9e642	-0.0015403705
239	0x3a836904	0.0010025804
240	0xbaa10bae	-0.0012286806
241	0x3a921d84	0.0011147712
242	0xba26e35c	-0.00063662766
243	0x3b43ba78	0.0029865783
244	0xba899338	-0.0010496145
245	0xba91f671	-0.0011136067
246	0x3b1de63a	0.0024093525
247	0x3951fc10	0.00020025694
248	0xbae2164b	-0.0017249075
249	0x39fff3e0	0.0004881909
250	0xbb1305fc	-0.0022433987
251	0xbb196c76	-0.0023410595
252	0x3ae79398	0.0017667888
253	0x3ac6b438	0.001515991
254	0x3b063cce	0.002048302
255	0xbb16f014	-0.0023031281

fc3.bias f4 [3]
0	0x3b7931e0	0.0038024113
1	0x3c44e308	0.012017019
2	0x3d110794	0.035407618
