output/gym_finger/Finger-v0-run1/actor.pkl (torch_old, 508236 bytes, 6 tensors)

fc1.weight f4 [400, 13]
0	0x3c21f4d4	0.009885032
1	0xbd0208ee	-0.031746797
2	0x3c4bdc20	0.012442619
3	0xbcd54f5d	-0.02603882
4	0xbc661c34	-0.01404481
5	0x3c86dac2	0.016461734
6	0xbd0be5ce	-0.034154706
7	0x3c2108a8	0.009828724
8	0xbca9f32d	-0.020745838
9	0x3b83f040	0.0040264428
10	0x3c5e84e4	0.013581488
11	0xbd428bd7	-0.047496643
12	0xbd2cfde8	-0.04223433
13	0xbbdc1770	-0.006716661
14	0xbc3305ec	-0.010926705
15	0x3cc65a6e	0.024213042
16	0xbd432e8f	-0.047651824
17	0xbd23809a	-0.039917566
18	0x3ca1c866	0.019748878
19	0xb9e33100	-0.00043333322
20	0x3c8e53b6	0.0173739
21	0xbcce4057	-0.025177164
22	0xbc22b1a8	-0.009930052
23	0xbd290fed	-0.041274954
24	0x3b378150	0.002800066
25	0x3d1caf85	0.038253326
26	0xbc87d09a	-0.016578961
27	0x3cf1f822	0.029537264
28	0x3d3078e1	0.04308403
29	0x3bd8b398	0.006613206
30	0xbba95cb0	-0.00516852
31	0x3d2be971	0.041970674
32	0x3cc29482	0.023752455
33	0xbcc96ce3	-0.024588054
34	0xbce67a3a	-0.028134454
35	0xbd31172b	-0.043234985
36	0xbce0ecc7	-0.027456654
37	0x3d43a649	0.047766004
38	0x3ce5b336	0.028039556
39	0x3d16f149	0.0368512
40	0xbcf1e03d	-0.02952587
41	0x3d38f01b	0.045150857
42	0x3bfc2030	0.0076942667
43	0x3b8d44f0	0.0043111965
44	0xbc8bf5b0	-0.017084926
45	0xbcbffb17	-0.023435159
46	0xbd2a768b	-0.041616958
47	0x3bd48f00	0.0064867735
48	0x3d459ab1	0.04824323
49	0x3c7fa7f4	0.015604008
50	0xbd21d193	-0.039506506
51	0x3ca98a12	0.02069572
52	0xbca2e543	-0.019884711
53	0x3d36328b	0.044481795
54	0x3cb95f5e	0.022628482
55	0x3bb8a1e8	0.005634535
56	0xbcdaf50a	-0.026728172
57	0xbd184efe	-0.037184708
58	0xbd0d2345	-0.034457464
59	0xbcb4cf50	-0.02207151
60	0xbcf50cfa	-0.029913414
61	0x3c8aee76	0.01695941
62	0xbc34e828	-0.0110416785
63	0xbd4736da	-0.048636295
64	0xbcfe6df7	-0.031058295
65	0xbcbd9ad0	-0.02314511
66	0xbd377fdd	-0.044799674
67	0x3be49670	0.0069759414
68	0xbcc65db0	-0.024214596
69	0xbc1f16a8	-0.0097099915
70	0x3b014c30	0.001972925
71	0x3b3a5ce0	0.0028436705
72	0xbd162a65	-0.036661524
73	0x3cb05142	0.021523122
74	0xbcc79a77	-0.024365647
75	0xbca0665d	-0.01958006
76	0xbc9f7a5a	-0.019467521
77	0x3c326a08	0.010889538
78	0x3d041011	0.032241885
79	0x3d10b3f7	0.035327878
80	0x3d2e9943	0.04262663
81	0x3c9921da	0.0186929
82	0x3cb7a846	0.022419106
83	0x3ae38740	0.0017359033
84	0x3c8a93be	0.016916152
85	0xbca0ce80	-0.019629717
86	0xbc5b71d4	-0.013393838
87	0x3c6bde3c	0.0143962465
88	0xbc608c14	-0.013705272
89	0xbd303abf	-0.043024775
90	0x3d194d8f	0.03742748
91	0x3b32a6e0	0.002726011
92	0xbc3d0ab8	-0.0115382
93	0x3cce280a	0.025165576
94	0x3cfe5fde	0.031051572
95	0xbd094cac	-0.033520386
96	0x3c930f06	0.0179515
97	0x3c30bfd4	0.010787923
98	0xbc8d506c	-0.017250262
99	0xbc7e27d8	-0.015512429
100	0xbc95bfb6	-0.018279891
101	0x3d2cea0b	0.04221539
102	0xbc8cd156	-0.017189663
103	0x3ca33c72	0.019926284
104	0xbd2ef540	-0.042714357
105	0xbcd2dd23	-0.025740212
106	0xbd01114c	-0.031510636
107	0xbc03222c	-0.008003753
108	0x3bc41540	0.0059839785
109	0xbc1b1294	-0.009464879
110	0x3ce1d4c2	0.027567271
111	0xbc54dac8	-0.012991615
112	0x3c6619ac	0.014044207
113	0xbc85e84c	-0.01634612
114	0x3d4b67e9	0.049659643
115	0xbb7d1ae0	-0.0038620755
116	0x3d1c3c41	0.0381434
117	0x3bce9790	0.0063046888
118	0xbd169dfe	-0.036771767
119	0x3d2a1501	0.041523937
120	0xbca6010a	-0.020264167
121	0xbd383c2d	-0.044979263
122	0xbb8a5b28	-0.0042222925
123	0x3cd449a2	0.025914017
124	0xbd2405b8	-0.040044516
125	0x3cf15f46	0.029464375
126	0xbcc839b3	-0.024441576
127	0xbd2dec22	-0.042461522
128	0x3d195063	0.03743018
129	0x3d0354c1	0.03206325
130	0x3d39a491	0.04532296
131	0x3d2ef8d3	0.042717766
132	0x3a67f680	0.0008848682
133	0x3ba35f10	0.0049856976
134	0xbd43369d	-0.047659505
135	0x3cd6e4c2	0.026232127
136	0x3c9114a2	0.017710034
137	0xbc63c220	-0.0139012635
138	0x3d1cc39f	0.038272496
139	0xbd03b850	-0.032158196
140	0x3c70b1cc	0.014690828
141	0xbb2e7ba0	-0.002662398
142	0x3cc29fe2	0.023757879
143	0x3c351708	0.011052854
144	0xbc557194	-0.013027567
145	0xbd081eea	-0.033232607
146	0x3d015faf	0.03158539
147	0x3b81a890	0.003956862
148	0x3b296f20	0.002585359
149	0x3d1ea4b1	0.03873128
150	0x3c9b2656	0.018939178
151	0x3d14f06d	0.0363621
152	0x3bc6b180	0.00606364
153	0xbbdfd880	-0.0068312287
154	0x3d3ebdb5	0.046567637
155	0x3c558eec	0.0130345635
156	0xbd4393a0	-0.047748208
157	0x3c7b1e24	0.01532701
158	0x3b60cba0	0.0034301057
159	0xbd435cbd	-0.047695864
160	0x3cf170ee	0.029472794
161	0x3b807750	0.003920473
162	0xbcd9a287	-0.026566757
163	0x3c06a7e8	0.008218743
164	0xbc623128	-0.013805665
165	0x3d41fe25	0.04736151
166	0x3d0a0205	0.033693332
167	0x3d314719	0.043280695
168	0xbd45d2fa	-0.048296906
169	0x3c1ed7a8	0.009694971
170	0x3cd12262	0.02552909
171	0xbb963228	-0.004583616
172	0x3c019228	0.0079083815
173	0xbbcbb758	-0.0062169246
174	0x3d296911	0.041359965
175	0xbb7884b0	-0.0037920885
176	0x3d1d4be7	0.038402464
177	0xbcb173a3	-0.021661585
178	0x3d3c3b71	0.045955125
179	0xbd466a98	-0.0484415
180	0xbce6022d	-0.02807721
181	0x3d01153f	0.031514402
182	0x3ced9dda	0.029005934
183	0xbaa42140	-0.0012522116
184	0x3d108603	0.035284054
185	0xbcc20ed7	-0.023688717
186	0xbd104403	-0.03522111
187	0x3c22e1ec	0.009941559
188	0x3d15c1b7	0.036561694
189	0xbcee7b4d	-0.029111529
190	0xbb12e480	-0.0022414029
191	0x3ba33eb0	0.004981838
192	0x3b5d46a0	0.003376402
193	0x3acc7b00	0.0015600622
194	0xbc8d0c54	-0.017217793
195	0xba531940	-0.0008052774
196	0x3d45caeb	0.04828922
197	0xbc4463e0	-0.011986703
198	0xbd2137b8	-0.03935978
199	0x3d4a2343	0.049350034
200	0x3d4a1a33	0.04934139
201	0xbc23f480	-0.010007024
202	0x3b81d7d8	0.003962498
203	0xbd0cd8ae	-0.03438633
204	0xbd42b1eb	-0.047532957
205	0x3cac6b22	0.021047179
206	0xbc9d65e0	-0.019213617
207	0x3d2ccadd	0.042185653
208	0xbb8c6730	-0.004284762
209	0x3d1711f1	0.036882345
210	0xbcb18aca	-0.021672625
211	0xbd462282	-0.048372753
212	0x3c9381be	0.018006202
213	0x3c916a5e	0.017750915
214	0xbd1020c3	-0.035187494
215	0x3cecfcd2	0.028929148
216	0xbc514d08	-0.012774713
217	0xbc0855cc	-0.008321237
218	0xbc5bd208	-0.013416775
219	0x3d33a7b1	0.043861095
220	0xba9223a0	-0.0011149533
221	0x3d1532af	0.03642529
222	0x3bde2718	0.0067795627
223	0x3d1fd0ed	0.039017607
224	0x3cbdcd52	0.023169193
225	0xbcc16193	-0.023606097
226	0x3d2b535f	0.041827556
227	0x3bb09558	0.005388897
228	0xbc8b5254	-0.01700703
229	0x3ce0ef76	0.027457934
230	0xbcaafd70	-0.020872802
231	0x3cd145ae	0.025545921
232	0xbd12303b	-0.035690527
233	0xbcd146ba	-0.02554642
234	0x3b52f020	0.0032186583
235	0xbd052c52	-0.03251297
236	0x3bd1d298	0.0064032786
237	0xbcd14750	-0.0255467
238	0x3c891562	0.016733829
239	0xbca502aa	-0.020142872
240	0x3a32fe00	0.000682801
241	0x3d41100f	0.047134455
242	0xbc657c4c	-0.014006685
243	0x3cc90d52	0.024542484
244	0xbd21ef25	-0.039534707
245	0x3d29a7cf	0.0414198
246	0x3d204607	0.039129283
247	0x3cc1cb12	0.023656402
248	0x3d307aef	0.04308599
249	0xbce7ccd0	-0.028295904
250	0x3b7ebd80	0.0038870275
251	0xbd06450a	-0.032780685
252	0x3d310869	0.04322091
253	0xbd2f9c5a	-0.042873718
254	0x3bc169b0	0.0059024915
255	0xbb4c5fb0	-0.0031184964

fc1.bias f4 [400]
0	0x3e3ce11a	0.18445244
1	0xbdd8c4a4	-0.10584381
2	0xbdd32112	-0.10309042
3	0xbe8b51fd	-0.2721099
4	0xbe3e3fba	-0.18578997
5	0x3e2cae7e	0.16863438
6	0x3d52ee78	0.051496953
7	0x3e47ff9e	0.19531104
8	0x3e20c6c6	0.15700826
9	0x3d2218e0	0.039574504
10	0xbe309353	-0.172437
11	0x3df636c8	0.120221674
12	0xbe05e71d	-0.13076444
13	0x3c885f70	0.01664707
14	0x3d3f2cf8	0.046673745
15	0xbe813f7c	-0.25243747
16	0x3e779b7e	0.2418041
17	0xbcd18150	-0.025574356
18	0x3dc4fee0	0.09618926
19	0xbe4aba1b	-0.19797556
20	0xbe8818c9	-0.2658141
21	0xbcccb9b0	-0.024990886
22	0xbcf2af68	-0.029624656
23	0xbdd48414	-0.103767544
24	0x3e200248	0.1562587
25	0xbe320dac	-0.17388028
26	0x3e8dcd15	0.27695528
27	0xbe840b61	-0.2578993
28	0x3e6f25da	0.23354283
29	0x3cdccd30	0.02695331
30	0xbe13baea	-0.14426771
31	0xbcbcf130	-0.023064226
32	0x3cd77e30	0.026305288
33	0x3d19e1a0	0.03756869
34	0xbd700588	-0.058599025
35	0xbe8a5df5	-0.2702481
36	0x3dff75c4	0.12473634
37	0x3e54f116	0.20795092
38	0x3da4d248	0.080479205
39	0x3e4b1958	0.19833887
40	0xbe863dd2	-0.2621904
41	0x3dd331ec	0.10312256
42	0x3e6a0846	0.22854719
43	0xbe573dc0	-0.2101965
44	0x3d9b8d98	0.07595366
45	0x3e445ec2	0.19176772
46	0xbe1ffd7a	-0.15624037
47	0xbdc667cc	-0.096877664
48	0xbbc92440	-0.0061383545
49	0xbe86a5ae	-0.2629828
50	0xbe8d4010	-0.27587938
51	0xbdce72ba	-0.10080476
52	0x3e54ba7a	0.2077426
53	0x3e0fd098	0.14044416
54	0xbd7ef434	-0.06224461
55	0x3d419898	0.047264665
56	0xbe861920	-0.26191044
57	0x3e7a3592	0.24434498
58	0x3e04eec6	0.1298171
59	0x3e78cf7e	0.24297902
60	0xbe16dc08	-0.14732373
61	0x3e8652b5	0.26234975
62	0x3d682350	0.0566743
63	0xbe8a97bf	-0.27068898
64	0x3e87b6dd	0.265067
65	0xbd1bfe88	-0.038084537
66	0x3d2f9528	0.042866856
67	0x3e813509	0.25235775
68	0xbd8627f8	-0.06550592
69	0xbe77f8ae	-0.24215958
70	0x3e7a6c0e	0.24455282
71	0x3e7aa572	0.24477175
72	0xbe7e94dc	-0.24861473
73	0xbdf40804	-0.11915591
74	0xbe1d98e4	-0.15390354
75	0xbe8637ef	-0.2621455
76	0xbe8ba063	-0.27270803
77	0xbdae9d74	-0.085261256
78	0xbd7d31b0	-0.061814964
79	0x3b6d0a80	0.0036169589
80	0x3e029c32	0.12754896
81	0x3d0a03f8	0.03369519
82	0xbe0ede28	-0.13951933
83	0xbbb3b080	-0.005483687
84	0xbe0c0b03	-0.13676076
85	0x3e0c63b6	0.13709912
86	0xbbfa9140	-0.0076467097
87	0xbe1a6134	-0.15076143
88	0x3dd9faa0	0.10643506
89	0xbda5c7a0	-0.08094716
90	0x3db61530	0.0889076
91	0x3b41fb00	0.002959907
92	0x3e10d2c0	0.14142895
93	0xbe79837a	-0.2436656
94	0x3e1a3612	0.15059689
95	0xbe78f9ac	-0.24313992
96	0x3bfdfe80	0.007751286
97	0xbdf85cf8	-0.121271074
98	0x3df54444	0.11975911
99	0xbc9d8ab0	-0.01923117
100	0xbe3ad6be	-0.1824598
101	0xbdae2c34	-0.08504525
102	0x3e6032c2	0.21894363
103	0x3e2f90c6	0.1714507
104	0x3d342770	0.043982923
105	0xbe31fa26	-0.1738058
106	0xbe87584f	-0.26434562
107	0xbe8642ba	-0.26222783
108	0x3e869a69	0.2628968
109	0x3c8576e0	0.016292036
110	0x3e85a081	0.26099017
111	0xbe388048	-0.18017685
112	0x3d267f80	0.040648937
113	0xbdc5efdc	-0.0966489
114	0xbe3fbb52	-0.18723801
115	0xbe8b9395	-0.27261034
116	0x3e05a06c	0.13049477
117	0xbe634cde	-0.22197291
118	0xbe6d0fd8	-0.23150575
119	0xbdfb519c	-0.12271425
120	0x3e8c2df3	0.27378806
121	0x3e71a0ee	0.23596546
122	0xbde1aac2	-0.110188976
123	0x3e84b277	0.25917408
124	0x3da5963c	0.080852956
125	0x3d0fcc80	0.035107136
126	0xbdd18a8a	-0.10231502
127	0x3df01ea8	0.11724597
128	0x3e4120b6	0.18860134
129	0xbd80da68	-0.06291658
130	0xbe2c9ab5	-0.16855891
131	0xbe0dc393	-0.13844137
132	0x3e6fd54a	0.23421207
133	0xbe724440	-0.23658848
134	0x3e461e6e	0.19347546
135	0xbe8b2597	-0.27177116
136	0x3e0789f8	0.13236225
137	0x3e7b1916	0.24521288
138	0x3e89fb4b	0.26949534
139	0xbe623b4b	-0.22092931
140	0x3dd5f214	0.10446563
141	0x3d117200	0.03550911
142	0xbe0b2f8f	-0.13592361
143	0x3e1f355a	0.15547696
144	0x3dc26d20	0.0949347
145	0x3e2fb142	0.17157462
146	0xbd762b38	-0.06009981
147	0x3d8f0a10	0.06984341
148	0x3e66f312	0.22553661
149	0x3e845a3f	0.25850102
150	0x3db4a33c	0.08820197
151	0xbc8caa00	-0.017170906
152	0xbd9708ca	-0.07374723
153	0x3d52e2c8	0.051485807
154	0x3dcf92c0	0.10135412
155	0xbe10fe06	-0.14159402
156	0x3de7531c	0.11295149
157	0xbdc44772	-0.095839396
158	0xbcca19d0	-0.024670511
159	0x3e839d73	0.25706062
160	0xbddfb480	-0.109230995
161	0x3e7e2812	0.24819973
162	0xbd8db33e	-0.06918953
163	0xbe3f8594	-0.187033
164	0x3e01bbe8	0.12669337
165	0x3ddeb5e4	0.10874537
166	0x3bc6ba80	0.006064713
167	0x3c96c570	0.018404692
168	0x3b4eaf80	0.0031537712
169	0x3e330bf6	0.17485031
170	0x3e31c40e	0.17359945
171	0xbdb15cc2	-0.0866027
172	0x3e7ec6f6	0.24880585
173	0x3d4b1720	0.0495826
174	0x3e47ee42	0.19524482
175	0xbd0dd6c8	-0.03462866
176	0x3bf88440	0.007584125
177	0xbe29bd64	-0.16576153
178	0x3e3b3780	0.1828289
179	0x3da3e620	0.08002877
180	0x3e886a5f	0.26643655
181	0x3dcbb7c8	0.09947163
182	0x3cdf94a0	0.02729255
183	0xbd9e58da	-0.07731791
184	0x3e3d041e	0.18458602
185	0xbe21cdfc	-0.15801233
186	0x3e3a8cc4	0.1821776
187	0xbd49d8a4	-0.04927887
188	0xbe12e55f	-0.1434531
189	0x3ba30640	0.0049751103
190	0x3e63debc	0.22252935
191	0x3d3e2508	0.046422035
192	0x3c806840	0.01567471
193	0xbe3ec170	-0.18628478
194	0x3e80c955	0.25153604
195	0xbe4d2374	-0.20033056
196	0xbb8bdc80	-0.004268229
197	0xbc226b20	-0.009913236
198	0xbe237a3e	-0.159646
199	0xbdf2df96	-0.11859052
200	0xbe5e4a35	-0.21707995
201	0x3e31504e	0.1731579
202	0xbdc60c10	-0.096702695
203	0xbe88483e	-0.26617616
204	0xbe064a51	-0.13114287
205	0xbe33f54c	-0.17574042
206	0x3df6de34	0.12054101
207	0xbe68cbc4	-0.2273398
208	0x3e45cb52	0.19315842
209	0xbe29a372	-0.16566256
210	0x3ddf3638	0.10899013
211	0xbd2c49ac	-0.042062446
212	0xbe08e1b8	-0.13367355
213	0x3d4a7400	0.049427032
214	0x3c8a3de0	0.016875207
215	0x3e234804	0.1594544
216	0x3e1e816e	0.15479061
217	0xbd152d44	-0.03642012
218	0xbde71792	-0.112837926
219	0x3db37b14	0.0876371
220	0xbe1e7531	-0.15474392
221	0x3d46e1d0	0.048555195
222	0xbb685180	-0.0035448968
223	0xbe22d5c8	-0.15901864
224	0xbe461451	-0.19343688
225	0xbe290204	-0.16504675
226	0xbe858f51	-0.26085904
227	0x3e0fddb8	0.14049423
228	0x3e382462	0.17982629
229	0x3e1ccb0a	0.15311828
230	0xbe3bc42c	-0.18336552
231	0x3e30e78e	0.17275831
232	0x3df7ad6c	0.120936245
233	0x3e232c6e	0.15934917
234	0xbd630250	-0.055422127
235	0xbe80efed	-0.2518305
236	0xbdaa9c1a	-0.08330555
237	0xbdd198c6	-0.10234217
238	0x3e5812a4	0.21100861
239	0x3d839070	0.06424034
240	0xbe642f3a	-0.2228364
241	0x3e0a5be0	0.1351161
242	0x3e151fdc	0.14562935
243	0x3ae15400	0.0017191172
244	0xbe8961c7	-0.2683241
245	0x3e407160	0.18793249
246	0x3e0d33d0	0.13789296
247	0xbdd8b914	-0.10582176
248	0x3d246320	0.040133595
249	0xbd610298	-0.054934114
250	0xbe81216a	-0.25220805
251	0xbe78d818	-0.24301183
252	0x3de57c4c	0.11205348
253	0x3e8bc265	0.2729675
254	0xbe8d26fd	-0.27568808
255	0xbd37bf3c	-0.04486011

fc2.weight f4 [300, 400]
0	0xbcfbf22a	-0.030755121
1	0xbd6b9019	-0.05751047
2	0xbd3d01ab	-0.04614417
3	0xbd2edfe8	-0.042694002
4	0x3ceaa0f8	0.028641209
5	0x3ccd9ce4	0.025099225
6	0x3d0ad480	0.033894062
7	0x3c82260c	0.015887283
8	0xbc68a29c	-0.014198925
9	0xbd0494dd	-0.03236853
10	0xbccdd32e	-0.025125112
11	0x3d022514	0.03177364
12	0xbd652c24	-0.0559503
13	0xbc419b64	-0.011816833
14	0xbc3a2a04	-0.011362556
15	0xbd223fc1	-0.03961158
16	0x3cac0998	0.021000668
17	0x3d207e26	0.039182805
18	0xbb4e55b0	-0.003148418
19	0xbd11fd30	-0.03564185
20	0xbc77ae1c	-0.0151171945
21	0xbd649cbc	-0.055813536
22	0xbd0905e2	-0.033452876
23	0xbc3b3ef8	-0.011428587
24	0xbd4078d1	-0.04699022
25	0xbbfb7200	-0.007673502
26	0xbcc3c81c	-0.02389913
27	0xbd2cdbfe	-0.04220199
28	0xbd508be5	-0.050914664
29	0x3cd354e4	0.025797315
30	0xbcb0171e	-0.021495398
31	0x3cc5d428	0.024149016
32	0x3c99f73c	0.018794648
33	0xbc4474a8	-0.011990704
34	0xbd1ebe98	-0.038755983
35	0xbc9f0b6e	-0.01941463
36	0xbd299f1c	-0.041411504
37	0x3d389038	0.045059413
38	0xbd501305	-0.05079939
39	0x3a434640	0.0007449128
40	0xbd0a568c	-0.033773944
41	0xbd4122eb	-0.04715244
42	0xbc6103cc	-0.013733815
43	0xbc7808c0	-0.015138805
44	0x3d612d24	0.05497469
45	0xbc9b209a	-0.018936444
46	0xbd4e95b6	-0.050435744
47	0xbcc6ef20	-0.024283946
48	0x3d5d5984	0.054040447
49	0x3c58c9b8	0.013231687
50	0x3d4bb714	0.049735144
51	0xbd67f635	-0.056631286
52	0xb8a81800	-8.0153346e-05
53	0xbd636b12	-0.055522032
54	0x3cbcafc4	0.02303303
55	0xbc72936c	-0.014805656
56	0x3caf0d50	0.021368653
57	0xbc5f6de4	-0.01363704
58	0xbd3a6f05	-0.045516033
59	0x3d096d9a	0.03355179
60	0xbd659016	-0.056045614
61	0xbd474eae	-0.04865902
62	0x3c943314	0.018090762
63	0x3d6b9f3e	0.057524912
64	0xbc82e270	-0.015977114
65	0xbd594529	-0.053044472
66	0xbcff03e1	-0.03112978
67	0x3d49930c	0.0492125
68	0x3c1edc78	0.0096961185
69	0xbd62a773	-0.055335473
70	0xbd5c7a23	-0.053827416
71	0xbb342fc0	-0.0027494282
72	0x3bd80f80	0.0065936446
73	0xbcc839c6	-0.024441611
74	0xbc6f6f00	-0.014613867
75	0x3d54fa1e	0.051996343
76	0x3c0d9d28	0.008643426
77	0xbd2cf74f	-0.04222804
78	0x3d022b5e	0.03177964
79	0xbd122424	-0.035678998
80	0x3b829c40	0.0039859116
81	0xbd4b3ed0	-0.04962045
82	0x3cd72e98	0.026267335
83	0x3d1bbdd4	0.03802283
84	0x3b5877f0	0.0033030473
85	0x3c8f3440	0.01748097
86	0xbc247c9c	-0.010039475
87	0xbd31d2ef	-0.043414053
88	0x3d61f694	0.055166796
89	0x3bde45b0	0.0067832097
90	0x3d469ade	0.048487537
91	0x3cda8c30	0.026678175
92	0x3d0d84a0	0.03455031
93	0x3ca89534	0.020578958
94	0xbd34e2a3	-0.04416145
95	0x3d3053d4	0.043048695
96	0xbd087bc0	-0.033321142
97	0x3d1c5640	0.038168192
98	0x3a070ac0	0.0005151443
99	0x3d41c986	0.04731133
100	0x3d6a895a	0.057259895
101	0xbd2c484c	-0.042061135
102	0x3d4e36e8	0.05034533
103	0xbcda4ff0	-0.026649445
104	0xb897b200	-7.233396e-05
105	0xbb3d20f0	-0.0028858744
106	0xbd0dd8da	-0.034630634
107	0x3ce43f28	0.027862146
108	0x3d38db30	0.04513091
109	0xbd4a9776	-0.04946085
110	0xbd252542	-0.040318735
111	0x3d2da024	0.04238905
112	0x3c9f8828	0.019474104
113	0xbd24bf34	-0.040221408
114	0x3c81d8b0	0.015850395
115	0x3cb21dc4	0.021742709
116	0x3c7cfb48	0.0154407695
117	0x3d5f0cbe	0.05445551
118	0x3cf0cb70	0.029393882
119	0x3d5fdfe6	0.054656886
120	0xbce93b71	-0.028470727
121	0xbca173de	-0.01970857
122	0x3c275528	0.010213174
123	0xbcc7de62	-0.024398033
124	0x3a151880	0.000568755
125	0x3bedcd60	0.0072571486
126	0x3d6665b6	0.056249343
127	0xbd2edeb7	-0.042692866
128	0xbc42fbd4	-0.011900861
129	0xbcd447fc	-0.025913231
130	0xbcc0a46c	-0.023515902
131	0x3c786698	0.015161179
132	0xbbdc4a50	-0.006722726
133	0x3d4c6e0c	0.049909636
134	0x3d123ac6	0.035700582
135	0x3ac0d0a0	0.0014710613
136	0xbd41d93c	-0.04732631
137	0x3cc13534	0.02358494
138	0x3cf3eb50	0.029775292
139	0x3c9ed4f4	0.019388653
140	0xbd09d678	-0.0336518
141	0xbd5bcaff	-0.05366039
142	0xbd3edebe	-0.046599142
143	0x3d570940	0.052499056
144	0xbd513a5d	-0.05108105
145	0xbd5e0923	-0.054207932
146	0x3cca59ac	0.024700962
147	0xbd510308	-0.05102828
148	0xbcab0122	-0.020874564
149	0x3c4f04a0	0.01263538
150	0xbd1630cc	-0.03666763
151	0xbb88fa48	-0.0041802265
152	0xbd31ec70	-0.043438375
153	0xbd227be0	-0.039668918
154	0xb8d58800	-0.000101819634
155	0xbd3ba20a	-0.04580883
156	0x3ca7f0c4	0.020500548
157	0xbc8163d0	-0.015794665
158	0x3b3b28b0	0.0028558187
159	0x3cb51b18	0.022107646
160	0x3c732160	0.0148395
161	0xbd142d18	-0.036175817
162	0x3d1ea82e	0.038734607
163	0xbd5f7114	-0.0545512
164	0xbd5d830e	-0.05408006
165	0x3b1e7920	0.0024181083
166	0x3c416ef0	0.011806235
167	0xbd6bf770	-0.05760902
168	0xbd56e186	-0.05246117
169	0xbd24fb00	-0.040278435
170	0x3c1c8c90	0.009554997
171	0x3c1744a8	0.0092326775
172	0x3cdf20a8	0.027237251
173	0x3d0d1700	0.034445763
174	0xbce45c7b	-0.02787613
175	0xbc312230	-0.010811374
176	0xbd580e06	-0.05274775
177	0xbd637504	-0.055531517
178	0x3d4b5494	0.049641207
179	0xbccfa158	-0.02534549
180	0x3d1a23a8	0.03763166
181	0xbd342e53	-0.04398949
182	0x3bb707b0	0.005585633
183	0xbd4eebb5	-0.050517756
184	0xbcbfd10a	-0.023415107
185	0xbab89740	-0.0014083162
186	0x3d35ed72	0.0444159
187	0xbb0086c0	-0.0019611567
188	0xbca18e78	-0.019721255
189	0x3a38d980	0.0007051453
190	0xbcde5956	-0.027142208
191	0x3c728ba0	0.014803797
192	0xbd61a7d0	-0.05509168
193	0x3ced9db4	0.029005863
194	0x3d6504c8	0.055912763
195	0x3ca5c0f0	0.020233601
196	0x3c8f14f8	0.017466053
197	0xbd6aded1	-0.0573414
198	0xb9ecab80	-0.00045141205
199	0x3c0e41c8	0.008682676
200	0x3cce0eb8	0.025153503
201	0xbcb48e3e	-0.022040483
202	0xbb77bad0	-0.0037800558
203	0x3d19d6a0	0.037558198
204	0xbd48d735	-0.049033362
205	0x3c88ec44	0.016714223
206	0xbc87df52	-0.01658598
207	0xbb7a4310	-0.0038186945
208	0xbc3af270	-0.011410341
209	0x3c2ba8f0	0.01047729
210	0xbc932d16	-0.017965835
211	0x3cdb8428	0.026796415
212	0x3ccef140	0.025261521
213	0xbcc7e15e	-0.024399456
214	0x3cbc6b80	0.023000479
215	0xbcdd7752	-0.027034435
216	0xbd27fcc9	-0.04101256
217	0x3bd51180	0.0065023303
218	0xbcc60902	-0.024174217
219	0x3d314b72	0.04328484
220	0xbd04cae9	-0.032420073
221	0x3d39d5c2	0.04536987
222	0x3b8c3a30	0.0042793974
223	0xbd457450	-0.048206627
224	0xbc596350	-0.013268307
225	0xbd11400a	-0.035461463
226	0xbc83f248	-0.01610674
227	0x3bb4f2a0	0.005522087
228	0x3c56f828	0.0131206885
229	0xbc9d0b8e	-0.019170549
230	0xbbb11df8	-0.005405184
231	0xbb933788	-0.004492704
232	0x3d6c3a74	0.057672933
233	0xbce95857	-0.028484507
234	0x3d487d16	0.048947416
235	0x3d283dca	0.04107455
236	0xbb2da000	-0.0026493073
237	0xbc0c2004	-0.008552555
238	0xbd29b544	-0.041432634
239	0xbb568ef0	-0.0032739006
240	0xbc8b02a0	-0.016969025
241	0x3c0e8e30	0.008700892
242	0xba621900	-0.0008624941
243	0x3c828094	0.015930451
244	0x3ccb99f0	0.024853677
245	0xbd6084ee	-0.05481427
246	0x3c1df7d8	0.00964161
247	0x3d3b6576	0.045751058
248	0x3cd54978	0.02603601
249	0xbcdc5314	-0.026895083
250	0xbc3ff7a0	-0.011716753
251	0xbb827288	-0.0039809383
252	0xbd54ac25	-0.051921982
253	0xbd3bf461	-0.045887355
254	0xbc9bf7de	-0.01903909
255	0xbd5d24ac	-0.05399005

fc2.bias f4 [300]
0	0xbcb0ec27	-0.021596981
1	0xbc9bee6d	-0.019034589
2	0xbcfb1f40	-0.03065455
3	0x3c074d80	0.0082582235
4	0x3cc8725a	0.02446859
5	0xbced551d	-0.02897125
6	0xbd125192	-0.035722323
7	0x3bcbf8d8	0.006224733
8	0x3d13ea2d	0.036112
9	0x3b0d5e00	0.002157092
10	0xbc889f6a	-0.016677577
11	0x3cb5687a	0.022144545
12	0x3d0af51f	0.033925172
13	0x3d20e469	0.03928033
14	0x3bc2c7a8	0.005944211
15	0x3ce18a52	0.027531777
16	0x3cedbea2	0.029021565
17	0xbd3e05ff	-0.046392437
18	0xbcc36dca	-0.023856062
19	0x3bfb19d0	0.007662989
20	0xbcd4a120	-0.025955737
21	0x3c382814	0.011240024
22	0x3d0caa31	0.034341995
23	0x3bc9a4b0	0.0061536655
24	0x3c7cea74	0.015436757
25	0xbb75a360	-0.0037481412
26	0xbd1ab965	-0.037774462
27	0x3d2557c1	0.04036689
28	0x3d2ec28f	0.042666014
29	0xbcd0aa4a	-0.025471825
30	0xbc132aa8	-0.008982338
31	0xbb0302e0	-0.0019990727
32	0xbd12968e	-0.03578811
33	0xbcf32cd0	-0.029684454
34	0xbc916330	-0.017747492
35	0xbc3d1c74	-0.011542428
36	0xbca83327	-0.020532204
37	0x3d248ceb	0.040173452
38	0x3d4306e1	0.047613982
39	0x3c27a2ac	0.010231655
40	0xbbfbe080	-0.0076866746
41	0x3c5967e4	0.013269398
42	0x3d104bcf	0.035228547
43	0xbcbb1483	-0.02283693
44	0xbd456a65	-0.04819717
45	0x3d2f2c75	0.042767007
46	0xbb6e2b30	-0.003634166
47	0xbd165c6a	-0.036709227
48	0xbce06813	-0.027393376
49	0x3b5c1750	0.0033583231
50	0xbc819c3a	-0.015821565
51	0x3cf583f6	0.02997015
52	0x3d4b918f	0.049699362
53	0xbbdfb8f0	-0.006827466
54	0x3c49e934	0.012323666
55	0x3ccae7e2	0.024768773
56	0xbcf3305d	-0.029686147
57	0x3cd5e9c2	0.026112441
58	0x3c408aa0	0.011751801
59	0xbcfc6a20	-0.030812323
60	0x3ca75906	0.020428192
61	0x3ce070a6	0.027397465
62	0xbd1849e5	-0.037179846
63	0x3cb5f97a	0.022213686
64	0xbcfa23cd	-0.03053465
65	0x3cf8468a	0.030307073
66	0xbd26237e	-0.04056119
67	0xbd1024cd	-0.035191346
68	0x3d1d7773	0.038443994
69	0x3d0b17bf	0.033958193
70	0xbccf9aa0	-0.025342286
71	0xbbaee590	-0.0053374246
72	0x3d24443f	0.040104147
73	0xbc247f48	-0.010040112
74	0xbba77470	-0.005110316
75	0xbc158ecc	-0.009128284
76	0x3c839852	0.016063843
77	0xbd3b24e3	-0.045689475
78	0x3a7a7d40	0.0009555407
79	0x3cf41032	0.029792879
80	0x3b787080	0.0037908852
81	0xbb262950	-0.0025354214
82	0x3adf85c0	0.001705341
83	0xbcf6e3fa	-0.030138005
84	0xbc967a64	-0.018368907
85	0x3cc6a2c2	0.02424753
86	0x3d19d647	0.037557866
87	0xbd2704f0	-0.040776193
88	0x3ce40eae	0.027839031
89	0x3c0817b8	0.008306436
90	0x3d0d54c5	0.03450467
91	0xbc4506c8	-0.012025543
92	0xb88e6000	-6.788969e-05
93	0x3d302635	0.043005187
94	0xbd420097	-0.047363844
95	0xbd3e227b	-0.046419602
96	0x3cf1d832	0.029522035
97	0x3cc5a976	0.024128657
98	0x3d3e16f7	0.04640862
99	0x3c8a214a	0.016861577
100	0x3c93327a	0.017968405
101	0xbc3fa968	-0.011698104
102	0x3c00f874	0.007871736
103	0x3d496759	0.049170826
104	0x3ca62efe	0.02028608
105	0xbd31a13d	-0.04336666
106	0xbcf33fdd	-0.029693538
107	0x3d20499d	0.039132703
108	0x3cde193a	0.027111638
109	0x3d23b825	0.039970536
110	0xbccbc67a	-0.024874914
111	0xbcfac85a	-0.030613113
112	0x3cb60cca	0.022222895
113	0x3d28aae9	0.041178618
114	0xbadee940	-0.001700677
115	0x3ca3d232	0.01999769
116	0xbcc2a1a7	-0.023758722
117	0x3d3c9829	0.04604355
118	0x3d1da039	0.03848288
119	0x3cb34516	0.021883529
120	0xbd118520	-0.03552735
121	0x3c6f6e14	0.014613647
122	0xbcab90f7	-0.020943148
123	0x3d31d905	0.043419857
124	0xbc27b478	-0.010235898
125	0x3d191147	0.037369993
126	0xbd3d3242	-0.046190508
127	0xbd4af36f	-0.049548563
128	0x3b82f3a8	0.0039963312
129	0xbcc024d3	-0.02345506
130	0x3cc72c62	0.024313156
131	0x3ca6fd16	0.020384353
132	0xbd315fc5	-0.043304224
133	0xbd3d92df	-0.046282645
134	0x3d13ba3b	0.036066275
135	0xbbd677a8	-0.006545026
136	0xbc5d6638	-0.01351314
137	0x3ca6c292	0.02035645
138	0x3d0fc2c5	0.035097856
139	0x3ce87116	0.028374236
140	0x3c8fa932	0.017536733
141	0xbb03e480	-0.002012521
142	0x3d10eac1	0.03538013
143	0x3d42729b	0.047472578
144	0x3c092bec	0.008372288
145	0xbd4ca5fb	-0.04996298
146	0x3c4cc44c	0.012497973
147	0xbd310c1f	-0.04322445
148	0xbc9f53b7	-0.019449098
149	0xbc9be6ea	-0.019031007
150	0x3d4828ed	0.048867155
151	0xbc706314	-0.01467206
152	0x3d0cd47d	0.034382332
153	0xbcbb52f0	-0.022866696
154	0xbbf6c3d0	-0.007530667
155	0xbd0314f5	-0.032002408
156	0xbd33f418	-0.043933958
157	0xbd2c2e80	-0.042036533
158	0x3b47cad0	0.0030485876
159	0x3d1c544d	0.038166333
160	0x3c3c8cd4	0.011508185
161	0x3c64a904	0.013956312
162	0xbca153c3	-0.019693261
163	0xbcf07a83	-0.029355293
164	0x3d1940eb	0.037415426
165	0xbd47b028	-0.04875198
166	0xbca1c0b7	-0.019745214
167	0x3cf8b536	0.030359846
168	0x3c96ff4e	0.018432286
169	0x3ccb7892	0.024837766
170	0x3cf30a9a	0.029668141
171	0x3ca5521a	0.02018075
172	0x3d14add3	0.036298584
173	0x3c8c7966	0.017147731
174	0x3d0baec1	0.034102205
175	0x3d4024bb	0.04691003
176	0x3b8ee8c0	0.004361242
177	0xbb7a74d0	-0.0038216598
178	0xbcc63f50	-0.024200112
179	0x3c7c3b84	0.015395049
180	0xbcd30d3d	-0.025763148
181	0x3d1cbf29	0.038268242
182	0xbd2dae92	-0.04240281
183	0x3d283e11	0.041074816
184	0xbbdab768	-0.0066746958
185	0xbb035dd0	-0.002004493
186	0xb8e15c00	-0.000107459724
187	0x3ce4a272	0.027909491
188	0x3d237887	0.039909866
189	0xbd14280a	-0.036170997
190	0x3cc76982	0.024342302
191	0x3c29fbb8	0.010374956
192	0xbaa4a8c0	-0.0012562498
193	0x3d18a2f9	0.037264798
194	0x3d03d065	0.032181162
195	0x3c8cbafa	0.017179001
196	0x3d407c8f	0.04699379
197	0xbd45f1a5	-0.048326153
198	0xbcf47ec0	-0.029845595
199	0xbc561934	-0.013067532
200	0xbcea106d	-0.028572286
201	0xbd117ac3	-0.035517465
202	0xbce5b4a3	-0.028040236
203	0xbb999d90	-0.0046879724
204	0x3c8a355a	0.016871143
205	0x3aa162c0	0.0012312755
206	0x3ce59682	0.02802587
207	0xbd126775	-0.035743196
208	0x3d39c313	0.045352053
209	0xbcf1f533	-0.029535865
210	0x3cdfaa5a	0.02730291
211	0xbd1b2e12	-0.037885733
212	0xbb7d1000	-0.0038614273
213	0xbc5b6a4c	-0.013392042
214	0xbc448194	-0.011993784
215	0x3cfbc9be	0.030735847
216	0x3cee84fe	0.02911615
217	0xbcf96443	-0.030443316
218	0xbc3236b4	-0.0108773
219	0xbbad54d0	-0.0052896515
220	0xbd088646	-0.033331178
221	0x3cb9dc52	0.022688065
222	0x3c36d7c0	0.011159837
223	0x39cf0580	0.00039486215
224	0xbcef44fd	-0.0292077
225	0xbcb85313	-0.02250055
226	0x3b1a71b0	0.0023566298
227	0xbd0e367b	-0.034719925
228	0x3d096223	0.033540856
229	0xbcb16c03	-0.02165795
230	0x3ccbe1fa	0.024888027
231	0x3d49d9d1	0.04927999
232	0xbc2167e8	-0.009851433
233	0xbc72e5b8	-0.014825277
234	0xbb9c5318	-0.0047706477
235	0x3cc68126	0.024231505
236	0xbc34e738	-0.011041455
237	0xbbf236c0	-0.0073917806
238	0xbd409760	-0.047019362
239	0x3d2c0969	0.04200116
240	0x3a247d40	0.0006274767
241	0xbc9bd7e0	-0.019023836
242	0xbcbba66a	-0.0229065
243	0xbcbffa9a	-0.023434926
244	0xbcd3b5b0	-0.025843471
245	0xbcec81e0	-0.028870523
246	0xbca03470	-0.019556254
247	0xbca43be0	-0.020048082
248	0xbced8490	-0.028993875
249	0x3d257301	0.04039288
250	0x3d42257d	0.047399033
251	0x3cd89d52	0.026442204
252	0xbc8578e6	-0.016293
253	0x3c8cb422	0.017175738
254	0xbd31d037	-0.04341146
255	0xbc2a9c88	-0.0104132965

fc3.weight f4 [3, 300]
0	0x3a526ad4	0.0008026783
1	0xb9ccf3c0	-0.0003909152
2	0x3a239440	0.00062400475
3	0x3b428298	0.002967989
4	0x3a9dc520	0.0012036897
5	0xbb07a900	-0.0020700097
6	0x3ab4e61c	0.0013801488
7	0xba1a909c	-0.0005896182
8	0x3a5b7010	0.00083708856
9	0xba832a04	-0.0010007028
10	0x3ad24b80	0.0016044229
11	0xb8e52320	-0.000109261135
12	0xbb2092b4	-0.0024501504
13	0x3a0f02cc	0.0005455434
14	0xbb03e723	-0.0020126782
15	0xbb023684	-0.001986892
16	0x3abe2d54	0.0014509358
17	0x3ae64fa0	0.0017571338
18	0x3ae3c50c	0.001737745
19	0xbada5c99	-0.0016659676
20	0x3aeab4dc	0.0017906683
21	0x3ace9470	0.001576079
22	0xbab3c654	-0.0013715723
23	0xbae35cfe	-0.0017346439
24	0x3b0b1ecc	0.0021228073
25	0xbb0b63a2	-0.0021269103
26	0x3ae46b44	0.0017426987
27	0xba20274c	-0.00061093713
28	0xbb1252d6	-0.0022327206
29	0xbb2015ec	-0.002442713
30	0x3aaa4a74	0.001299216
31	0x3a98e5c0	0.001166515
32	0x39be68a0	0.00036317576
33	0xbb0aa6d0	-0.0021156557
34	0xba33c4dc	-0.00068576424
35	0xb989a2f0	-0.00026252074
36	0xba9a93d0	-0.0011793319
37	0xba9edf7e	-0.0012121049
38	0xbb3e63cd	-0.0029051185
39	0xbb20f1db	-0.002455822
40	0xba2cced0	-0.0006592097
41	0x3a7399f8	0.00092926575
42	0x3b3d3848	0.0028872658
43	0x39fa0440	0.00047686882
44	0x3b320468	0.002716327
45	0x3b0e6ae6	0.0021731197
46	0xbb161889	-0.0022902808
47	0x3af92ccc	0.0019010543
48	0xbb1c9e03	-0.0023897893
49	0x38466940	4.73049e-05
50	0x3a5003a8	0.0007935115
51	0x3b06258e	0.0020469162
52	0xbaa5f24e	-0.0012660713
53	0xba697cd0	-0.0008906843
54	0xbb3ba99b	-0.0028635028
55	0xb8b92120	-8.8276574e-05
56	0xbb117762	-0.0022196402
57	0x3ad9fa04	0.0016630297
58	0xba742478	-0.00093132956
59	0x3b421ea2	0.002962031
60	0x3b2380d0	0.0024948604
61	0xbab620a5	-0.0013895227
62	0x3adbbc10	0.0016764421
63	0x3a444630	0.00074872654
64	0x3ac8df24	0.001532529
65	0xbb3c4596	-0.0028728
66	0x3b1d72fa	0.002402483
67	0xbb440e78	-0.002991585
68	0xb90c49d0	-0.00013378938
69	0xbb2264d8	-0.0024779346
70	0xbb2ac6a4	-0.002605834
71	0x3add0930	0.00168637
72	0xbae72aa0	-0.0017636605
73	0x3a301edc	0.00067184656
74	0x393c1cb0	0.00017939764
75	0xbaca7b80	-0.0015448183
76	0x392abb30	0.00016282196
77	0xba95a3b2	-0.0011416583
78	0x3ad7b160	0.001645606
79	0xbad153f5	-0.0015970456
80	0xbb3ab3ff	-0.0028488634
81	0xb8fa4c60	-0.00011935155
82	0xba93cfcb	-0.0011277137
83	0xba77b9a0	-0.00094499625
84	0xbb1857dd	-0.002324573
85	0x38b57920	8.653314e-05
86	0x3b241540	0.002503708
87	0x3a004ebc	0.0004894545
88	0xbadec257	-0.0016995174
89	0xbac90caf	-0.0015338863
90	0x3a348fb8	0.0006887871
91	0x393c4a90	0.00017956854
92	0xbaa0a0c0	-0.0012254938
93	0x3a7f2d68	0.0009734244
94	0x3b3bd980	0.0028663576
95	0x3a9e16e8	0.001206127
96	0x3b188a46	0.0023275777
97	0xbb447a8a	-0.0029980266
98	0xb7771600	-1.47274695e-05
99	0xbb24f210	-0.0025168695
100	0xbab35312	-0.0013681373
101	0xba10cc80	-0.0005523637
102	0x39907708	0.00027554506
103	0xbb02ab10	-0.0019938387
104	0x3b34c63c	0.0027583977
105	0x3a348844	0.000688676
106	0xbb0c91b2	-0.0021449146
107	0xba8573ae	-0.001018157
108	0x3a636afc	0.00086753047
109	0x3abf69b0	0.0014603641
110	0x3a6424ac	0.00087029743
111	0x3abd2588	0.0014430741
112	0x3b1b24a0	0.0023672953
113	0xba3ae66c	-0.00071296724
114	0xbaf4d3b6	-0.0018678817
115	0xba7c65dc	-0.00096282153
116	0x3ab8a108	0.0014086077
117	0x3a825a78	0.0009945175
118	0x3b19448e	0.002338681
119	0x3ab8fec0	0.0014114007
120	0xb8056640	-3.18049e-05
121	0x3ae64e50	0.0017570946
122	0xbad33bea	-0.0016115878
123	0xbaa658d2	-0.0012691265
124	0xb8aa33e0	-8.115894e-05
125	0xbb3474de	-0.0027535479
126	0xbab9d359	-0.0014177366
127	0x3ab35a24	0.001368348
128	0x3af564e4	0.0018722084
129	0xbb28167d	-0.002564817
130	0x3b240d96	0.0025032512
131	0x3a9d2720	0.001198981
132	0xba9b358c	-0.001184152
133	0x3b264b02	0.0025374298
134	0xbac387d1	-0.0014917796
135	0x3978eed0	0.00023740088
136	0x3ab99d1c	0.0014161202
137	0xbb1f4a07	-0.0024305598
138	0x3ac06048	0.0014677132
139	0xbb34f997	-0.0027614587
140	0x3ae9b9ec	0.0017831898
141	0xbb2fb41f	-0.0026810241
142	0x3a7041e0	0.00091650896
143	0x3a777dd8	0.00094410544
144	0xba844ba2	-0.0010093341
145	0x3b06462a	0.0020488598
146	0xb96bee50	-0.00022500125
147	0x3b19a5da	0.0023444803
148	0x3ae07088	0.0017123381
149	0x3adc8cc0	0.0016826615
150	0x3a8f88cc	0.0010950803
151	0xb8d8bc60	-0.0001033477
152	0x3b1a4b56	0.002354344
153	0xbb0b9918	-0.0021300968
154	0x3b0511dc	0.0020304834
155	0xbaffa862	-0.0019505138
156	0x3b2c6aae	0.0026308703
157	0x3b3af534	0.00285275
158	0xbb40b609	-0.0029405376
159	0xba415d38	-0.00073762564
160	0x38f19080	0.00011518691
161	0xba205898	-0.0006116717
162	0x3b336298	0.0027372
163	0x3a2f7180	0.0006692633
164	0x39a278a0	0.0003098892
165	0xbaca05ea	-0.001541314
166	0xbae856a9	-0.0017726022
167	0x3986b848	0.00025695772
168	0x3939b9d0	0.00017712195
169	0x3b0a38d6	0.0021091006
170	0xbaa14b14	-0.00123057
171	0x3b0ab536	0.002116514
172	0x39e57958	0.00043768692
173	0xb8c16800	-9.222329e-05
174	0x3b08fd7e	0.0020903046
175	0xbaf511d6	-0.0018697332
176	0x3a7a4c70	0.0009548133
177	0x3ab6b4b4	0.0013939352
178	0xbb1d72e8	-0.0024024788
179	0x3afe5870	0.0019405019
180	0xbb1984ac	-0.0023425026
181	0x3b4497f8	0.0029997807
182	0x39e9ef68	0.00044619595
183	0x3b20ebc2	0.0024554585
184	0xba9de4f8	-0.0012046387
185	0x3b27eb68	0.002562249
186	0x3afa78e4	0.0019109515
187	0x3aa954e8	0.0012918981
188	0x38fec1a0	0.00012147729
189	0xba55a198	-0.00081493845
190	0x3a3f9290	0.00073079113
191	0x3b21c8d6	0.0024686358
192	0xbb283045	-0.0025663537
193	0x3b3a1d8e	0.0028398964
194	0x3b2e21be	0.0026570405
195	0xbab5e681	-0.00138779
196	0x3b2a1184	0.0025950382
197	0x3a4ce204	0.00078156614
198	0xba7236b8	-0.0009239721
199	0xbb0d0c12	-0.0021522087
200	0x3af97780	0.0019032806
201	0xbac9134c	-0.0015340834
202	0x3a08ec94	0.0005223241
203	0xba6908f8	-0.0008889581
204	0x3a7ff720	0.00097643025
205	0xbb28552c	-0.0025685532
206	0xbb18e8df	-0.0023332161
207	0x3b168e6a	0.002297307
208	0x3b1eb32c	0.0024215681
209	0x3ab720e0	0.001397159
210	0x3ad8ef84	0.0016550873
211	0xb9838630	-0.00025086245
212	0xbb07104c	-0.002060908
213	0x3b230718	0.0024876054
214	0x3b2afb44	0.0026089707
215	0x3abd1a90	0.0014427472
216	0xbac49ad2	-0.0014999753
217	0x3a8a19e0	0.0010536276
218	0xbaebe600	-0.0017997622
219	0x3b2ca12e	0.0026341188
220	0x3a00d598	0.00049146404
221	0xb9037d70	-0.00012539863
222	0xb9ef1588	-0.00045601674
223	0xbae1ae06	-0.0017218001
224	0x3ae240e8	0.0017261775
225	0xbb1b5ba9	-0.0023705757
226	0xbab2d43e	-0.0013643575
227	0x3a2ae5b8	0.0006519216
228	0xbad9164b	-0.001656243
229	0xbaad8825	-0.0013239427
230	0xbb1fb8f5	-0.0024371718
231	0xbb32e224	-0.0027295435
232	0xba8eed2d	-0.0010904424
233	0xb9961770	-0.00028627692
234	0x39af5220	0.0003343979
235	0xbb094c96	-0.002095019
236	0x3ac34658	0.0014898283
237	0x3a3efd8c	0.0007285706
238	0x39df2be8	0.00042566587
239	0x3b0def1e	0.0021657418
240	0xbad24ed1	-0.0016045218
241	0xbb30e701	-0.0026993158
242	0xbb23d271	-0.002499726
243	0x3a9f0c80	0.0012134463
244	0x3b363afc	0.0027806154
245	0x3a33b7d0	0.00068556983
246	0x3b11a27a	0.0022222088
247	0xb97db590	-0.00024195598
248	0x38bd0460	9.013037e-05
249	0xbad5a1d2	-0.0016298837
250	0x3a6a8a74	0.0008947023
251	0xbb39010b	-0.0028229381
252	0x3a3e61c8	0.00072624953
253	0xbb2e6cdf	-0.0026615185
254	0x3aa3cdfc	0.0012497301
255	0x3ac49cec	0.001500038

fc3.bias f4 [3]
0	0xbd4b8982	-0.049691685
1	0xbd02e972	-0.031960912
2	0x3d45f1d6	0.048326336
