output/gym_finger/Finger-v0-run1/critic.pkl (torch_old, 5221 bytes, 5 tensors)

fc1.weight f4 [32, 13]
000000 17 2d 02 3e 30 d9 71 bc 21 49 2a 3e 61 49 03 3e
       0.12712513 -0.014761254 0.16629459 0.1282096
000010 9e 3b c8 3d 70 21 2e be c8 bb cf bc 80 7c e2 bc
       0.09776996 -0.17004943 -0.025358096 -0.027647257
000020 f2 6b a3 3d ee b2 76 bd f4 b6 2a 3d b2 bd da 3d
       0.07979573 -0.060229234 0.041678384 0.10680713
000030 b0 6a 29 3d c2 f2 31 be 4a 19 2c be a3 f4 30 3e
       0.04136151 -0.17377761 -0.16806522 0.17280822
000040 c8 7c 2d 3d 0a ac df 3d e7 18 03 3e 04 e4 8b 3d
       0.04235533 0.10921486 0.12802468 0.068306
000050 60 dd a8 bc 99 c9 b2 bd 66 d8 5a bd 40 27 dd 3c
       -0.020613372 -0.08729858 -0.05342903 0.026996255
000060 a7 0f af bd e6 15 a9 3d 85 74 01 be eb 17 23 3e
       -0.08547907 0.0825613 -0.12642105 0.15927093
000070 c1 7f 10 3e 38 08 a7 bc a5 70 32 3e 1c 7d 03 bd
       0.14111234 -0.020389661 0.17425783 -0.032101735
000080 ef 9a 34 3e f8 18 1b be 74 9c 48 3d 7c 79 94 bd
       0.17637227 -0.15146244 0.04897733 -0.07249734
000090 39 21 0e be 40 2e 4f 3c 38 90 7e bd 7e d2 9e 3d
       -0.13879861 0.012645304 -0.062149256 0.07754992
0000a0 76 81 bb 3d e8 b1 28 bd 60 2b 93 3b fa 23 ee 3d
       0.09155552 -0.04118529 0.0044912547 0.11627956
0000b0 33 9b bb bd e5 7f 29 3e 82 8c 65 bd 7e 1b c0 3d
       -0.09160461 0.16552694 -0.0560422 0.09380244
0000c0 ed f1 90 bd 08 ea 47 bd 02 78 e0 3d d9 22 10 3e
       -0.07077394 -0.048807174 0.1096039 0.14075793
0000d0 70 8a 16 bc ea 88 da 3d 11 20 06 be a0 95 4f 3c
       -0.0091882795 0.106706455 -0.1309817 0.012669951
0000e0 de 4d cf bd c4 d6 35 bd 60 a2 2a bd 0f b4 2d 3e
       -0.10122274 -0.04439427 -0.04165876 0.16963218
0000f0 ae e2 06 be e0 80 c2 3c 80 07 6f 3c 60 3a 5b bc
       -0.13172409 0.023743093 0.0145891905 -0.013380617
000100 93 b1 28 3e f5 49 b7 bd 94 de 15 bd 6c 43 18 3d
       0.16473989 -0.08949653 -0.03658922 0.037173674
000110 e0 e2 66 3c 60 21 c1 3b 3c ad 15 bd 04 8d 20 3d
       0.014092177 0.005893871 -0.036542162 0.039196983
000120 00 77 94 3b 72 c6 2f be 54 33 76 3d 41 3a 17 3e
       0.0045307875 -0.17165545 0.060107544 0.14768316
000130 a2 67 fd 3d 40 0a f7 bc d2 e7 a1 3d f0 2d 28 3c
       0.12373282 -0.030156255 0.07905544 0.010264859
000140 38 ae bd 3c 03 c6 00 3e 6e 8b 14 be b4 43 50 bd
       0.023154363 0.12575535 -0.14506313 -0.050845817
000150 d8 c6 5f 3d d6 31 ec 3d 6a 68 1d be 26 7a 71 bd
       0.05463299 0.11532943 -0.15371862 -0.05895438
000160 00 9f e4 bc 30 a9 52 bc 7a cd 2e be f2 c3 b6 3d
       -0.027907848 -0.01285772 -0.1707057 0.08924092
000170 a8 83 4a 3d 6c f4 3c 3d 60 d8 ec bc 3c 81 b5 bd
       0.049441963 0.046131536 -0.02891177 -0.0886254
000180 dc aa 10 be 12 61 2e be 20 17 bd 3b 94 af 08 3d
       -0.14127678 -0.17029217 0.005770579 0.03337057
000190 88 48 09 3d 55 f2 08 be 30 cd 25 be ba fb bf 3d
       0.033516437 -0.13373692 -0.16191554 0.09374185
0001a0 88 6b 23 bd 33 21 1c be 80 b4 27 bd 40 90 ea bb
       -0.03989747 -0.1524704 -0.040943623 -0.007158309
0001b0 d4 20 0b be 5e 13 0d be 98 d8 23 be 17 1c 17 3e
       -0.13586742 -0.13776919 -0.16000593 0.14756809
0001c0 e6 29 63 bd 18 8d b4 bd 94 06 3a bd 5c f0 81 bd
       -0.05545988 -0.08815974 -0.04541643 -0.06344673
0001d0 e0 d4 3c bd 92 3d e9 3d 5f d6 0e 3e 08 94 1c be
       -0.04610145 0.11388697 0.13948964 -0.15290844
0001e0 58 f8 c3 3c b8 da e5 bd 70 08 11 bd b0 cd 6e bd
       0.02392213 -0.11223358 -0.035408437 -0.058301628
0001f0 19 8f cf bd 4d e3 01 3e d6 04 1e be 94 22 cb bd
       -0.101347156 0.12684365 -0.15431532 -0.09918705
000200 05 d0 22 3e 10 f4 de bc a4 02 15 be 8f 1d 01 3e
       0.15899666 -0.027215987 -0.14551789 0.12608932
000210 e7 6d 26 be 8f 5e b6 bd 50 2d df 3c 0e 4f 95 3d
       -0.16252862 -0.08904754 0.027243286 0.07290469
000220 80 74 4e 3d 1a 7c d0 3d ba ed 99 3d a5 ad 34 be
       0.05040407 0.101799205 0.07516046 -0.17644365
000230 13 60 c0 bd c0 e4 82 bb 3a 78 8f 3d 6c 11 72 bd
       -0.09393325 -0.0039945543 0.07005353 -0.059098646
000240 ed 46 24 3e a8 c0 ea bc 50 38 58 3d bf 06 11 3e
       0.16042681 -0.028656319 0.05278808 0.1416273
000250 68 60 f8 3c 40 c0 e4 bd 55 47 24 3e b0 61 2e bc
       0.030319408 -0.11169481 0.16042836 -0.010643408
000260 47 7b 9a bd 14 10 77 3d 96 6e 9d 3d f0 2b 40 3d
       -0.075430445 0.060318068 0.07687108 0.046916902
000270 26 9e 22 be 9d c4 03 3e a6 76 07 be 98 70 a1 3c
       -0.15880641 0.12867971 -0.13228855 0.01970701
000280 6b 53 bd bd d0 1a 19 3c a0 bc d3 3c 55 d1 23 be
       -0.09244426 0.0093447715 0.02584678 -0.15997823
000290 60 0a a8 bc 41 fa c9 bd fe 4e fb 3d 68 92 32 bd
       -0.02051276 -0.09862185 0.12270926 -0.043596655
0002a0 e3 45 21 be fb 62 1d 3e e0 b3 66 bc 18 ce 67 3d
       -0.15749316 0.1536979 -0.0140809715 0.05659303
0002b0 a6 40 aa bd 66 9e b8 3d 6b 39 29 3e 6e be ea bd
       -0.08313112 0.09014587 0.1652581 -0.11462103
0002c0 fe aa f8 3d 1e d2 87 3d 82 97 8d 3d 45 6b 10 3e
       0.12141989 0.066318735 0.069136634 0.1410342
0002d0 86 8b ba 3d 0c 64 00 be 3f 29 05 be c7 31 d2 bd
       0.09108643 -0.12538165 -0.13004015 -0.102634005
0002e0 bc 8a 15 3d 17 fc 18 3e a7 e8 24 3e 13 f2 0f 3e
       0.03650926 0.14939915 0.16104375 0.14057188
0002f0 ed 43 db bd 7b e7 19 3e ea 50 c6 3d a8 aa bc bc
       -0.10706315 0.15029709 0.09683402 -0.023030594
000300 80 99 12 bd e0 1a 7e bc 64 60 31 be 0e 8e f1 3d
       -0.03579092 -0.015509337 -0.17321926 0.11794673
000310 26 b3 94 3d e0 ca 62 3d 20 44 e6 3c fe c6 9c 3d
       0.07260732 0.055369258 0.028108656 0.07655142
000320 f6 4a 6f bd fe 13 b7 3d 94 1c 89 3d f0 6b f2 bc
       -0.058421098 0.0893936 0.06694904 -0.029592484
000330 79 47 16 3e a9 d8 06 be 06 d5 f3 bd cb 4a 22 3e
       0.14675702 -0.13168587 -0.11905865 0.15848844
000340 3a d8 c7 3d 0d 3c 03 be b0 44 07 be fe 0e dd 3d
       0.09758039 -0.12815876 -0.13209796 0.10793875
000350 90 4f 42 bd 36 88 66 bd 32 8e cd 3d cc d6 0c 3d
       -0.047439158 -0.056282245 0.10036887 0.034384534
000360 fd c0 b0 bd 9b 76 0a 3e 1d 98 14 be e3 2b 08 3e
       -0.086305596 0.13521807 -0.14511152 0.13297991
000370 00 89 19 bc 99 01 0c 3e 6c f6 4e 3d 58 fa c7 3c
       -0.009371042 0.13672484 0.050527975 0.024411365
000380 fc f2 1e be 48 ee 8e 3d 7e e0 d4 3d 64 ba 23 be
       -0.15522379 0.06979042 0.10394381 -0.15989071
000390 a8 ae 49 3d ee 67 a5 bd bd fb 28 3e 48 c7 22 3d
       0.04923883 -0.08076464 0.1650228 0.03974083
0003a0 94 a3 95 3d 38 bf d9 bc 8e 7a 9b bd 40 e0 17 3d
       0.07306591 -0.026580438 -0.07591735 0.037079096
0003b0 66 f6 c6 3d 80 22 ee bb 60 92 ef bc 74 87 25 3d
       0.097149655 -0.0072672963 -0.029244602 0.04041238
0003c0 a4 c3 31 be b8 3e 63 3d 22 5a af 3d fc 1a 19 be
       -0.17359787 0.055479735 0.08562113 -0.149517
0003d0 c0 b7 ed bb 52 e2 d4 3d f1 57 1c 3e bf f8 30 be
       -0.0072545707 0.1039473 0.15267922 -0.17282389
0003e0 53 d9 f4 bd d0 d4 05 3c 18 70 50 bd e4 a2 18 3d
       -0.11955514 0.008168414 -0.05088815 0.03726472
0003f0 24 ec 77 3d 75 55 2c 3e 16 7c ec 3d f9 ed 22 3e
       0.060527936 0.16829474 0.11547105 0.15911092

fc1.bias f4 [32]
000000 f0 9e c6 3c 50 9f 27 be c2 72 1f be 16 a2 43 3e
       0.02424571 -0.16369367 -0.1557112 0.191048
000010 d0 7c 18 3e ba 93 47 be e8 8e d8 3d f6 00 72 3e
       0.14891362 -0.19489947 0.10574132 0.23633179
000020 3e f4 05 be 60 48 82 bc f7 ea 79 be 14 8d 0f 3e
       -0.13081452 -0.015903652 -0.24406038 0.14018661
000030 84 81 39 be ca 07 54 be 7f 0c 29 be d0 be 1c 3e
       -0.18115813 -0.20706096 -0.16508673 0.15307164
000040 00 49 2e 3e c2 f1 10 be 98 45 ed 3d d4 9d 8c be
       0.17020035 -0.14154723 0.115855396 -0.27464163
000050 e0 01 01 bd 7d f7 8b be 6a 99 81 be 08 92 ad bd
       -0.03149593 -0.27337256 -0.25312358 -0.08475119
000060 43 0e 47 be f9 a2 81 3e 56 7d 6a be 32 26 dd bd
       -0.19439034 0.2531965 -0.22899374 -0.10798301
000070 ff 85 0e be c4 25 e2 bd 0a 66 56 3e a4 40 2e bd
       -0.13918303 -0.110423595 0.20937362 -0.042542115

fc2.weight f4 [16, 35]
000000 ee 95 13 be 00 33 8d 3b 30 56 b3 3d 70 87 31 be
       -0.14412662 0.004309058 0.08756673 -0.17336822
000010 2e c4 2a 3e 3c c6 5d be 58 36 40 3e 78 46 5f 3e
       0.16676399 -0.21657652 0.1877073 0.21804225
000020 ca 61 42 be b8 bd 69 3d 54 a1 24 3e 2a 39 23 be
       -0.18982616 0.057065696 0.16077167 -0.15939775
000030 54 73 44 3e c2 58 34 be 60 8d 68 bd e8 86 11 bd
       0.19184619 -0.17611983 -0.05677545 -0.035529047
000040 d0 58 86 3d 78 15 65 3d 72 99 75 3e 0a 7a 23 3e
       0.065599084 0.055928677 0.23984316 0.15964523
000050 d0 a7 c7 3d b8 35 3a 3e 1c 3d d4 bd 02 5c 6c be
       0.097488046 0.18184555 -0.10363218 -0.23081973
000060 80 45 84 bc 60 47 25 be 16 fc 6b be 54 80 65 be
       -0.016146421 -0.16140509 -0.23045382 -0.22412235
000070 26 d3 6e be 26 01 02 3e 9a 7a 21 be 58 46 60 3e
       -0.23322734 0.1269575 -0.15769425 0.21901834
000080 28 2f ce bd 10 33 01 be 48 50 ca 3d 7c ca 8c 3d
       -0.10067588 -0.12617135 0.09878594 0.06874558
000090 6c 86 b8 3d e0 27 cc 3d c4 56 28 be da 08 36 be
       0.09010014 0.09968543 -0.16439348 -0.17776814
0000a0 10 98 ca 3d de 09 66 3e c4 26 9d bd c6 6a 3b 3e
       0.09892285 0.22464702 -0.076734096 0.1830245
0000b0 38 e4 78 3d 80 16 a3 bb 48 ad 69 bd 0c af b5 3d
       0.06076452 -0.0049770474 -0.05705002 0.08871278
0000c0 8c 21 f1 3d 5c ff c1 bd c8 dd 58 3e 78 98 02 3d
       0.11773977 -0.09472534 0.21178353 0.031883687
0000d0 b4 5f 7d be 00 bb 85 3c 54 e1 e6 bd 74 06 e0 bd
       -0.24743539 0.01632452 -0.11273447 -0.10938731
0000e0 8c e2 45 3e 14 7d 7f 3e ce 29 5b 3e cc 28 a4 bd
       0.19324702 0.24950057 0.21402666 -0.08015594
0000f0 00 ce 46 3b 18 23 58 3e 00 78 13 3b 00 23 66 3d
       0.0030335188 0.21107137 0.0022501945 0.056185722
000100 5a 23 0c 3e 10 65 ac bc 68 1b bd 3d da 34 1c be
       0.1368536 -0.021044284 0.09233743 -0.15254536
000110 08 8e 94 bd c0 3a ae 3c c0 37 45 3c 7a cb 49 3e
       -0.07253653 0.021268249 0.012037218 0.19706526
000120 70 72 5f 3d 9a 97 54 be 36 0c 30 3e 4c a2 34 be
       0.054552495 -0.20760956 0.17192158 -0.17640036
000130 14 aa be 3d 22 b6 39 be 8c 00 44 3e f8 b1 2e be
       0.093097836 -0.18135884 0.19140834 -0.17060077
000140 b8 a4 1a 3e 42 cc 53 3e 50 5b 4c bd 14 00 ad 3d
       0.15101898 0.20683387 -0.04989177 0.084472805
000150 d4 38 0b be 58 50 6c 3d c0 41 06 3c a6 61 34 3e
       -0.13595897 0.05769381 0.008194387 0.17615375
000160 32 5f 3f be 78 05 60 3e 9a fa 7f be 36 c6 1d be
       -0.18688658 0.21877086 -0.2499794 -0.15407643
000170 d4 9e 83 3d e2 a1 7d 3e b8 34 3e 3e 06 a1 0a be
       0.064267784 0.24768785 0.18574798 -0.13537988
000180 00 e4 55 3a b0 68 27 bd 74 6c bf bd 3c 73 3f be
       0.000815928 -0.040871322 -0.09346858 -0.18696302
000190 10 af 6c 3e b8 61 76 3e d4 68 e5 3d 3a 75 51 be
       0.23113656 0.24060714 0.11201635 -0.20454875
0001a0 70 6d 71 be c0 fc 74 3d d4 b3 f7 3d 8e 8c 07 be
       -0.23576903 0.059811354 0.12094846 -0.13237211
0001b0 58 f5 04 3e 4c 21 25 be 8c 64 3b be 90 32 f7 3c
       0.12984216 -0.16125983 -0.18300074 0.030175477
0001c0 e4 03 71 3e 00 23 90 bb 5c 82 86 3d 3a 23 0b be
       0.2353664 -0.0043987036 0.06567833 -0.13587657
0001d0 54 e8 01 3e 16 4f 78 3e 40 41 6b 3c 00 41 49 bd
       0.12686282 0.24248919 0.0143588185 -0.049134254
0001e0 cc cc b1 3d 70 68 39 be f4 00 1b 3e 66 fc 71 3e
       0.0868164 -0.18106246 0.15137082 0.23631439
0001f0 88 72 2d be 8a 25 41 be dc 67 ff 3d 68 76 86 bd
       -0.16938221 -0.18861976 0.124709815 -0.06565553
000200 40 a8 d5 3d cc e3 51 be 94 2d 27 3e 8a 2e 48 be
       0.10432482 -0.20497054 0.1632598 -0.19549003
000210 9a d9 26 be fe 7a 71 be 0a e7 79 be 8a 9a 11 be
       -0.16293946 -0.23582074 -0.2440454 -0.14219108
000220 00 07 f5 bd f8 58 88 3d a6 a8 18 3e da e8 4a 3e
       -0.11964226 0.066575944 0.14908084 0.19815388
000230 90 f7 0b be 22 e6 46 3e e2 7a 06 be ac 5f a3 3d
       -0.13668656 0.19423726 -0.13132814 0.07977232
000240 b0 5a e9 3c fc 38 96 bd 0c 0d f7 bd 52 8a 6a be
       0.028485626 -0.07335088 -0.12063035 -0.22904328
000250 c8 77 75 be 20 3f 83 bc c0 b7 9e bc c8 33 13 3e
       -0.23971474 -0.016021311 -0.019374728 0.14375222
000260 de 92 31 3e 7c 39 44 3e 90 4e 77 3d 7e 89 00 3e
       0.17341182 0.19162554 0.060377657 0.12552449
000270 de 78 71 3e f8 00 12 bd 0c a5 28 3e 08 5d 94 bd
       0.23581263 -0.035645455 0.1646921 -0.07244307
000280 d4 5d 43 be fc 55 31 be 88 7b 37 3d 28 05 1e be
       -0.19078761 -0.17317957 0.044795543 -0.15431654
000290 1a b9 4a 3e 80 d2 55 bc ea 79 22 3e 20 ed 27 bd
       0.19797173 -0.013050675 0.15866819 -0.040997624
0002a0 04 d8 4c be 5e 4c 1b 3e 2a 04 67 be 9c ac 7a be
       -0.20004278 0.1516585 -0.22560182 -0.24479908
0002b0 10 75 38 3d 64 90 72 be 3c fd 53 be aa f6 6d 3e
       0.045033514 -0.23687893 -0.2070207 0.23238626
0002c0 7a cb 52 be e8 eb ae bd f2 fc 00 be 0a 2b 24 3e
       -0.20585433 -0.08541089 -0.12596491 0.16032043
0002d0 f4 3b 37 3e 98 9e a5 bd ec de a3 bd c6 39 28 3e
       0.17893964 -0.0808689 -0.08001503 0.16428289
0002e0 42 06 6c 3e 08 fe 97 bd f0 16 7e 3e 9e cd 38 be
       0.23049262 -0.074214995 0.24813437 -0.18047187
0002f0 88 8f 22 3d b8 5d 39 be 7c ee 85 3d 10 21 0f 3d
       0.039687663 -0.18102157 0.06539628 0.03494364
000300 f4 76 5e be e8 b2 69 3d 88 2c 61 3d 14 7b 61 be
       -0.21725065 0.057055384 0.05497411 -0.22019607
000310 02 6e 74 be 68 5c 8d bd 00 64 06 3e e0 16 46 3d
       -0.2387009 -0.06902391 0.13124084 0.04836166
000320 1e 4d 5d be 7e fa 49 3e 36 4a 06 be c0 49 2f bc
       -0.21611449 0.19724461 -0.13114247 -0.010698736
000330 3c de f4 3d f0 d6 ad bc c4 e6 67 be e4 1b 07 be
       0.1195645 -0.021220654 -0.22646624 -0.13194233
000340 c8 72 85 3d f6 e7 29 be 28 24 a5 bd 48 5f 1f bd
       0.065160334 -0.16592392 -0.08063537 -0.038909227
000350 92 75 2d be 7e 85 60 3e c0 d3 e3 3d 7c 12 21 be
       -0.16939381 0.21925923 0.111243725 -0.15729707
000360 f8 d6 15 3d 68 be 9f bd 54 53 6d be 90 72 bf bd
       0.036581963 -0.07799989 -0.23176318 -0.09348023
000370 e0 70 34 be 00 0f 60 bb a4 18 82 bd 1c d9 d0 3d
       -0.17621183 -0.0034188628 -0.06352356 0.1019766
000380 26 2e 38 be 24 b5 c1 bd 74 33 68 be 8c 09 b5 bd
       -0.17986354 -0.09458378 -0.22675878 -0.088397115
000390 70 48 e5 3c d4 ae 39 3e e8 00 3b 3e 2e f7 32 be
       0.027988642 0.18133098 0.18262064 -0.17477104
0003a0 74 0a 0b be 0e bc 01 3e 70 51 dc 3d 28 92 cd 3d
       -0.13578206 0.12669393 0.107577205 0.10037643
0003b0 10 1f b6 bd e4 b9 37 3e f0 07 2c 3e 28 66 06 bd
       -0.088926435 0.17942005 0.16799903 -0.032812268
0003c0 9c 27 67 be 88 43 ad 3d 4c 7f 09 3e 6c b9 ca 3d
       -0.22573704 0.08460146 0.13427466 0.09898648
0003d0 ee f6 53 3e 26 4f 64 be c4 55 eb 3d f0 80 58 3e
       0.20699665 -0.22295818 0.11490968 0.21142936
0003e0 58 ef c3 bd fc ee f7 3d ac 45 ff 3d 98 46 3c 3e
       -0.095671356 0.121061295 0.12464461 0.18386304
0003f0 98 f1 56 3e c2 01 5b 3e 48 8a 0a 3d 28 c8 cd 3d
       0.20990598 0.2138739 0.03382328 0.100479424

fc2.bias f4 [16]
000000 7c b8 ea 3d fa b8 26 3e 4a 62 02 be 00 9d 85 3a
       0.11460969 0.162815 -0.12732807 0.0010193884
000010 64 3e fe 3d d4 6a e1 3d 00 40 93 37 0c 6b 2a 3d
       0.12414244 0.11006704 1.7553568e-05 0.041605994
000020 9e 05 0e 3e 98 4f 24 bd 00 d3 d4 bc a5 66 1f be
       0.1386933 -0.04011497 -0.025979519 -0.155665
000030 e3 d0 86 bd e0 63 58 bc 1b fb cd bd d8 15 0f be
       -0.06582811 -0.013207406 -0.1005766 -0.13973176

fc3.weight f4 [1, 16]
000000 0e 76 ba ba 8c 2a 61 ba 66 6c fc ba 80 c3 42 39
       -0.0014225857 -0.0008589409 -0.001925838 0.00018574111
000010 7b 2e 8f ba 15 6c 1b bb 44 a1 3e ba 84 2b 41 3a
       -0.0010923886 -0.0023715545 -0.0007271955 0.000736885
000020 5a 7e da ba ae 36 00 3b 99 83 28 bb b8 53 10 ba
       -0.0016669736 0.0019563842 -0.0025713204 -0.0005505639
000030 c8 20 eb ba a0 09 40 39 2b cc 2d bb 30 87 af ba
       -0.0017938847 0.00018314132 -0.0026519399 -0.001339173
