output/gym_finger/Finger-v0-run1/critic.pkl (torch_old, 5221 bytes, 5 tensors)

fc1.weight f4 [32, 13]
000000 3f 0a 82 be b7 d3 23 3e e1 7b 25 3e 37 9d 94 bd
       -0.25398442 0.15998732 0.16160537 -0.07256549
000010 ba 57 aa bd d0 b7 3a 3c 4e 2e b2 bd 40 b6 65 3d
       -0.08317514 0.011396363 -0.08700238 0.05608201
000020 60 ff f3 bc 51 a9 ae bd 39 99 26 3e 48 a0 47 3d
       -0.029784858 -0.08528388 0.16269387 0.04873684
000030 5f c1 22 3e 3c b7 1f 3e 73 3c 22 3e 29 15 bb bd
       0.15894078 0.15597242 0.15843372 -0.09134895
000040 98 1e 99 ba 14 15 49 bd 90 3e 80 bc 75 06 3e bc
       -0.0011682091 -0.049092367 -0.015654832 -0.011598219
000050 33 4a ab bd 5c bc 3c bd ed 81 9c bd 0e f7 95 3d
       -0.08363762 -0.04607807 -0.07641969 0.073225126
000060 10 f8 12 be c8 8a 23 be 85 64 ed bd 96 2f 00 be
       -0.14352441 -0.1597091 -0.11591438 -0.12518153
000070 9c f2 37 3d 1d 73 98 3d 29 3e f6 bd 3b 5d 34 be
       0.044909105 0.07443831 -0.12023575 -0.1761369
000080 79 c9 fe bd ab 53 9e bd 48 23 88 3d a8 5a 03 3e
       -0.124407716 -0.07730802 0.06647354 0.12827551
000090 14 a6 68 3d ba fa 97 bd 88 b9 b4 bd 2b b0 9d bd
       0.05679901 -0.07420869 -0.0882445 -0.07699617
0000a0 99 f1 01 3e d6 ca b4 3d d5 f2 8a bd f4 7f ca bd
       0.12689818 0.088277504 -0.06784598 -0.09887686
0000b0 cc 67 45 3d f0 a9 85 bd 8c 44 02 bd 07 8e ca bd
       0.04819469 -0.06526554 -0.031803653 -0.09890371
0000c0 8a 23 3b 3e 57 7d 33 3e ca aa ff 3d 00 14 ff ba
       0.18275276 0.17528282 0.12483747 -0.0019460917
0000d0 34 0d 67 3b d5 03 05 be 52 31 e0 3d 21 ce 8e bd
       0.0035255672 -0.12989743 0.10946907 -0.0697291
0000e0 e0 9e 8a 3d 82 26 f9 3d eb f1 00 bd fc 4c 5f bd
       0.06768584 0.12165548 -0.03148071 -0.054516777
0000f0 40 28 08 bd f7 e9 d0 3d 1e 51 c3 3d 18 fb 42 3d
       -0.03324151 0.10200875 0.09536956 0.047602743
000100 c5 3e 93 bd e3 aa b3 bd 8d 74 15 3e b4 fb 3e bd
       -0.07189707 -0.087728284 0.14595242 -0.04662676
000110 83 05 d5 bd c8 56 ef bd 10 b2 68 bc 5d 9d 13 3e
       -0.10401442 -0.11686474 -0.01420261 0.14415498
000120 76 50 20 be 86 c8 e9 bd d1 a9 a3 3d 4c 4d 2b bd
       -0.15655693 -0.114152 0.07991374 -0.041821763
000130 7c 66 02 3d d8 1d 64 3d 69 47 97 3d ea 36 cb 3d
       0.031836018 0.055692524 0.07386667 0.099225834
000140 bd d1 01 3e b4 b7 1d 3d 34 f0 17 be 3e 64 ca 3d
       0.12677665 0.03850527 -0.14837724 0.09882401
000150 51 4d 07 3e d2 8b cd 3d 21 7f 06 be 04 aa d3 3d
       0.13213088 0.10036434 -0.13134433 0.10335162
000160 f0 2d 73 bc af bd 1f 3e 6f 6f 2f be 32 65 33 3d
       -0.014842495 0.15599702 -0.17132352 0.04379768
000170 30 eb 4c 3d 9a 30 c3 3d 19 30 df 3d 00 9f a8 bd
       0.05002898 0.095307544 0.10897846 -0.08233452
000180 16 3e 97 bd a8 5d 21 bd 4e 0a 81 bd 6f 3b 1e 3e
       -0.07384889 -0.03939596 -0.063007936 0.1545236
000190 ed fb 3f be 52 92 af 3d 7a af e3 3d 7a 20 b5 3d
       -0.18748446 0.0857283 0.11117454 0.08844085
0001a0 99 c4 cd 3d 00 a9 fe 3a ae e2 e0 3d e5 26 a2 bd
       0.10047264 0.0019429028 0.10980736 -0.07917575
0001b0 cd 83 03 be a9 5c 20 3e 89 50 82 3d 88 0f c2 bd
       -0.12843247 0.15660347 0.06363017 -0.094756186
0001c0 b0 34 e0 bc e2 82 00 3e 59 60 8e bd fb 58 1c 3e
       -0.027368873 0.12549928 -0.069519706 0.15268318
0001d0 0d 4b c6 bd 4a 60 1f be eb 83 13 3e b0 fe 6e 3c
       -0.096822836 -0.15564075 0.14405791 0.014587089
0001e0 3d ab 02 3c 28 2a 33 be 9a 52 e5 bd 90 6f b4 bd
       0.007975397 -0.1749655 -0.111973956 -0.08810341
0001f0 71 5e 02 3e c2 32 9c 3d 05 63 1f 3e 80 9a dc bb
       0.12731339 0.07626869 0.15565117 -0.006732285
000200 00 60 cf 37 e7 a1 2f be 2e 01 c7 3b 60 8f e4 3c
       2.4721026e-05 -0.17151605 0.0060731387 0.027900398
000210 97 e7 ca bd 67 d6 03 3e a3 27 a7 bd 10 b8 15 3d
       -0.099074535 0.12874757 -0.08161857 0.03655249
000220 52 df 49 3c 10 7f 34 3d 68 20 2d be 56 bb 0a bd
       0.01232131 0.04406649 -0.16906893 -0.033870064
000230 02 b0 e6 3d c8 bf e6 3c 66 f3 24 be c8 5e 5d 3d
       0.112640396 0.02816762 -0.16108474 0.05404547
000240 96 24 9e 3d 9c d5 0f bd 9b 9e 54 3c 47 55 23 3e
       0.07721822 -0.035115823 0.012977268 0.159505
000250 30 76 fd 3c 85 c1 67 bd d8 a9 80 3d 68 0b 23 be
       0.030940145 -0.05658104 0.06282395 -0.1592232
000260 cc 0b fa bd 9c 6b 13 bd 48 94 cd 3c cc 11 77 3d
       -0.12209281 -0.035991296 0.02509512 0.060319707
000270 07 0e 7d 3d d2 2d ca 3d ce 69 fd 3d fe b0 a4 bc
       0.061780956 0.09872021 0.12373696 -0.020103928
000280 e2 07 f3 bd a8 23 b4 3c a0 91 e2 3d ea 2a ab 3d
       -0.11866738 0.021989658 0.11062932 0.083577946
000290 93 c2 33 be 79 3d 28 be a2 ae 28 be 7b 0d 00 be
       -0.17554693 -0.164297 -0.16472867 -0.12505142
0002a0 f0 05 4b bd 8e 5a 65 bd 8a bf ce bd 40 31 d0 3c
       -0.04956621 -0.055994563 -0.10095127 0.02541411
0002b0 a5 04 61 3c e8 64 df bd 60 ae 32 3c 44 2d 06 3e
       0.0137340175 -0.10907918 0.010905832 0.13103205
0002c0 a0 88 52 3d f6 f3 01 be 8a 06 03 3c 1e 7e f6 3d
       0.051399827 -0.1269072 0.0079971645 0.12035774
0002d0 61 2d e5 bd 54 7f 14 be ad 73 85 be c8 b3 f4 bd
       -0.11190296 -0.14501697 -0.26064816 -0.11948353
0002e0 0c a0 73 3d 0d 56 84 bd 80 3d e8 3a 14 7f 6c bd
       0.059478804 -0.064617254 0.0017718524 -0.05773838
0002f0 ad ae 1b be 6d d0 b8 bd c7 42 a8 bd 96 41 78 bd
       -0.15203352 -0.09024129 -0.08215862 -0.060609423
000300 29 d7 2c be 3c fa 01 3d a2 23 a7 3d a2 7b 33 be
       -0.16878952 0.031732783 0.08161093 -0.17527631
000310 1d 1e f9 bd 33 37 21 3e fc 5c 0e be d1 d1 90 bd
       -0.12163947 0.15743713 -0.13902658 -0.07071269
000320 50 1a 39 bc f8 9d 5b 3d c8 2b d1 bc 30 9b 47 3d
       -0.011297777 0.053617448 -0.025533572 0.048731983
000330 73 ee e7 bd c8 e2 e9 bc d0 b4 a9 bc 7f ac 00 be
       -0.113247775 -0.02855052 -0.0207161 -0.12565802
000340 24 79 65 bd c4 f7 03 bd 0b 5c bc bd 22 5c 38 bb
       -0.05602373 -0.03221871 -0.09197243 -0.0028131087
000350 5d a7 19 3e 80 fd 07 bc da f0 d9 3d cc a8 2d 3d
       0.1500525 -0.008300185 0.10641642 0.042397305
000360 c6 a7 2d be ba 01 df bc b1 40 2a 3e e6 28 c9 3d
       -0.16958532 -0.027222503 0.1662624 0.09822254
000370 bc cf 0e be 86 81 73 3e e2 cd cc 3d b7 7d 19 3e
       -0.13946432 0.23779878 0.100002065 0.14989363
000380 4a 62 98 3c 8a bb 7c bd f3 fb ee bd 2d be fc 3a
       0.018601555 -0.06170229 -0.11669149 0.0019282751
000390 d0 d1 94 bc 64 a0 44 3d d7 55 12 3e 29 23 1d 3e
       -0.018166453 0.048004523 0.14290558 0.15345444
0003a0 65 9d a9 bd 00 8a 87 3c a1 79 e1 3d 53 c3 26 3e
       -0.08281974 0.016545296 0.11009527 0.16285448
0003b0 17 bb ba bd c1 56 ef bd 44 e7 0f 3d f0 a5 59 3d
       -0.09117716 -0.11686469 0.03513266 0.053136766
0003c0 4d 66 1d 3e 1c ae 3d bd 08 39 a1 bc e1 0d 2f bd
       0.15371056 -0.04630862 -0.019680515 -0.042737845
0003d0 05 83 e4 bd 99 08 0b 3e 78 5a 31 3d 91 23 92 bc
       -0.111578025 0.13577498 0.04329917 -0.017839225
0003e0 f1 f4 11 3e 4c 06 45 3d 7e 52 37 bd ec 56 6c 3d
       0.14253594 0.04810171 -0.044756405 0.057700083
0003f0 7d 00 1f 3e d8 aa bd 3d 03 45 29 3e 08 6e 92 3c
       0.1552753 0.092611015 0.16530232 0.017874733

fc1.bias f4 [32]
000000 db c3 5f be 9c 50 bc 3e 32 22 4d 3e 9d 74 ab 3e
       -0.21852057 0.3678025 0.20032576 0.33487406
000010 a6 56 50 be 8a 0f d3 bd 02 f5 4c bd 61 c9 d0 3e
       -0.20345554 -0.10305698 -0.050038345 0.4077864
000020 8e 68 85 bd 8b c5 d2 bd 41 da a9 be c8 b1 f8 3d
       -0.06514083 -0.102915846 -0.33174327 0.12143284
000030 45 89 c5 bc 7c 9a b8 bd 84 e3 31 3e 81 13 29 be
       -0.024113307 -0.090138406 0.17371947 -0.16511346
000040 c9 cc 9e be ec 5d 93 bd 1e 8e 37 3c 0c 05 39 3e
       -0.31015614 -0.071956486 0.011203317 0.18068331
000050 02 e1 cb 3e 95 43 8b 3e 72 f2 0e 3e 8a 04 30 be
       0.39820105 0.27199998 0.13959673 -0.17189232
000060 16 77 1c 3e 9a 5d 88 3e f8 b1 86 3e af 7f 96 be
       0.15279803 0.26633912 0.26307654 -0.2939429
000070 52 a5 3d 3d 75 d1 9e be 90 5b 7c be 33 9c 09 be
       0.04630024 -0.31019178 -0.24644303 -0.13438492

fc2.weight f4 [16, 35]
000000 01 a2 94 bd ac 38 cc bd 3c fb 0a be 25 6c 8a 3d
       -0.07257462 -0.09971747 -0.13572401 0.06758908
000010 3f 58 ac bd 84 cd 4e be 03 ab a0 bd 2e 3a c1 bd
       -0.08415269 -0.20195585 -0.07845118 -0.09434925
000020 fd a0 6f bc 2f 6a 61 be c7 f9 28 3d e3 d8 26 3e
       -0.014625785 -0.22013162 0.04125383 0.16293673
000030 50 ee 18 be f3 ae 53 3d 13 d9 15 be 93 aa c1 3d
       -0.14934659 0.051680516 -0.14633588 0.094563626
000040 8e c7 83 be d3 cd dc 3d 13 05 a0 3d c5 c6 2e 3e
       -0.25738186 0.10781445 0.07813468 0.17068012
000050 57 02 18 3e 60 64 c9 bd 9c 79 14 3e 84 28 99 bd
       0.14844643 -0.09833598 0.14499515 -0.07478431
000060 11 17 81 3d b2 aa 77 be f7 1a 38 be ac 18 f1 3d
       0.06303228 -0.24186209 -0.17979036 0.11772284
000070 f4 3b e8 bd 34 fa 15 3e 29 da 8b be 17 d2 32 3c
       -0.1133956 0.14646226 -0.2731488 0.010914347
000080 de fc a9 3d 2f b1 9d bc ac 15 8b be 21 c7 33 be
       0.08300184 -0.019249527 -0.27164972 -0.1755643
000090 1d 32 2f 3e f5 82 bb be 35 b6 f2 3d 12 5e 61 be
       0.1710896 -0.3662335 0.118511595 -0.22008541
0000a0 cc 4e 4a be 6f 3a 5e be 1e 97 98 be 36 a0 29 3e
       -0.19756621 -0.21701978 -0.29802793 0.16565022
0000b0 c8 0c d5 bd 29 ff 08 be b2 49 57 be b4 f8 d8 bd
       -0.104028285 -0.13378586 -0.21024206 -0.10594311
0000c0 91 2e d7 bd 4a 73 29 3e 55 ab 5c be 1f d0 3a 3c
       -0.10506929 0.16547886 -0.21549733 0.011402159
0000d0 df 4a 03 3e cb 5b 70 bd 55 3d c3 3c d5 b5 25 3e
       0.1282153 -0.05868129 0.023832956 0.16182645
0000e0 a0 ed 2e 3e 9f 15 95 be 72 bd f2 bd d6 74 0d be
       0.17082834 -0.29118058 -0.1185254 -0.138141
0000f0 99 f6 a9 be 98 53 29 3c 0b 2f f5 bd 70 31 34 bd
       -0.33195952 0.010334872 -0.11971863 -0.04399246
000100 3f 1a 90 bc dc 42 41 3e 27 6f 52 3d 76 b4 20 3e
       -0.01759064 0.18873161 0.051375534 0.1569384
000110 be 3e 36 bd f2 d4 73 bc 22 64 98 bd 04 13 4d be
       -0.04449343 -0.014882313 -0.07440974 -0.20026785
000120 3c cc 37 be 7d 13 42 3e 19 2a 8c bc bc a0 fa 3d
       -0.17949003 0.18952747 -0.017109917 0.12237689
000130 33 a7 87 be 22 af 54 be fc 21 15 3e f4 90 64 be
       -0.2649475 -0.20769933 0.14563745 -0.2232092
000140 7b 94 66 be 0d 90 40 3e b3 1f ca bb e5 a0 8c 3d
       -0.22517578 0.18804951 -0.0061683296 0.06866626
000150 8b ca be 3d 04 05 c8 bd ae 04 11 3e fc d9 e5 bd
       0.09315976 -0.09766582 0.14161941 -0.11223218
000160 ce 83 32 3e db 9c cc 3d 22 d0 70 be 2d ff 74 be
       0.17433092 0.09990855 -0.23516896 -0.23925467
000170 47 50 4f be 25 42 4e be 5c 99 74 be 4a 2f 3b 3e
       -0.20245467 -0.2014242 -0.23886627 0.18279758
000180 4e c0 33 bd 52 8a 64 3e 42 e7 4d 3e 4a 53 5c 3e
       -0.043884568 0.2231839 0.20107749 0.21516147
000190 06 15 39 3e c3 a1 69 be 06 58 c1 3e 89 6b 51 3e
       0.18074426 -0.22815613 0.3776247 0.20451178
0001a0 8a f9 19 3e 3f 1f d3 39 b6 ff 56 bc 72 59 6d 3e
       0.15036598 0.00040268336 -0.01312249 0.23178652
0001b0 e5 b4 7f bd b7 4c 43 3e 2c f1 d8 3c d4 98 26 bc
       -0.062428374 0.19072233 0.026482187 -0.010168273
0001c0 0f 52 81 be 43 a5 57 be b1 31 55 be af 94 8f bc
       -0.25257918 -0.21059136 -0.20819737 -0.017526953
0001d0 32 7b de bd 2e b4 3c 3d f3 0a 8b be 5f e9 d3 3c
       -0.108633414 0.04607027 -0.2715679 0.025868116
0001e0 ef 05 c8 3d c1 33 c3 bd 41 ff ca bd e4 81 35 bc
       0.09766757 -0.09531356 -0.09911967 -0.011078332
0001f0 2c d7 54 3e 30 72 39 be 16 25 e8 3d 43 9c 5c 3e
       0.20785207 -0.18109965 0.113351986 0.21543984
000200 b4 2a 1f be 20 ee 56 3e 92 5a 82 3d a4 67 22 be
       -0.15543634 0.20989275 0.06364931 -0.15859848
000210 8c 54 9b 3d 40 68 29 be 12 0f 9d bc bd 6a 28 be
       0.075844854 -0.16543674 -0.019172225 -0.16446967
000220 33 8c f1 bd 28 3f 83 bd d1 f3 81 be 39 25 a9 3d
       -0.11794319 -0.064085305 -0.2538133 0.08259053
000230 98 39 46 bd 8a b4 0a be a5 bb 9b 3c e3 9b 20 3e
       -0.04839477 -0.13545433 0.019010374 0.15684466
000240 ff ee 99 bc f0 01 89 be ef dd 0c 3e ce 45 8e bd
       -0.01879072 -0.2675929 0.13756536 -0.06946908
000250 b4 d8 8b be bf c9 72 be b0 c7 f7 bd 73 20 2f 3e
       -0.2731377 -0.23709773 -0.12098634 0.17102222
000260 a1 8f 1a 3e d4 fd a1 bd 2c 5a 88 bd a1 e4 c2 3d
       0.15093853 -0.07909742 -0.06657824 0.09516264
000270 3f 84 d8 3d 9a c7 09 3e 46 9c 4e bc fa 29 12 3e
       0.10572099 0.13455048 -0.012610501 0.14273825
000280 b3 af d6 3d 4a e0 43 be 99 6e 27 3e 80 7b c4 bd
       0.10482731 -0.19128528 0.16350783 -0.09593868
000290 db 35 46 bd 8d 41 5f 3d 42 c5 1c 3e c6 65 16 be
       -0.048391204 0.054505873 0.15309623 -0.14687261
0002a0 3b 1f 20 be d8 9d 65 be 99 5c 8e be bd f0 1b be
       -0.15636913 -0.22423494 -0.2780502 -0.15228553
0002b0 fe b2 83 be f0 94 4b be ff d0 3e be 90 2b ec 3d
       -0.25722498 -0.19881034 -0.18634413 0.115317464
0002c0 2a 29 a7 be 3e 06 24 be 25 e3 13 be 4a 6a 62 bd
       -0.32648593 -0.16018006 -0.14442118 -0.055277146
0002d0 15 14 4d bd 90 d5 f5 bd df e3 b5 bd 19 9a 95 3e
       -0.05006798 -0.120036244 -0.088813536 0.2921913
0002e0 b4 e5 ce 3d 56 f5 51 3e a5 6d 9a be 03 8b 06 bd
       0.10102406 0.20503744 -0.30161777 -0.032847416
0002f0 56 27 ff bd 5f fa 82 3d d3 ab d4 3b 9c 4b 03 be
       -0.124586746 0.06395411 0.0064902096 -0.12821811
000300 e5 6a 15 be 89 3c 8a be 84 11 5d bd 69 11 1e bd
       -0.14591558 -0.2699931 -0.053971782 -0.038590822
000310 a8 4a 08 3d 28 1d f5 be 56 d5 1c be 87 91 f0 be
       0.033274323 -0.47873807 -0.15315756 -0.4698603
000320 bf 7e df be b8 7d 39 be ca 4d 5e be a8 1d 9f be
       -0.43651387 -0.18114364 -0.21709362 -0.31077313
000330 30 c2 39 be d5 11 aa bd 39 78 ee ba 2d 7d 7f 3e
       -0.18140483 -0.083041824 -0.0018193788 0.24950095
000340 bc 97 9d 3e 98 c1 ea bb d2 9d 7a bd f5 28 67 be
       0.30779827 -0.0071641915 -0.061185665 -0.22574218
000350 a5 19 76 3e d2 72 ea 3e eb 27 15 be 61 b1 0c 3c
       0.2403322 0.45790726 -0.14566009 0.008587212
000360 71 4d be bd 0a 1c 07 3e c8 92 49 3c 17 0c dc bd
       -0.092921145 0.1319429 0.012303062 -0.107444935
000370 6c b9 f6 bd 1a f1 9a 3d 85 95 2d be bf 64 2e be
       -0.12047085 0.07565518 -0.16951568 -0.17030619
000380 a4 8c 80 3d c3 3f 96 3c 93 95 b3 bb e6 d6 c0 bd
       0.06276825 0.01834095 -0.005480477 -0.094159886
000390 40 13 04 be 4c fb d4 bd 7f b4 03 3e 18 f8 80 be
       -0.12897968 -0.103994936 0.12861823 -0.2518928
0003a0 16 aa b0 bd 2a f6 95 3d d4 bf d7 3c f4 00 c5 3d
       -0.08626191 0.07322343 0.026336588 0.096193224
0003b0 ea bc 80 3d 18 ef 70 3e e6 48 05 be 4a 19 b0 bd
       0.062860325 0.23528707 -0.1301609 -0.085985735
0003c0 5e 72 ff bd 2f 9f 11 3d 4b 50 8c 3e 06 aa 94 3e
       -0.12472986 0.0355522 0.2740501 0.29035968
0003d0 eb 6f 0d bc cb f4 06 3e bf 42 ae bd 56 32 06 3e
       -0.00863264 0.13179319 -0.085088246 0.13105139
0003e0 d7 db 1b bd 88 6c 42 3d cb 14 07 3e af 9d 96 bd
       -0.038051452 0.047466785 0.13191526 -0.073542945
0003f0 72 73 54 3e d8 27 01 3e e1 ab a9 3d da ec 7a 3d
       0.20747164 0.12612855 0.082847364 0.061261036

fc2.bias f4 [16]
000000 07 af 2a bd a6 6b 26 3d e2 b4 e5 bd 75 c6 b4 bd
       -0.041670825 0.040630005 -0.11216141 -0.08826915
000010 46 20 23 bd b8 6c 52 be b1 e8 2d be e6 8f 54 be
       -0.0398257 -0.20549285 -0.16983296 -0.20758018
000020 28 62 f9 3c 03 0d 54 be ac cf 32 be ae 35 40 3e
       0.030442312 -0.20708089 -0.17462033 0.18770477
000030 1c 60 94 3e 16 1b 81 be 0a f8 b6 3b 7e 1e 60 3d
       0.28979576 -0.25215977 0.005583768 0.05471658

fc3.weight f4 [1, 16]
000000 c4 ab 28 bc 4b 47 b2 3c 27 cc 54 bc f3 d8 0c 3c
       -0.010294858 0.02176251 -0.012988127 0.008596647
000010 c6 87 f1 bc e5 6d 01 be 62 97 e7 3b af 2f 82 3c
       -0.029483687 -0.12639578 0.007067607 0.015891878
000020 53 5f 4a 3d 46 3b 1b 3b da a4 12 3d 57 54 b9 3d
       0.049407315 0.0023686453 0.035801746 0.0904929
000030 8b 93 eb bc e3 b8 0a bb 8d 4f f8 ba 43 1a 42 bc
       -0.028756877 -0.002116733 -0.0018944606 -0.011847082
