output/gym_finger/Finger-v0-run1/critic.pkl (torch_old, 509474 bytes, 5 tensors)

fc1.weight f4 [400, 13]
-0.015731167 -0.02510475 0.00984823 -0.011749692 0.003845863 -0.048844572 -0.0435503 -0.044951886
0.004055321 0.044063736 -0.034593593 -0.02645803 -0.012549926 -0.039524473 -0.016016744 -0.00073248893
0.019673262 0.014628854 0.029036079 0.032790486 -0.029330606 -0.040860105 0.006781228 0.021653552
0.042112377 0.005664788 -0.0071103387 -0.047627967 0.04820366 -0.030163927 -0.02527674 -0.025528466
-0.015820563 -0.011632659 0.0054554753 -0.022139836 0.009595167 0.029818896 0.023161743 0.04195388
-0.042136587 -0.0066087022 -0.023955762 0.040210474 0.011070631 0.03349526 -0.0436954 -0.0047636516
0.034807105 -0.01100754 0.034046624 0.049739134 -0.030293023 0.04704838 0.016945172 0.0075873435
-0.02170341 -0.026706386 0.017939147 -0.023583239 -0.0364561 0.015822563 -0.0046071485 0.016047563
0.04511315 0.04582456 -0.046361674 -0.046229392 0.04663882 -0.047726024 -0.040388055 0.047845338
-0.02842744 0.036342774 0.036219973 0.014051106 -0.007834792 0.03447059 0.028046433 0.028403144
0.029785376 0.020825054 -0.02662909 0.048909444 -0.0065643974 -0.040520847 0.030449782 -0.040007435
0.008520655 0.049631532 0.021488082 0.019746732 0.033799086 -0.024303848 -0.002418451 0.048535306
0.015198652 0.04943275 0.010640822 -0.014880918 -0.036801208 -0.004980929 0.0002373457 -0.041822545
-0.037251055 -0.040016733 -0.025811035 0.042612333 -0.028329939 0.03724293 -0.027141029 -0.047140162
-0.04893961 -0.0008467138 0.0394311 0.04895923 -0.04657915 -0.0029019117 0.037515845 -0.018896753
-0.009385861 -0.0056810267 0.04656816 0.031566653 0.035327878 -0.0050369576 0.03626426 0.028322164
0.033422906 -0.047384866 0.016358953 -0.001455795 -0.04560053 -0.048024494 -0.04927506 0.039665792
-0.009109754 0.009897441 -0.04678879 0.03498323 0.04074404 0.04405829 0.01535337 -0.03516181
-0.045376312 -0.040748876 0.032514278 -0.012858242 0.005725611 0.03608558 0.001211442 -0.005770307
-0.006921064 0.024693128 0.039972167 -0.017107971 -0.025849784 -0.025499094 -0.031323094 -0.011225514
0.034318123 0.012153946 -0.01659023 0.024319205 0.010214489 0.034204464 -0.038769484 -0.013831317
0.028287474 5.6892633e-05 0.027451742 0.014825534 -0.03310097 -0.009977512 0.010183364 -0.027598917
0.033157412 0.013164889 0.010953199 0.03772178 0.018581446 -0.03630916 -0.047538586 -0.029586464
0.02619205 -0.03834123 0.033741023 -0.047639962 -0.025750244 0.0050898567 0.0029666498 -2.4855137e-05
-0.015896995 -0.022587461 0.010273267 -0.03262663 -0.037595708 -0.048382845 -0.011058725 0.025896851
0.014759187 -0.017207373 0.0071525387 0.034115676 -0.017350264 -0.0040182173 0.021013599 0.019959632
-0.02090019 0.04231142 0.008049317 -0.0140047 -0.028355706 -0.023981346 -0.0092387125 -0.03133542
0.018124785 -0.019911451 0.03074402 -0.025013108 -0.003703367 -0.016856212 -0.011961263 0.030225437
-0.045397427 0.032217693 -0.03166707 -0.0049426183 -0.024819572 -0.006255679 -0.03946547 0.029020075
-0.044594325 0.044629898 0.008089226 -0.0068020634 0.013067897 0.046150718 0.034254048 0.028408479
0.036747362 0.005988814 0.035213213 -0.005042672 0.027431678 -0.03761673 -0.02369963 0.004382193
-0.038961314 -0.04366799 -0.0038065612 -0.0031974204 -0.041533213 -0.0024855807 0.012633894 -0.027957737
00000000: a6de 80bc 7aa8 cdbc 785a 213c c881 40bc
00000010: e00a 7c3b 3f11 48bd cd61 32bd 781f 38bd
00000020: 80e2 843b 2d7c 343d 03b2 0dbd 83be d8bc
00000030: 349e 4dbc 6ae4 21bd 8c35 83bc 8004 40ba
00000040: d229 a13c dcad 6f3c 12dd ed3c 514f 063d
00000050: bd46 f0bc ed5c 27bd 1035 de3b ca62 b13c
00000060: 077e 2c3d b09f b93b d8fd e8bb 8b15 43bd
00000070: 3371 453d 571a f7bc 2a11 cfbc 1321 d1bc
00000080: 209a 81bc e896 3ebc d8c3 b23b 9a5e b5bc
00000090: 0c35 1d3c c246 f43c b2bd bd3c d5d7 2b3d
000000a0: 6a97 2cbd d08d d8bb e03e c4bc bdb3 243d
000000b0: 9861 353c 5332 093d f3f9 32bd 6818 9cbb
000000c0: e591 0e3d f858 34bc 7974 0b3d 43bb 4b3d
000000d0: 1329 f8bc cdb5 403d 9ad0 8a3c 409f f83b
000000e0: 5acb b1bc 5ac7 dabc 1ef5 923c a331 c1bc
000000f0: fe52 15bd 529e 813c 90f7 96bb 2e76 833c
00000100: 91c8 383d 89b2 3b3d bde5 3dbd 085b 3dbd
00000110: 5908 3f3d 5d7c 43bd f26d 25bd 79f9 433d
00000120: aae0 e8bc 29dc 143d 655b 143d 9c36 663c
00000130: 805d 00bc 0931 0d3d a2c1 e53c b6ad e83c
00000140: 7600 f43c 4e99 aa3c 4025 dabc 4555 483d
00000150: 281a d7bb 30f9 25bd d271 f93c d6de 23bd
00000160: 389a 0b3c 6f4a 4b3d c607 b03c e6c3 a13c
00000170: e970 0a3d dd18 c7bc e07e 1ebb f5cc 463d
00000180: c403 793c ff79 4a3d d856 2e3c 18cf 73bc
00000190: ddbc 16bd 1037 a3bb 00e0 7839 1e4e 2bbd
000001a0: 9094 18bd 96e8 23bd aa71 d3bc 458a 2e3d
000001b0: 3014 e8bc 0b8c 183d dd56 debc 0b16 41bd
000001c0: e774 48bd 00f6 5dba 8182 213d 7989 483d
000001d0: c7c9 3ebd 002e 3ebb 37aa 193d 5dcd 9abc
000001e0: 28c7 19bc e827 babb 41be 3e3d 094c 013d
000001f0: f7b3 103d 100d a5bb d589 143d e203 e83c
00000200: 75e6 083d a216 42bd 3603 863c 60d0 beba
00000210: 9fc7 3abd 55b5 44bd a5d4 49bd 9978 223d
00000220: 1441 15bc e028 223c 9aa5 3fbd 934a 0f3d
00000230: 39e3 263d 7776 343d b48c 7b3c d505 10bd
00000240: 83dc 39bd 4be8 26bd b12d 053d 60ab 52bc
00000250: e89d bb3b 79ce 133d 40c9 9e3a d814 bdbb
00000260: 18ca e2bb 3e49 ca3c dbb9 233d 0426 8cbc
00000270: edc2 d3bc 7ae3 d0bc a54c 00bd 38eb 37bc
00000280: 2991 0c3d 5821 473c 3ce8 87bc 1239 c73c
00000290: ac5a 273c fb19 0c3d c0cc 1ebd c09c 62bc
000002a0: 22bb e73c 00a0 6e38 7ae2 e03c cce6 723c
000002b0: e294 07bd b878 23bc 20d8 263c 2017 e2bc
000002c0: 11d0 073d 8cb1 573c 0c75 333c 2782 1a3d
000002d0: 1e38 983c eab8 14bd d2b7 42bd 505f f2bc
000002e0: b690 d63c b20b 1dbd 0734 0a3d 1f22 43bd
000002f0: 2df2 d2bc d0c8 a63b 206c 423b 0080 d0b7
00000300: 6a3a 82bc 5709 b9bc 3451 283c 80a3 05bd
00000310: f5fd 19bd 172d 46bd a82f 35bc a225 d43c
00000320: 84d0 713c 7af6 8cbc d85f ea3b e1bc 0b3d
00000330: 2422 8ebc 40ab 83bb b624 ac3c 6282 a33c
00000340: e036 abbc bd4e 2d3d 48e1 033c f873 65bc
00000350: 3a4a e8bc 8774 c4bc f85d 17bc 9259 00bd
00000360: 6e7a 943c 571d a3bc e2da fb3c 4ae8 ccbc
00000370: 30b4 72bb 0a16 8abc 2cf9 43bc 569b f73c
00000380: a7f2 39bd b3f6 033d 54b5 01bd b0f5 a1bb
00000390: 6a52 cbbc 70fc ccbb 8ba6 21bd 82bb ed3c
000003a0: 8aa8 36bd d7cd 363d ac88 043c d8e3 debb
000003b0: bc1a 563c 8908 3d3d f94d 0c3d e6b8 e83c
000003c0: 6784 163d d03d c43b bb3b 103d 003d a5bb
000003d0: 66b8 e03c 0014 1abd ba25 c2bc 8098 8f3b
000003e0: e695 1fbd 35dd 32bd 8077 79bb d08b 51bb
000003f0: bb1e 2abd 20e5 22bb 64fe 4e3c a007 e5bc

fc1.bias f4 [400]
-0.10240361 -0.12916364 0.000101059675 0.2562355 -0.13101858 0.11982927 0.11477187 -0.12951906
-0.18506391 0.07248998 -0.17841187 -0.25098413 -0.07457779 -0.22992446 0.17327756 -0.20580944
0.18949753 -0.025422484 0.055896938 -0.03893745 0.11322519 0.13679937 -0.10797222 0.15356818
0.043047935 0.2594677 -0.17112032 0.253606 0.07326597 -0.121489644 0.26903203 -0.18862103
0.009262532 0.16299039 -0.22819135 0.18614593 -0.11769451 -0.21277368 0.010761112 -0.11773908
-0.18152744 0.14808404 -0.11184956 -0.061701432 0.081988245 0.2117832 0.26355103 0.071718246
-0.029872954 0.07999316 -0.21665373 0.20775485 0.11501694 -0.22947824 -0.17901164 -0.18510497
-0.04270287 -0.06012757 -0.016295046 0.0053083897 -0.20265162 -0.19410461 0.2517105 0.073361754
-0.058004558 0.06387672 0.17501345 -0.11518939 -0.18803582 0.24306086 0.05507952 -0.19351785
-0.017508298 -0.067839354 -0.08455771 -0.2140127 -0.27583772 0.10983133 0.11347318 -0.0678788
0.06887984 0.18050924 0.079325855 0.13930565 -0.10831991 -0.09933674 -0.03974247 -0.011486977
0.2685581 -0.014418572 0.006296754 0.031378508 -0.16632965 -0.06298344 0.010760397 0.14896873
-0.02535829 0.12526956 -0.10487828 0.15458736 -0.22270733 0.094765455 -0.029545426 0.042010605
-0.104322836 0.1528537 0.12006089 -0.2709158 -0.09776534 0.22325233 -0.01913312 0.14079338
0.07663357 0.05449167 0.094316274 0.015157789 0.11765596 0.27603015 0.023074597 0.20891383
0.06675634 0.03337133 0.058420688 -0.25294143 -0.15971996 0.18741775 0.1841152 -0.05729668
0.16504005 -0.08001982 -0.20667437 0.14187711 0.007919848 0.009297997 0.24531218 -0.013931543
0.20330468 -0.12929516 0.05184692 0.098339975 -0.1296939 0.07993072 -0.045149535 -0.27577755
-0.16265537 0.11701295 0.21315569 0.028393328 -0.023822099 0.011831522 0.10414824 0.24411938
0.05849716 0.13892132 0.15504974 0.1400083 -0.12027691 0.2002539 -0.24186334 0.09170988
-0.06534907 0.19370145 -0.02250272 0.11478791 0.22069737 -0.15755382 0.17718685 0.21009982
0.008952111 -0.13657652 -0.2578196 -0.19019465 0.14315957 -0.11068201 -0.14763623 0.013931751
-0.13083693 0.13148093 0.1578517 0.117652416 0.2553008 -0.27006188 -0.2505543 -0.12115714
0.027757972 -0.21644127 0.15778312 -0.13679457 0.09254089 0.004214376 0.19717306 -0.11271438
-0.12274726 0.20662764 0.009661853 -0.15056467 0.23770234 0.06187156 0.09327972 -0.093807295
0.06534949 -0.015354395 -0.14129956 -0.047565565 0.16920575 0.09616476 0.20451227 -0.11462222
-0.16401051 0.17553243 -0.004173547 0.2665296 0.07992402 -0.14181633 -0.052927107 0.12905043
-0.25004566 -0.111851275 -0.031487033 0.0859938 -0.19158661 0.047733516 0.21460474 0.071116805
0.19947901 0.1794082 -0.27084538 -0.03425336 0.17141405 0.030524224 -0.074936196 0.07244396
0.16209546 0.113239765 0.16707492 -0.061978295 -0.14297645 0.16217598 0.22296503 -0.03564821
0.18222725 -0.23578289 -0.12461378 -0.2449979 0.2240288 0.22083524 0.22725561 0.10921076
0.022912562 -0.04292068 0.19994822 0.17150337 0.19234842 -0.11872947 -0.27027547 0.06869134
00000000: fcb8 d1bd 7943 04be 00f0 d338 4d31 833e
00000010: bc29 06be 0c69 f53d 840d eb3d a5a0 04be
00000020: 6581 3dbe a075 943d 9ab1 36be fe80 80be
00000030: 3ebc 98bd 5171 6bbe ac6f 313e b6bf 52be
00000040: a40b 423e d042 d0bc 30f4 643d e07c 1fbd
00000050: 9ce2 e73d 2215 0c3e 8a20 ddbd fa40 1d3e
00000060: 0853 303d f3d8 843e 2a3a 2fbe a5d8 813e
00000070: 780c 963d 90cf f8bd 91be 893e df25 41be
00000080: e0c1 173c f4e6 263e feaa 69be 0a9d 3e3e
00000090: d209 f1bd 58e1 59be 604f 303c 3021 f1bd
000000a0: 54e2 39be 58a3 173e 6211 e5bd a4ba 7cbd
000000b0: 74e9 a73d b2dd 583e 29f0 863e 04e1 923d
000000c0: 20b8 f4bc 74d3 a33d 7ada 5dbe b0bd 543e
000000d0: 008e eb3d 58fc 6abe d44e 37be 288c 3dbe
000000e0: 34e9 2ebd 5448 76bd 307d 85bc 00f2 ad3b
000000f0: e883 4fbe 5cc3 46be 33e0 803e b03e 963d
00000100: 3096 6dbd ccd1 823d ba36 333e 6ae8 ebbd
00000110: 768c 40be f2e4 783e 109b 613d 8b29 46be
00000120: 906d 8fbc 5cef 8abd 982c adbd 2526 5bbe
00000130: 9a3a 8dbe 40ef e03d a064 e83d 0a04 8bbd
00000140: e010 8d3d 6ad7 383e 9875 a23d 24a6 0e3e
00000150: d4d6 ddbd 1071 cbbd 00c9 22bd e033 3cbc
00000160: 7380 893e e03b 6cbc 0055 ce3b c086 003d
00000170: 5252 2abe 76fd 80bd 604c 303c 428b 183e
00000180: 30bc cfbc aa46 003e 6cca d6bd 264c 1e3e
00000190: 640d 64be 6414 c23d 4009 f2bc 5013 2c3d
000001a0: 36a7 d5bd ae85 1c3e 7ce2 f53d 7ab5 8abe
000001b0: 3239 c8bd 429c 643e 10bd 9cbc 242c 103e
000001c0: 10f2 9c3d a832 5f3d e428 c13d 6058 783c
000001d0: 9cf5 f03d d353 8d3e f006 bd3c 82ed 553e
000001e0: 8cb7 883d 60b0 083d 884a 6f3d 8a81 81be
000001f0: a18d 23be 70ea 3f3e b288 3c3e ecaf 6abd
00000200: 4200 293e 6ee1 a3bd 72a2 53be 3c48 113e
00000210: 40c2 013c a056 183c 1e33 7b3e 2041 64bc
00000220: 1a2f 503e f365 04be 705d 543d 7866 c93d
00000230: 7ace 04be b8b2 a33d b8ee 38bd b732 8dbe
00000240: 218f 26be 7ca4 ef3d 7c45 5a3e 2099 e83c
00000250: 9026 c3bc 00d9 413c ac4b d53d 6efa 793e
00000260: b89a 6f3d 6441 0e3e 5cc5 1e3e 565e 0f3e
00000270: be53 f6bd 5c0f 4d3e 06ab 77be 64d2 bb3d
00000280: bcd5 85bd ac59 463e a057 b8bc ec15 eb3d
00000290: 7efe 613e ca55 21be 7870 353e 6824 573e
000002a0: e0ab 123c b7da 0bbe ee00 84be 63c2 42be
000002b0: 6c98 123e 40ad e2bd f42d 17be 0042 643c
000002c0: 1efa 05be f0a2 063e e0a3 213e c0f3 f03d
000002d0: c9b6 823e 8d45 8abe a748 80be 3c21 f8bd
000002e0: b064 e33c c8a2 5dbe e691 213e e013 0cbe
000002f0: 1486 bd3d c018 8a3b bce7 493e ccd6 e6bd
00000300: ea62 fbbd 3296 533e c04c 1e3c a02d 1abe
00000310: 3e68 733e 086d 7d3d 7009 bf3d 0a1e c0bd
00000320: f4d5 853d 0091 7bbc d5b0 10be 1cd4 42bd
00000330: 4644 2d3e 08f2 c43d aa6b 513e 0ebf eabd
00000340: 5ff2 27be c6be 333e 40c2 88bb 9176 883e
00000350: 34af a33d 4d38 11be 18ca 58bd cc25 043e
00000360: fc05 80be 4812 e5bd 8cf8 00bd 841d b03d
00000370: 482f 44be 3884 433d 58c1 5b3e b0a5 913d
00000380: 3a44 4c3e c8b6 373e 3fac 8abe 404d 0cbd
00000390: 2a87 2f3e f00d fa3c 2678 99bd 805d 943d
000003a0: 5afc 253e 40ea e73d b015 2b3e f4dc 7dbd
000003b0: 6b68 12be 7611 263e f250 643e dc03 12bd
000003c0: c899 3a3e 1271 71be 8235 ffbd bbe0 7abe
000003d0: ce67 653e a222 623e b2b5 683e e4a9 df3d
000003e0: 20b3 bb3c 98cd 2fbd 3abf 4c3e 949e 2f3e
000003f0: fcf6 443e 7028 f3bd 8c61 8abe 0cae 8c3d

fc2.weight f4 [300, 403]
-0.049642935 -0.005873073 -0.019437019 0.050783597 -0.05718555 0.046986528 0.008196868 -0.0059755705
0.039498128 -0.015485987 0.039865457 0.02964063 -0.034136754 -0.049741395 -0.047294073 0.008799233
0.0116989985 0.0055010617 0.005897239 -0.01836732 -0.00048132613 -0.051628463 0.031729244 0.057037756
0.0057710856 0.0014731698 -0.026744114 0.0543473 0.024851277 -0.048502002 -0.04292299 -0.04771229
-0.046813592 -0.004887074 -0.050681483 -0.029596878 -0.051997587 -0.021996986 0.049740016 -0.032113682
0.04904484 -0.018357053 0.021301068 0.029603116 -0.056128148 -0.029711561 -0.028371997 -0.022672571
-0.046455488 -0.0049015246 -0.013395723 0.0021791682 0.019553855 0.030539185 -0.009300545 -0.024336323
0.0045760907 0.017145984 0.019274853 -0.0053165033 -0.019195098 -0.047608804 0.02360233 -0.047634594
-0.047722585 0.042245954 0.02629026 0.043334648 -0.02128946 0.03241829 0.010769576 0.0067767873
0.029549204 0.026495002 0.049937613 -0.03484799 0.000476446 -0.019674614 0.0423716 0.05248384
-0.008513544 -0.0074929446 -0.038909808 0.057067037 0.033827014 0.012732901 0.00070348755 -0.05456806
0.0054533854 -0.027409714 0.0039470047 -0.017470427 -0.047401033 0.026998594 0.033152603 -0.021077044
0.027101763 0.045476347 -0.024049137 -0.020912975 0.045452893 -0.04379122 0.02649451 -0.011212323
-0.00039149448 -0.015417576 -0.052033775 -0.03878205 0.021880157 0.0053237453 -0.019675508 0.008087195
-0.015465748 -0.022341259 -0.02795852 0.01747369 -0.020936735 0.032871053 0.015893243 -0.00721113
0.04701712 0.053098053 -0.035962597 0.0026411153 -0.015599158 0.02964481 0.025406353 -0.056832496
0.029477485 0.009986989 -0.01239882 0.028139956 0.024838328 -0.030862221 -0.019155763 0.05523523
-0.020218618 -0.009627335 -0.008169416 -0.009497274 0.045180716 0.05458013 -0.035724875 0.0545675
-0.008815311 -0.018597 0.025039919 -0.05256115 -0.052256178 -0.006468758 0.0048999116 0.054276317
0.055964343 0.030722998 -0.03559028 -0.025995515 0.00240729 0.029234365 -0.044626657 -0.027299462
0.056338176 -0.023736916 -0.04349661 -0.04384939 -0.04516183 0.0014398657 -0.0108328685 -0.047496334
0.036113665 -0.051941782 -0.012536444 0.04384426 -0.0019710176 -0.019500572 0.051833667 0.055174902
0.0070170537 -0.050068222 0.04385008 0.047006957 0.04591389 -0.007360585 0.006873332 -0.02563319
0.008147202 0.052689254 0.048960403 0.002719745 -0.033986837 0.004360687 0.008102655 -0.033134073
-0.008867733 0.04877408 -0.04337108 -0.029530393 -0.038703814 -0.014960986 0.049100243 0.05169209
0.04296352 0.012030162 -0.008756608 0.03057015 -0.034608897 -0.013322581 0.049251817 -0.0027442314
0.018637612 -0.0047875494 -0.016125351 -0.032246307 -0.009950738 0.0108400285 0.0075508356 0.030316584
0.009112425 0.045591995 -0.032288548 0.03479056 -0.023244027 0.055342108 0.049639225 -0.032264967
0.008368477 0.0123299435 -0.03728246 -0.00030914322 -0.04133857 -0.056608874 0.010939561 -0.013829518
0.055780195 0.017166741 0.027630225 -0.0019178502 -0.011805955 0.050130762 0.0532891 -0.042122163
-0.020421665 -0.04520605 -0.017264102 0.000587441 -0.008988041 -0.05195874 -0.031488128 0.0018291473
0.017688021 -0.040029854 -0.052244745 0.042526133 -0.020578478 0.04054012 -0.006333504 -0.008205034
00000000: 6456 4bbd e872 c0bb 623a 9fbc 7602 503d
00000010: 653b 6abd f274 403d 284c 063c b8ce c3bb
00000020: cac8 213d f0b8 7dbc f649 233d e8d0 f23c
00000030: fbd2 0bbd a2bd 4bbd 6eb7 41bd a82a 103c
00000040: 28ad 3f3c 4042 b43b a03d c13b 1077 96bc
00000050: 805a fcb9 5e78 53bd 86f6 013d 6ca0 693d
00000060: 601b bd3b 6017 c13a 7916 dbbc 469b 5e3d
00000070: e894 cb3c 09aa 46bd 04d0 2fbd f66d 43bd
00000080: 9cbf 3fbd c023 a0bb 6397 4fbd 2775 f2bc
00000090: 6cfb 54bd 0633 b4bc 30bc 4b3d a389 03bd
000000a0: 3ee3 483d 8861 96bc 947f ae3c 3c82 f23c
000000b0: a1e6 65bd a965 f3bc 646c e8bc d4bb b9bc
000000c0: 1c48 3ebd f89c a0bb bc79 5bbc 60d0 0e3b
000000d0: 682f a03c 502d fa3c 5061 18bc f85c c7bc
000000e0: 08f3 953b bc75 8c3c 4ce6 9d3c 1036 aebb
000000f0: 0a3f 9dbc 7301 43bd ac59 c13c 7e1c 43bd
00000100: c278 43bd 180a 2d3d ac5e d73c ac7f 313d
00000110: 3c67 aebc 0ac9 043d e072 303c d00f de3b
00000120: 2c11 f23c 0c0c d93c 628b 4c3d c4bc 0ebd
00000130: 80cb f939 a82c a1bc d88d 2d3d 4cf9 563d
00000140: 647c 0bbc 6087 f5bb e45f 1fbd 20bf 693d
00000150: 328e 0a3d a89d 503c 406a 383a c282 5fbd
00000160: 50b2 b23b 568a e0bc e055 813b 241e 8fbc
00000170: 9627 42bd 282c dd3c 06cb 073d c4a9 acbc
00000180: 8404 de3c 6845 3a3d b202 c5bc b051 abbc
00000190: d02c 3a3d 6c5e 33bd 040b d93c e4b3 37bc
000001a0: 8041 cdb9 009a 7cbc 5e21 55bd edd9 1ebd
000001b0: 043e b33c d072 ae3b 882e a1bc 2880 043c
000001c0: 0c64 7dbc 0405 b7bc 4409 e5bc fc24 8f3c
000001d0: 8483 abbc cca3 063d 8c32 823c 584b ecbb
000001e0: 0695 403d 587d 593d 844d 13bd 9016 2d3b
000001f0: 9c93 7fbc acd9 f23c fc20 d03c 31c9 68bd
00000200: c47a f13c 78a0 233c 6c24 4bbc c485 e63c
00000210: c079 cb3c c5d2 fcbc 8cec 9cbc 563e 623d
00000220: 84a1 a5bc f8bb 1dbc 04d9 05bc 749a 1bbc
00000230: 6a0f 393d 6a8f 5f3d 3f54 12bd 2c82 5f3d
00000240: 186e 10bc bc58 98bc 8420 cd3c 5c4a 57bd
00000250: 930a 56bd e0f7 d3bb 708f a03b d850 5e3d
00000260: de3a 653d ccae fb3c 1dc7 11bd 8cf4 d4bc
00000270: a0c3 1d3b e87c ef3c 71ca 36bd 1fa3 dfbc
00000280: dcc2 663d ec73 c2bc 8029 32bd 6b9b 33bd
00000290: 9cfb 38bd e0b9 bc3a 587c 31bc 848b 42bd
000002a0: eceb 133d e8c0 54bd a865 4dbc 0a96 333d
000002b0: 302c 01bb aabf 9fbc 8a4f 543d 14ff 613d
000002c0: 50ef e53b 5614 4dbd 249c 333d 5e8a 403d
000002d0: 3410 3c3d 1031 f1bb b039 e13b b2fc d1bc
000002e0: d87b 053c b0d0 573d b48a 483d c03d 323b
000002f0: c835 0bbd 18e4 8e3b 00c1 043c 98b7 07bd
00000300: f849 11bc 54c7 473d e0a5 31bd b9e9 f1bc
00000310: e487 1ebd ec1e 75bc 561d 493d 16bb 533d
00000320: 84fa 2f3d 281a 453c e077 0fbc 406e fa3c
00000330: 0fc2 0dbd f446 5abc 46bc 493d 90d8 33bb
00000340: e8ad 983c e0e0 9cbb 5019 84bc b414 04bd
00000350: 6c08 23bc 609a 313c 006d f73b 7c5a f83c
00000360: 484c 153c acbe 3a3d ff40 04bd 8c80 0e3d
00000370: 426a bebc 68ae 623d 8052 4b3d 4528 04bd
00000380: f01b 093c 8803 4a3c 7eb5 18bd 8014 a2b9
00000390: a252 29bd b5de 67bd d83b 333c 3495 62bc
000003a0: c679 643d 44a1 8c3c c858 e23c 6060 fbba
000003b0: c46d 41bc ea55 4d3d ac45 5a3d 4a88 2cbd
000003c0: 564b a7bc fb29 39bd 726d 8dbc 80fe 193a
000003d0: 9442 13bc b0d2 54bd b2f9 00bd 00c0 ef3a
000003e0: 78e6 903c 58f6 23bd 96fe 55bd e22f 2e3d
000003f0: 3294 a8bc 660d 263d 4889 cfbb 686e 06bc

fc2.bias f4 [300]
0.0053183623 0.047479372 -0.01582069 -0.025814036 0.029575136 0.023925815 -0.03301321 0.02859718
-0.046569046 -0.012588114 0.019084323 -0.03880982 0.009181984 -0.02797656 0.031169925 -0.032806225
-0.0011049807 -0.04019373 -0.04131692 -0.018273734 0.041470867 0.047296178 0.02395806 -0.004014671
-0.0033438616 0.024451334 0.021131795 -0.032480545 -0.031295754 0.0462094 0.025073405 -0.034061626
0.048312973 -0.026067024 -0.009560712 0.014243137 0.040980544 -0.00061033666 0.04808591 0.022251759
-0.04850161 -0.035960183 -0.021614878 0.04133947 -0.025351198 0.014835741 0.009318884 0.031557996
0.015428562 0.025933336 -0.041248526 -0.03572583 -0.027150122 -0.006039344 -0.04775129 -0.013219338
0.02150229 0.04895303 0.014331277 -0.014257401 0.018918734 0.014968041 -0.010787111 -0.016715765
-0.0056863427 0.008205842 -0.022787673 0.03215425 0.0128839575 -0.048737433 -0.00068339705 0.023296673
-0.01797229 -0.01058564 0.024490979 0.04629345 0.004598055 0.0015773997 -0.028998613 0.02418929
-0.0055966713 0.040281598 -0.022108844 0.045805667 0.031044375 0.017929588 0.035527434 -0.033698887
0.028873 0.01854397 0.047838043 -0.0012999736 -0.040145256 -0.020733904 -0.047611367 0.03999846
0.0071000233 -0.014838509 0.022649314 -0.03877765 0.028680678 0.033160497 0.0013635084 -0.030379105
0.0062587 -0.0008206703 0.022891108 -0.003949642 -0.034111317 0.0017039105 0.029815052 0.043681752
0.026813012 -0.029734373 0.013851788 0.022646513 0.0009706244 -0.008106224 -0.02442861 -0.034917787
-0.049559817 0.039368395 0.001435604 -0.0026778132 -0.0077799 0.019813973 0.031105254 0.0067078397
-0.028265134 0.03732117 -0.040167976 -0.017957587 0.002585914 -0.02899954 0.036017735 0.027621198
0.009663645 0.028325949 -0.030259183 -0.04645069 0.04085495 0.0005078502 0.020147089 0.015766393
-0.03925744 -0.040967647 0.011537243 -0.012917109 0.036330175 -0.031829584 0.033709977 -0.023259858
-0.022144236 0.0071407 0.021709394 -0.030992186 0.04676309 0.040217187 0.03334644 0.044072244
0.042001363 -0.0049601905 -0.03198915 0.01977646 -0.0010299683 -0.016354162 0.020149585 0.019978348
-0.021865614 0.0071099587 -0.042807285 0.021302324 0.029199447 -0.009218641 -0.035669625 -0.039745
0.0039425343 -0.008774377 -0.046876848 0.036828477 -0.021488963 0.0152185 0.032143366 -0.030589128
-0.04840024 -0.0072887577 0.02609593 0.026398439 -0.0017369166 -0.030883968 0.018089112 0.00890699
-0.036143918 -0.047956318 -0.033231888 0.042081345 0.011599705 0.021990795 0.009659916 -0.036851183
0.009255368 -0.015682202 -0.00860814 -0.025227262 -0.03257259 -0.041987613 -0.024044126 0.03994197
-0.001594577 0.021728273 -0.008416556 -0.046630394 0.006153919 0.045686316 -0.0047139674 0.049529005
0.044142578 -0.013485126 0.020583551 0.039568555 0.02649596 -0.033004988 -0.0033654496 -0.02625463
-0.017737161 -0.025063645 0.048064288 -0.009254638 -0.018739054 -0.015914738 0.006505329 0.0055192597
0.007343434 -0.012817323 -0.03026044 0.022537831 0.015404511 0.006674003 -0.018710675 -0.034320872
-0.0072517954 -0.017786019 -0.011500105 -0.044830568 0.04673936 -0.0035195686 -0.009470854 0.024970274
0.046507556 0.030069236 -0.011157267 -0.0026486367 0.035484362 -0.013840333 -0.028948726 -0.03135529
00000000: a845 ae3b bb79 423d 649a 81bc f577 d3bc
00000010: 8e47 f23c 1200 c43c dc38 07bd a244 ea3c
00000020: 2fbf 3ebd 603e 4ebc ba56 9c3c 0cf7 1ebd
00000030: 0870 163c 192f e5bc 1258 ff3c d25f 06bd
00000040: 00d5 90ba 2ea2 24bd ee3b 29bd ccb2 95bc
00000050: 5bdd 293d a3b9 413d b243 c43c 808d 83bb
00000060: b024 5bbb 2a4e c83c 961c ad3c 520a 05bd
00000070: fa2f 00bd 1146 3d3d be66 cd3c 3484 0bbd
00000080: d3e3 453d 838a d5bc 88a4 1cbc 0c5c 693c
00000090: 37db 273d 00ff 1fba bbf5 443d 5249 b63c
000000a0: a0a9 46bd fc4a 13bd af11 b1bc 9353 293d
000000b0: 51ad cfbc 9c11 733c 3cae 183c f542 013d
000000c0: 14c8 7c3c 2672 d43c 37f4 28bd 3f55 12bd
000000d0: ef69 debc b0e5 c5bb db96 43bd ec95 58bc
000000e0: 9225 b03c f982 483d bccd 6a3c e097 69bc
000000f0: 76fb 9a3c 843c 753c 6cbc 30bc 80ef 88bc
00000100: 8054 babb cc71 063c 37ad babc 2db4 033d
00000110: 3c17 533c e7a0 47bd 0026 33ba aad8 be3c
00000120: a03a 93bc 646f 2dbc 4ea1 c83c 339e 3d3d
00000130: 48ab 963b c0c0 ce3a 808e edbc 9e28 c63c
00000140: 4864 b7bb 51fe 243d 9b1d b5bc b99e 3b3d
00000150: c650 fe3c 12e1 923c 3785 113d d807 0abd
00000160: 1287 ec3c 86e9 973c d3f1 433d e063 aaba
00000170: 5a6f 24bd 26da a9bc 2304 43bd 6dd5 233d
00000180: 50a7 e83b 381d 73bc 0e8b b93c 50d5 1ebd
00000190: bef3 ea3c 4dd3 073d c0b7 b23a 9add f8bc
000001a0: c815 cd3b 4022 57ba 2286 bb3c 006c 81bb
000001b0: 4fb8 0bbd c055 df3a b23e f43c a3eb 323d
000001c0: f6a6 db3c 8095 f3bc 9cf2 623c 2e85 b93c
000001d0: 8071 7e3a f8cf 04bc 821e c8bc f405 0fbd
000001e0: 3cff 4abd c140 213d e02a bc3a 407e 2fbb
000001f0: 88ee febb ea50 a23c 72d0 fe3c 70cd db3b
00000200: 488c e7bc 15de 183d 2d87 24bd ca1b 93bc
00000210: 7078 293b 7190 edbc 5587 133d da45 e23c
00000220: 4454 1e3c d20b e83c 1be2 f7bc 1443 3ebd
00000230: 8557 273d 4021 053a 820b a53c 8628 813c
00000240: 69cc 20bd b1cd 27bd b406 3d3c 48a2 53bc
00000250: f3ce 143d bd5f 02bd 7913 0a3d 758b bebc
00000260: d467 b5bc 88fc e93b e6d7 b13c 53e3 fdbc
00000270: a78a 3f3d c7ba 243d 4796 083d 1985 343d
00000280: 9f09 2c3d 1889 a2bb 0e07 03bd 3e02 a23c
00000290: 0000 87ba 2af9 85bc be10 a53c a2a9 a33c
000002a0: 841f b3bc a8fa e83b b156 2fbd 3682 ae3c
000002b0: ae33 ef3c c809 17bc 501a 12bd a7cb 22bd
000002c0: 6030 813b 68c2 0fbc f001 40bd 75d9 163d
000002d0: 9f09 b0bc 0457 793c c3a8 033d 0d96 fabc
000002e0: 543f 46bd 88d6 eebb 22c7 d53c 8a41 d83c
000002f0: 40a9 e3ba 6000 fdbc 9e2f 943c a0ee 113c
00000300: a50b 14bd d86d 44bd 291e 08bd 7d5d 2c3d
00000310: b00c 3e3c 0a26 b43c a044 1e3c 44f1 16bd
00000320: d4a3 173c f677 80bc 2809 0dbc 67a9 cebc
00000330: d66a 05bd 34fb 2bbd 30f8 c4bc 319a 233d
00000340: 2001 d1ba 7eff b13c 98e5 09bc 83ff 3ebd
00000350: d0a6 c93b 9321 3b3d a077 9abb edde 4a3d
00000360: d9ce 343d b8f0 5cbc d69e a83c a312 223d
00000370: 0e0e d93c 3d30 07bd e08e 5cbb f313 d7bc
00000380: 864d 91bc 4652 cdbc 0fdf 443d c4a0 17bc
00000390: a582 99bc a05f 82bc a82a d53b e8da b43b
000003a0: 30a1 f03b c0ff 51bc bee4 f7bc 42a1 b83c
000003b0: 3463 7c3c 98b1 da3b 2147 99bc 0b94 0cbd
000003c0: 78a0 edbb fcb3 91bc f06a 3cbc 42a0 37bd
000003d0: c571 3f3d 90a8 66bb a42b 1bbc 768e cc3c
000003e0: b57e 3e3d c253 f63c f8cc 36bc c094 2dbb
000003f0: 0d58 113d 90c2 62bc e125 edbc 686e 00bd

fc3.weight f4 [1, 300]
-0.0006009529 -0.0028710044 0.0008088737 0.0008941989 0.0021212013 0.0021570213 -7.2528375e-05 -0.0001021903
-0.001846506 0.002924404 0.0024651792 -0.0011170235 -0.0015620749 0.0022339686 -0.0004793387 0.0013617869
0.00042713364 0.0014211796 0.0020903298 0.00066918787 0.0015087253 0.001996045 0.001571733 0.0011533294
-0.0017081684 -0.0014616798 9.722076e-06 0.0013906551 -0.0012411285 0.0012482009 -0.0011258029 0.0013890318
-0.000114222756 -0.0014682172 -0.0010892834 0.002659345 -0.0011498953 -0.0022379286 0.0021333653 -0.00021017622
0.000882508 -0.001886953 0.0014610966 -0.00031372765 0.00063390937 -0.0009903903 -0.0007531857 0.00018230337
0.00064668315 0.0022509522 0.0011559394 -0.0021894113 0.0025842432 -0.00029626652 0.0009872741 0.002656503
0.0014633369 0.0010494711 0.0026335171 0.0025576889 -0.0008193406 0.0015587322 0.0026702168 3.3748336e-05
0.002947966 -0.0013405641 0.0009917356 0.001605174 -0.002445817 0.0013009761 0.0009011794 0.002259754
0.0025456906 -0.00075028976 0.0011088485 -0.0016192188 -0.0015055396 -0.0026616906 -0.0017003356 0.00089451997
-0.002082252 0.0028582108 0.0024557346 -0.0006851896 -0.0021546213 0.0010451088 -0.0012198554 0.00020287395
-0.00041223434 -0.0006590809 -3.282586e-05 -0.0004119284 -0.0006931829 0.0015846738 0.0007400422 -0.0014847965
0.0012632133 0.00085498136 0.00046272995 0.0006035678 0.0027057747 -0.00012512086 0.0012042597 0.0016106237
0.0018245568 0.0005350155 -0.0028759614 0.002412086 -0.0024586963 -0.00022640638 0.0019017374 -0.00091767125
-0.00012696069 0.0023540426 0.0019107568 0.0003728792 -0.0011853469 0.0029236996 -0.0023669899 0.0026384606
0.0022251126 -0.0027013419 -0.0020363797 -0.00029165018 0.001339681 0.00021251105 -0.00220448 0.0008977626
-0.0015057188 -0.002099398 0.0009193802 -0.0019182094 0.00017919298 -0.002676214 0.00038606068 -0.0025916616
-0.0018557274 -0.0015861816 0.00060406094 -0.0020518685 0.00051593175 0.0011258 0.0028197118 -0.0014630735
-0.0028179525 2.0284206e-06 -0.0017432574 -0.0013426605 -0.0021207551 -0.0025220686 0.00061252643 0.002941513
0.0025131013 0.0009796224 -0.0024354665 -0.0024591747 -0.002956453 0.002765568 0.0015806579 -0.0008216412
-0.0004541478 -0.0023170235 0.00063658436 0.0028748503 -0.0025391604 0.00020739948 -0.0021206532 -0.0023408064
0.0014881706 0.0021618423 -0.00100041 0.0029939846 0.0020569349 -0.0014200956 -0.001684164 -0.00037078606
0.0016023787 -0.0028803356 -0.0021793963 0.002071347 -0.0017895348 -0.0012975372 -0.0025723379 0.0019028168
-0.0028776112 0.00052265706 -0.0019440465 0.0006463716 -0.00081884046 -0.002520858 0.0005448295 0.0018390096
-0.00020980067 0.001420687 -0.0016322254 0.0016023233 0.002393507 0.0019854498 0.0029025804 0.0028547482
0.0024497076 0.0017173961 0.0002187267 0.0019129175 0.0017169793 0.0013662381 0.0011903495 0.00029784138
-0.0027797911 -0.0029212043 -0.0007134655 0.0013017277 -0.0004587043 -0.0017793975 -0.00063377246 0.0024774852
-0.00084671285 0.002452089 -0.0012381735 -0.0016899769 0.0018455256 -0.00201711 0.0029724678 -0.002111667
0.0022884323 -0.001038257 -0.0007492211 0.0011595748 -0.0029811126 0.0022293096 -0.002333989 -0.0016861053
0.0026434548 -0.0027573034 -0.0024907992 0.00027908897 -0.0012836735 -0.00060304 0.0020807567 0.0006253775
-0.0009144456 0.0015987237 -0.002824476 0.0014364808 -0.0008247285 -0.002781523 0.002692128 -0.0022231902
-0.002022835 0.002599849 -0.00038131583 -0.0001613968 -0.0026227634 -0.000464682 -0.0014888356 0.00022193533
00000000: 4489 1dba 7627 3cbb 980a 543a ac68 6a3a
00000010: da03 0b3b d05c 0d3b 601a 98b8 004f d6b8
00000020: 7606 f2ba 5ca7 3f3b d88e 213b 1769 92ba
00000030: 89be ccba c667 123b c04f fbb9 fc7d b23a
00000040: e8f0 df39 e046 ba3a eafd 083b 706c 2f3a
00000050: 6cc0 c53a 14d0 023b 9c02 ce3a 502b 973a
00000060: 9fe4 dfba d695 bfba 001c 2337 a446 b63a
00000070: 5dad a2ba ac9a a33a ad8f 93ba 2c10 b63a
00000080: e08a efb8 3271 c0ba 49c6 8eba 6848 2e3b
00000090: 15b8 96ba 36aa 12bb eecf 0b3b c062 5cb9
000000a0: 1c58 673a a353 f7ba 4482 bf3a d07b a4b9
000000b0: f02c 263a fccf 81ba 7071 45ba b028 3f39
000000c0: 2c86 293a b684 133b e482 973a 3a7c 0fbb
000000d0: 685c 293b 3854 9bb9 6c67 813a ba18 2e3b
000000e0: 70cd bf3a 688e 893a 1697 2c3b e69e 273b
000000f0: 04c9 56ba 604e cc3a cefe 2e3b 008d 0d38
00000100: aa32 413b deb5 afba 20fd 813a b464 d23a
00000110: 004a 20bb 8485 aa3a 203d 6c3a 6218 143b
00000120: 9ad5 263b 18af 44ba c856 913a f83b d4ba
00000130: 8755 c5ba c26f 2ebb ccdd deba 387e 6a3a
00000140: 6476 08bb d250 3b3b 64f0 203b 4c9e 33ba
00000150: 8c34 0dbb 08fc 883a 8ee3 9fba 90ba 5439
00000160: 2821 d8b9 2cc6 2cba 80ae 09b8 18f8 d7b9
00000170: b8b6 35ba d4b4 cf3a 64ff 413a 819d c2ba
00000180: 6892 a53a d420 603a 909a f239 c038 1e3a
00000190: 5e53 313b e032 03b9 40d8 9d3a 901b d33a
000001a0: f825 ef3a 4840 0c3a a07a 3cbb 1614 1e3b
000001b0: 1422 21bb 8067 6db9 b843 f93a e08f 70ba
000001c0: c020 05b9 4846 1a3b 5c72 fa3a 007f c339
000001d0: a45d 9bba 8a9b 3f3b 801f 1bbb 06ea 2c3b
000001e0: 32d3 113b ff08 31bb c874 05bb a0e8 98b9
000001f0: 3c98 af3a 80d5 5e39 0a79 10bb d457 6b3a
00000200: 8a5b c5ba 0e96 09bb 9002 713a 6d6c fbba
00000210: c0e5 3b39 6c63 2fbb 3068 ca39 ded8 29bb
00000220: e13b f3ba 6ce7 cfba d859 1e3a a478 06bb
00000230: 983f 073a 948f 933a eaca 383b 9ac4 bfba
00000240: 66ad 38bb 0020 0836 037e e4ba 36fc afba
00000250: 5efc 0abb 4a49 25bb f491 203a 66c6 403b
00000260: d8b2 243b ac66 803a 599c 1fbb 1b2a 21bb
00000270: 0dc1 41bb 883e 353b 142e cf3a 6863 57ba
00000280: b01a eeb9 34d9 17bb 74e0 263a fc67 3c3b
00000290: 0b68 26bb 6079 5939 a8fa 0abb 3768 19bb
000002a0: b80e c33a b2ad 0d3b 3020 83ba ba36 443b
000002b0: a4cd 063b 8022 baba 2bbf dcba 1066 c2b9
000002c0: e806 d23a 03c4 3cbb 34d4 0ebb 70bf 073b
000002d0: d38e eaba 2012 aaba ab94 28bb f067 f93a
000002e0: 4e96 3cbb ec02 093a 60cf feba 4471 293a
000002f0: 74a7 56ba fb34 25bb e4d2 0e3a ec0a f13a
00000300: f0fd 5bb9 5836 ba3a 65f0 d5ba 0c05 d23a
00000310: 62dc 1c3b 521e 023b 3839 3e3b ba16 3b3b
00000320: 468b 203b 401a e13a 005a 6539 dcba fa3a
00000330: 440c e13a 5813 b33a 8005 9c3a 9827 9c39
00000340: 282d 36bb ad71 3fbb dc07 3bba bc9e aa3a
00000350: 407e f0b9 ac3a e9ba c023 26ba 4e5d 223b
00000360: f0f5 5dba 3ab3 203b 354a a2ba 3782 ddba
00000370: 90e5 f13a 7d31 04bb bccd 423b e563 0abb
00000380: 86f9 153b 2016 88ba 6067 44ba e0fc 973a
00000390: c55e 43bb 9c19 123b d6f5 18bb 4e00 ddba
000003a0: d03d 2d3b e0b3 34bb ad3c 23bb b052 9239
000003b0: ef40 a8ba 5415 1eba 4e5d 083b 60f0 233a
000003c0: 68b7 6fba 448c d13a d81a 39bb 4c48 bc3a
000003d0: 9832 58ba 364a 36bb 6a6e 303b f1b2 11bb
000003e0: 8a91 04bb 3a62 2a3b 58eb c7b9 a03c 29b9
000003f0: abe2 2bbb 90a0 f3b9 0825 c3ba 50b7 6839
