output/gym_finger/Finger-v0-run1/critic.pkl (torch_old, 509474 bytes, 5 tensors)

fc1.weight f4 [400, 13]
000000 92 23 94 3c c0 4d 91 3b 02 a5 a6 3c e0 60 6c bb
       0.018083367 0.0044343174 0.020342354 -0.0036068484
000010 90 18 a4 bc bd 29 00 bd e9 32 46 3d cc 1b 3f 3c
       -0.020031244 -0.031289805 0.048388395 0.011664342
000020 12 18 e1 3c ea 24 22 bd 05 94 2b 3d 9b 44 18 3d
       0.027477298 -0.039585985 0.04188921 0.037174802
000030 58 5c 93 3b a0 43 ee ba fb 11 41 bd aa 7b 8e bc
       0.004497092 -0.0018178113 -0.047136288 -0.017392952
000040 c9 40 15 3d b7 27 ab bc 95 8b 23 3d b9 34 0c 3d
       0.036438737 -0.020892961 0.039928038 0.034229968
000050 63 da f7 bc f8 03 54 bc 92 23 89 3c da 47 31 bd
       -0.030255502 -0.012940399 0.016740594 -0.043281414
000060 f9 53 27 3d 8d 25 c2 bc 94 de 26 bc bb 72 4c 3d
       0.040851567 -0.023699546 -0.010184903 0.049914103
000070 86 b1 a2 3c 20 a7 de bc 68 a1 88 bb 54 91 40 bc
       0.01986004 -0.0271793 -0.0041696317 -0.011753399
000080 22 3e 17 bd e8 2b d3 bb 12 f2 f1 3c 33 41 a3 bc
       -0.03692449 -0.006444443 0.029534373 -0.01992855
000090 89 ef 44 3d b6 3e e6 3c b7 a9 1a 3d ab 3f 3b 3d
       0.04808 0.028106075 0.03775951 0.045715015
0000a0 46 dd 9f 3c b8 73 2a bd 64 5e 72 3c 04 27 7c 3c
       0.019514691 -0.041614264 0.014793012 0.015390161
0000b0 a7 a6 33 3d 80 fd f4 b9 50 f1 89 bb c3 2b 0c 3d
       0.043860104 -0.0004672818 -0.004209675 0.034221422
0000c0 f0 9d db 3b 65 2b 21 3d 7a 05 42 bd e0 ec 4c 3b
       0.006702177 0.039348025 -0.047368504 0.0031269118
0000d0 dd 65 bb bc 47 31 43 bd 0b 7a 15 3d 42 dd 31 bd
       -0.02287572 -0.047654416 0.036493342 -0.0434239
0000e0 ea 8b 12 bd 40 7c e5 bb a3 b0 e6 bc d7 c4 47 bd
       -0.035777964 -0.007003337 -0.028160399 -0.048771705
0000f0 83 b8 2a 3d 10 d0 a2 bb 91 96 11 3d ea 8c ad 3c
       0.04167987 -0.0049686506 0.035543982 0.021185357
000100 10 93 8b bc 77 11 c1 bc e4 eb 8c bc 0c cb 1c 3c
       -0.017037898 -0.023567898 -0.017202325 0.0095698945
000110 17 6b d2 bc a5 39 3a 3d 3f 12 2b 3d 55 41 1d 3d
       -0.02568583 0.04546513 0.041765448 0.038392384
000120 f9 f1 30 3d 23 41 d3 bc 60 be 58 bb f2 aa e9 3c
       0.043199513 -0.025787896 -0.0033072457 0.028523896
000130 0e d7 ee 3c a8 1c 25 bd 40 51 47 3a 58 16 e6 bb
       0.02915528 -0.04031053 0.0007603355 -0.0070217066
000140 c2 87 13 bd bb e7 2a bd 49 53 14 3d 5d 4a 1e bd
       -0.03601814 -0.0417249 0.03621224 -0.038645137
000150 e5 92 4b bd ce 83 f3 3c bd 65 28 3d 3f 25 3d 3d
       -0.049700636 0.029725935 0.04111265 0.0461781
000160 6a a1 f0 3c 3a 0a 49 bd 00 f6 3b bd b6 96 fd 3c
       0.029373843 -0.04908202 -0.0458889 0.030955654
000170 b8 9c 3d bc 80 c7 d0 bc 9f 35 27 3d 97 b9 42 bd
       -0.011573009 -0.025485754 0.04082262 -0.047540274
000180 dc 8d 95 bc 53 10 1f 3d ec a8 63 3c d3 94 43 3d
       -0.01825612 0.038833927 0.013895255 0.04774935
000190 d7 71 ab bc 00 2a 6c b9 9d 6f 02 3d 1f 4c 4c 3d
       -0.020928307 -0.0002252236 0.031844724 0.049877282
0001a0 ab 1c 4a 3d ac 57 23 bc 7e 2f bb 3c 22 56 37 bd
       0.049343746 -0.009969633 0.022849794 -0.044759877
0001b0 a8 96 34 bc 92 cd 9f 3c 91 73 21 3d 0a 6f 3e bd
       -0.011022247 0.019507203 0.039416853 -0.046492614
0001c0 3d 34 1a 3d 30 7e 12 bb 6a 2a f5 bc 8e c4 d1 3c
       0.037647475 -0.0022353046 -0.029927451 0.02560642
0001d0 cc 49 19 3c 90 1f 89 3b c9 ed 3c 3d b8 af 3b bd
       0.009355973 0.0041846707 0.046125207 -0.045821875
0001e0 9b eb 15 3d 30 90 1a bd 05 e3 11 3d 52 aa a5 3c
       0.036601644 -0.037735164 0.035616893 0.020222817
0001f0 60 e4 c5 bc 18 28 23 bc 24 7a 78 3c 40 6d b0 3a
       -0.02415675 -0.00995829 0.015165839 0.0013460293
000200 38 85 3a 3c cf 93 41 bd dc 2b 60 3c b8 5d 30 bd
       0.011384301 -0.047260102 0.013682332 -0.043058127
000210 92 ea 8a 3c 47 e3 18 3d f2 55 1c bd a9 f4 43 3d
       0.016957555 0.037326124 -0.0381679 0.047840748
000220 03 49 04 3d c4 1a 52 3c 14 9c 60 3c 50 0c d2 bb
       0.032296192 0.012823764 0.013709087 -0.006410159
000230 61 e3 01 3d 20 47 03 bc cc 31 2b bc d0 b1 0e 3b
       0.031710986 -0.008012563 -0.010448884 0.0021773465
000240 ce 69 06 bd 52 2f b3 3c fc 97 7c 3c 7c d4 7d 3c
       -0.032815747 0.02187315 0.015417095 0.015492555
000250 7a 88 85 3c 10 9e f9 bc a8 5c d3 3b 13 fb 38 bd
       0.016300429 -0.030470878 0.0064502545 -0.045161318
000260 dd 37 cc bc 5f 36 34 3d 50 ff ba 3b 70 0d c3 bb
       -0.024928981 0.043997165 0.005706705 -0.0059525296
000270 93 bd b1 bc 08 f1 4a bc 2e fb c9 3c 3b f6 00 3d
       -0.021696841 -0.012386568 0.024655905 0.031484824
000280 de 55 b2 3c b6 65 1d bd c0 2d 82 ba 2d d7 cb bc
       0.02176946 -0.038427077 -0.0009931847 -0.024882877
000290 80 78 6a ba 4d 60 f9 bc 4a 2a 9d bc 9d ef 23 bd
       -0.00089443475 -0.030441428 -0.019185204 -0.040023435
0002a0 84 69 75 3c 7d b2 f8 bc d3 cf f9 bc 5d 5c 26 bd
       0.01497877 -0.030358547 -0.030494606 -0.04061543
0002b0 80 01 26 3b f8 7d 19 bc 94 b7 5f bc d0 b7 44 bb
       0.0025330484 -0.009368412 -0.013654608 -0.0030016787
0002c0 d3 9d f3 bc 09 8b 1e 3d 6d 5d e4 bc 63 2f 1d 3d
       -0.029738342 0.038706813 -0.02787658 0.03837527
0002d0 80 92 27 bb 8c 44 16 bc 34 ea 24 bc 6f c9 19 3d
       -0.0025569499 -0.009171616 -0.010065604 0.037545618
0002e0 db 9f 13 3d 13 b4 f4 bc a0 5c 2c bd 20 bc fa bc
       0.036041122 -0.029871022 -0.04208052 -0.030607283
0002f0 78 b2 3a bd 38 ab 6c bc 4a 27 34 bd 60 e6 d3 ba
       -0.045580357 -0.014445119 -0.04398278 -0.001616668
000300 bd 58 0c bd 0c 83 2c bc 12 03 42 bd a3 44 0d 3d
       -0.034264315 -0.010529291 -0.04736621 0.034489285
000310 9d 2d f1 bc c0 cd e9 3a 70 4d f3 3b 12 11 a6 3c
       -0.029440695 0.0017837808 0.0074250028 0.020271812
000320 a2 88 96 3c 7e d9 8c 3c 6a f7 18 bd 2e 19 1e bd
       0.018375698 0.017193552 -0.037345327 -0.038598232
000330 5c ea 56 3c ec 08 52 bc 7d 34 1c 3d 5d ea 1d 3d
       0.013117399 -0.01281951 0.038135994 0.038553584
000340 d1 34 21 3d 2b ef 11 bd b3 f9 2a bd 4b 0a 26 bd
       0.03935701 -0.03562848 -0.041742038 -0.04053716
000350 56 b6 05 bd 8e 77 d8 3c 37 db 1c 3d a5 9f 46 3d
       -0.032644592 0.026424196 0.038294997 0.048492093
000360 4f 5c 08 3d 12 46 d4 3c d1 e2 38 3d 85 86 3b 3d
       0.033291157 0.025912318 0.045138184 0.045782585
000370 f4 e6 18 3c f0 09 e1 bc 3d f4 07 3d c6 3a 12 bd
       0.009332407 -0.027470559 0.03319191 -0.035700582
000380 17 de f0 bc 99 db 43 3d 84 b7 87 bc 21 44 10 3d
       -0.029402776 0.047816847 -0.016567 0.035221223
000390 98 d7 cf 3b d8 9f 64 bc 2d 71 08 bd 8a 35 0b bd
       0.0063428394 -0.013954125 -0.033311058 -0.033986606
0003a0 60 80 8a ba 80 00 13 3a 87 03 ab bc d5 24 3c bd
       -0.0010566823 0.00056076795 -0.020875705 -0.045933563
0003b0 aa 7a f4 bc a0 12 02 3b f2 3f 82 3c e0 52 14 bb
       -0.029843647 0.0019847527 0.015899632 -0.0022632405
0003c0 49 0d 39 3d ac 5f 1b bc 93 fd 15 3d 40 11 27 3a
       0.045178685 -0.009483259 0.03661878 0.0006373115
0003d0 2a af c6 3c e9 bf 12 3d 25 1f 20 bd 30 2b 0d bb
       0.024253447 0.03582755 -0.0390922 -0.0021540634
0003e0 64 38 77 3c b7 39 3d bd f0 2b da bc d3 f3 25 bd
       0.015089128 -0.04619762 -0.02663228 -0.040515732
0003f0 8f 3d 39 3d 77 d3 43 3d a3 2a 1d bd 71 84 06 3d
       0.045224722 0.04780909 -0.03837074 0.03284115

fc1.bias f4 [400]
000000 18 91 b9 bd 2c 8f f2 3d 52 e0 e2 bd 00 99 12 bd
       -0.090608776 0.11843714 -0.11077942 -0.035790443
000010 aa bd 4b be 1c d4 05 3e aa cd 56 3e 75 b8 82 3e
       -0.1989657 0.13069195 0.20976892 0.25531355
000020 5c 42 44 bd 52 23 78 3e 70 61 9b 3d 20 f3 92 bc
       -0.047914848 0.24232224 0.07586944 -0.017938197
000030 48 79 2e 3e 48 15 44 be 10 c0 01 3e 1a 83 70 3e
       0.17038453 -0.19148743 0.12670922 0.23487511
000040 00 90 83 bc 70 50 cd 3d 1a 84 b5 bd f3 5f 47 be
       -0.016059875 0.10025108 -0.08863087 -0.19470195
000050 0a 1b 52 be 6a ba 05 3e 3a c7 d7 bd fe 38 56 3e
       -0.20518127 0.13059393 -0.10536046 0.20920178
000060 d8 fd 36 be 0a 38 72 be 60 a7 66 bc 9a 77 59 be
       -0.17870271 -0.2365419 -0.014077991 -0.2123703
000070 9c c5 3e 3e 58 c3 c7 3d 3c 08 ab bd 08 6f 0a 3d
       0.1863007 0.09754056 -0.0835118 0.033797294
000080 56 6c ff bd 50 c0 72 bd 28 c7 10 3d 04 fa 59 be
       -0.12471835 -0.059265435 0.03534618 -0.2128678
000090 a4 ab d0 bd bd b9 87 3e 1d 62 8b 3e 90 ee ad bc
       -0.10188988 0.26508895 0.27223292 -0.02123192
0000a0 b4 d8 16 bd d3 30 81 3e d6 35 a9 bd 94 87 38 be
       -0.036827758 0.25232562 -0.082622215 -0.18020469
0000b0 9d 27 0a be 02 9a 5f be 20 1e e6 3d 10 e6 17 be
       -0.13491674 -0.21836093 0.11236215 -0.14833856
0000c0 d0 9f 38 bd 16 86 82 be 62 e2 59 3e d2 5f 83 bd
       -0.045074284 -0.25492924 0.21277764 -0.06414761
0000d0 e6 93 88 bd 7c 1b 17 be 16 b7 b5 bd 38 52 cf 3d
       -0.066688344 -0.14756578 -0.088728115 0.10123104
0000e0 86 47 da bd c4 37 74 be fa 13 0d 3e a4 b3 e7 3d
       -0.10658173 -0.23849398 0.13777152 0.113135606
0000f0 80 f2 1d 3d 70 ec 4a be 1a cf 73 be b8 76 58 bd
       0.038561344 -0.19816756 -0.23809472 -0.052847594
000100 00 b1 0e 3c e4 b3 30 3e ba 06 30 be c8 1d 48 3e
       0.008709192 0.17256123 -0.17190066 0.1954261
000110 f0 ea 5e 3e 2d 7a 80 3e 60 7d 0c 3d d2 e8 21 be
       0.21769309 0.25093213 0.034299254 -0.1581147
000120 43 c9 5f be c7 1d 8b be f8 25 36 be e4 26 29 3e
       -0.21854119 -0.27171156 -0.17787921 0.16518742
000130 18 73 53 be ee 3b 06 be 58 25 e4 bc 84 28 18 3e
       -0.20649374 -0.13108799 -0.027849838 0.14859205
000140 9e 81 58 be 38 42 9d 3d 6a cf 66 3e 42 27 3e 3e
       -0.21143195 0.07678646 0.2254006 0.18569663
000150 b8 c8 0a 3d f4 37 87 be 8f 5d 0c be 70 c9 d0 bc
       0.033882827 -0.26409876 -0.13707565 -0.025486678
000160 ec e3 9f 3d 78 36 c5 3d 9c 22 f3 3d 27 d5 6b be
       0.078071445 0.0962953 0.118718356 -0.2303053
000170 dc 7f 08 bd e8 d8 b5 3d 56 d1 8b be a5 f8 55 be
       -0.03332506 0.08879262 -0.27308148 -0.20895632
000180 a3 d2 8b 3e c8 d0 30 bd 48 6a 7b bd ba ab 6d 3e
       0.2730914 -0.04316786 -0.061380655 0.2321004
000190 b8 70 45 3e 28 9d 4f 3d 3c fe fd 3d 83 20 87 3e
       0.1928128 0.050686985 0.12402007 0.26391992
0001a0 c7 c6 60 be f8 45 9c 3d 8a ee 48 3e 76 02 29 3e
       -0.21950828 0.07630533 0.19622245 0.16504845
0001b0 50 6e 53 3d 98 15 2a 3d d0 37 66 be c0 92 bf bb
       0.051618874 0.0415245 -0.22482228 -0.0058463514
0001c0 fe 12 5e 3e 2e 82 65 3e 44 99 5c 3e a4 f7 c5 3d
       0.21686932 0.22412941 0.21542841 0.09666374
0001d0 50 b3 87 be 00 dd aa 3b 70 bb ea bd 8a f2 70 3e
       -0.26503992 0.0052143335 -0.11461532 0.23530021
0001e0 72 00 72 be 94 6d 21 bd 3a 9c 50 be e4 58 36 3e
       -0.23632982 -0.039411142 -0.20372096 0.17807347
0001f0 42 45 9c bd e0 8c 3c 3d c8 9a 69 3d 52 00 6d 3e
       -0.076303974 0.046032786 0.057032377 0.23144653
000200 d0 2e 6e be 88 a9 91 bd c0 c0 70 bc 3c a7 15 3e
       -0.23260045 -0.07112414 -0.014694393 0.14614576
000210 f6 8f 7e 3e 80 54 03 3e e0 ba 85 3d b6 30 0e 3e
       0.24859604 0.12825203 0.06529784 0.13885769
000220 7e eb fa bd 84 df aa 3d 7c e4 fe 3d 0a 00 5a 3e
       -0.12251948 0.083434135 0.12445924 0.21289077
000230 40 96 b2 bd 70 fc 08 3e ce de 6f be 58 1f 63 be
       -0.08720064 0.13377547 -0.23424837 -0.22179925
000240 12 24 01 be 04 47 7d bd 66 bf 25 3e 2c 63 ba bd
       -0.12611416 -0.061835304 0.16186294 -0.09100947
000250 58 e4 18 bd 12 4f 43 be a1 f8 7e be 4d b4 8a be
       -0.03732714 -0.19073132 -0.24899532 -0.27090684
000260 3e a7 2b 3e 40 43 4a be 67 66 85 be 39 eb 86 3e
       0.16763017 -0.19752216 -0.2605469 0.26351336
000270 e7 0c 84 3e 67 f5 52 be c4 cd d4 bd ba bd 43 3e
       0.25791094 -0.20601426 -0.10390809 0.19115344
000280 90 49 61 bd 24 ef fb 3d 80 d7 db bd e0 13 95 3d
       -0.055001795 0.12301472 -0.10734463 0.072791815
000290 40 67 88 3b d6 c5 33 be 1b a1 82 be a0 e4 2a 3e
       0.004162699 -0.17555937 -0.2551354 0.16688776
0002a0 00 5f b9 3d ef a9 8a 3e c8 67 8a 3d c2 97 6e 3e
       0.09051323 0.27082774 0.06758076 0.23300079
0002b0 28 58 05 3e 3c e7 b3 3d 7a 89 61 3e 3b be 81 3e
       0.1302191 0.08784339 0.220251 0.25340447
0002c0 8e 8a 39 be a6 cc ba bd d6 54 50 be 80 1f 15 be
       -0.1811926 -0.09121065 -0.20344862 -0.14562798
0002d0 0e d9 3b 3e 6c 71 04 bd 1e 9f 1c 3e 6e 62 55 3e
       0.18344519 -0.03233473 0.15295073 0.20838329
0002e0 f8 74 a3 3d 40 46 90 3c a8 4b ad bd d2 3e 4f 3e
       0.079812944 0.017611623 -0.08461696 0.20238808
0002f0 00 40 09 ba 9a 21 49 be 40 82 39 bc 00 47 97 3d
       -0.0005235672 -0.19641724 -0.011322558 0.07386589
000300 42 37 c4 bd dc 7b 3f 3e 24 ab f0 3d 2a f0 09 3e
       -0.09580852 0.18699592 0.117513925 0.13470522
000310 a0 80 89 bc e2 31 fc bd 30 fe 2d 3d 3c 40 f6 3d
       -0.016784966 -0.12314202 0.04247874 0.120239705
000320 f4 2c 40 3e f8 d3 57 be 76 34 10 be 14 a8 e1 3d
       0.18767148 -0.21076953 -0.14082512 0.110183865
000330 3c c8 e0 bd 80 a2 0c 3c 2c 75 d1 3d 58 46 14 be
       -0.10975692 0.008583665 0.10227427 -0.14479959
000340 c8 99 8c bd 88 92 3a 3d c0 49 4b 3c c8 28 e4 3d
       -0.06865269 0.0455499 0.01240772 0.11140591
000350 24 94 67 bd 16 02 29 be 74 6a 87 be d0 d1 01 3e
       -0.056537762 -0.16504702 -0.26448405 0.12677693
000360 48 83 95 3d f4 db 15 3e 0e 27 b1 bd 6c c2 5a 3e
       0.073004305 0.14634687 -0.08650027 0.21363229
000370 b0 93 13 be c8 e4 5b 3d 69 e9 4d be ca 3c b5 bd
       -0.14411807 0.05368498 -0.2010857 -0.08849485
000380 f2 0d 36 3e 46 bc a8 bd 98 6c 56 3e 34 aa e4 bd
       0.17778757 -0.08239035 0.20939863 -0.11165276
000390 d4 01 0a 3e 7e a6 76 3e 26 37 d9 bd 80 b2 8a bd
       0.1347726 0.24086949 -0.10606222 -0.067723274
0003a0 a8 34 1c bd 61 91 89 be fc 7b e9 3d fe 06 77 be
       -0.038136154 -0.26868728 0.11400601 -0.24123761
0003b0 9e 24 20 3e c2 71 d4 bd 04 a3 7f be 80 08 c3 bc
       0.15638968 -0.1037326 -0.2496453 -0.023807764
0003c0 04 26 2a be 9d 72 86 3e 00 00 73 b9 16 2f 3c be
       -0.16616064 0.26259318 -0.00023174286 -0.18377337
0003d0 5c ba 00 3e 88 09 de 3d a6 ad 56 be d9 13 86 3e
       0.1257109 0.10841662 -0.20964679 0.26187018
0003e0 ea 1a 1e 3e be 75 01 be 02 51 29 3e 6c e3 49 be
       0.15439954 -0.12642571 0.16534808 -0.19715661
0003f0 be 90 88 be 92 60 14 be 98 16 94 3d ba c6 89 be
       -0.2667293 -0.14489964 0.07230872 -0.2690943

fc2.weight f4 [300, 403]
000000 04 c0 16 3d ca 19 b4 bc 48 1e 85 3b 22 e2 5c 3d
       0.036804214 -0.021984953 0.0040624477 0.053926595
000010 d0 20 61 bc e4 85 54 3d 98 bd 19 bd 94 79 a8 3c
       -0.013740733 0.0518855 -0.037534326 0.020565785
000020 54 ca 94 3c 0a a6 51 bd 45 17 2e bd 20 83 56 bd
       0.018162884 -0.051183738 -0.04250266 -0.052371144
000030 b0 13 d1 3c 30 da f7 bc e0 6c 30 3d d0 ce a3 bc
       0.025522083 -0.030255407 0.04307258 -0.019996077
000040 64 8d 03 3d ae 7a 6b bd 94 e5 1c 3d c2 47 2e 3d
       0.032117262 -0.057490043 0.03830488 0.042548902
000050 68 8f 56 bd 40 bf 24 bd 6c 46 ce 3c 66 43 a6 bc
       -0.052382857 -0.040221453 0.025180064 -0.02029581
000060 78 1c 53 3c 80 e9 c5 ba f6 bd 90 bc 28 68 b7 bb
       0.012885205 -0.0015099496 -0.017668705 -0.005597133
000070 ea 6c 02 bd ed be 32 bd 94 61 23 3d 74 ef 50 bc
       -0.03184215 -0.043639112 0.03988798 -0.012752403
000080 6a 4c 3a 3d 81 91 5f bd 58 26 e1 3c 7c 9c 22 3d
       0.04548303 -0.054582123 0.027484104 0.039700016
000090 bc b7 97 3c 82 c5 37 bd 34 22 1f bd 60 9c d2 bb
       0.018520229 -0.044866093 -0.038850978 -0.0064273328
0000a0 02 ba 62 3d 1c 6a 0a 3d 2e cf 8c bc 44 eb 50 bd
       0.055353172 0.0337926 -0.017188635 -0.051005617
0000b0 90 02 93 bc 70 08 48 3c 2c 9a 48 bd 30 3d 4b bb
       -0.017945558 0.012209043 -0.048975155 -0.0031011812
0000c0 24 d4 5f bc 94 17 f2 3c 68 7b 08 3d d8 86 10 bd
       -0.013661418 0.029552259 0.033320814 -0.035284847
0000d0 60 33 35 3c be ef b3 bc 56 ee 80 bc c3 ed 62 bd
       0.011059612 -0.021964904 -0.015738647 -0.05540253
0000e0 d0 c6 8c 3c 38 e0 cd 3c db 87 6b bd 68 4d 0b 3c
       0.017184645 0.02513133 -0.05750261 0.008502342
0000f0 89 7b 6b bd 8f 34 63 bd b4 48 a2 3c 74 5b 40 bd
       -0.05749086 -0.055470046 0.019810058 -0.046962216
000100 88 46 0e 3d 86 de d6 bc c4 41 12 bd 94 e6 86 bc
       0.034735233 -0.026229154 -0.03570725 -0.01646737
000110 d0 59 4f bd 30 4c 2b 3b 22 60 a9 bc 23 07 5e bd
       -0.05062276 0.002613794 -0.020675723 -0.054206025
000120 7e bc 0d bd b7 9d 48 bd 18 c8 0c bd cd 87 1d bd
       -0.03460359 -0.048978534 -0.03437051 -0.038459588
000130 94 2f 5c 3d ba 41 f6 bc 06 59 3a bd a0 27 8d ba
       0.05375631 -0.030060638 -0.045495056 -0.0010769255
000140 58 71 44 3d 68 b1 9a 3c ee 94 4c 3d 78 8c 02 bc
       0.047959656 0.018883422 0.049946718 -0.007968061
000150 94 56 91 3c 4c 59 c9 bc 7c 0d 3d 3d 10 f9 31 3c
       0.017741479 -0.024578713 0.046155438 0.010862604
000160 ae af 56 3d da 9c 63 3d 94 15 69 bc c9 c3 e4 bc
       0.052413635 0.055569507 -0.014226336 -0.027925389
000170 48 4f 7f bc 30 90 ab 3b f8 9c 5b 3c 5a 03 f3 bc
       -0.015582867 0.0052356943 0.0134041235 -0.029664684
000180 68 0a 97 bb b8 c4 df 3c 50 2d 60 3d 7a 62 0c 3d
       -0.004609395 0.027315482 0.054730713 0.034273602
000190 4c 59 b4 3c 9a 09 1f 3d 1c ae 31 bc dc 51 31 bd
       0.022015236 0.038827516 -0.010844734 -0.043290958
0001a0 64 46 fc 3c 23 bc 65 bd bc b6 41 bd c9 33 66 bd
       0.030795284 -0.056087624 -0.04729341 -0.05620173
0001b0 94 f6 b6 3c ec 89 d8 3c ac c1 0c bc 80 43 86 3b
       0.022334374 0.026432954 -0.008591097 0.004097402
0001c0 7c 20 e8 3c 3c 63 40 3d b5 fb 6b bd 1c 2e 86 3c
       0.028335802 0.046969637 -0.057613093 0.016379409
0001d0 6e 55 02 3d 40 81 05 bd 64 e7 bd 3c ee 17 c7 bc
       0.031819753 -0.032593966 0.023181625 -0.024303403
0001e0 48 06 9c 3c f2 73 3a 3d 44 60 03 bc 04 84 b8 3c
       0.019045964 0.04552073 -0.008018557 0.022523887
0001f0 76 6a ba bc fc 73 04 bc b0 2c ef 3b b0 25 be bc
       -0.022755843 -0.008084293 0.0072990283 -0.02321133
000200 48 d0 cc 3c 9f ed 00 bd e2 c1 17 bd 62 cc c6 bc
       0.02500166 -0.031476613 -0.037050135 -0.02426738
000210 80 8c fb 39 50 19 49 3c 20 f8 43 3d c8 8d 34 bd
       0.0004797913 0.012274101 0.047844052 -0.044080526
000220 d4 2c 32 bd d0 a5 67 bb f8 d3 2a bc 1a 96 da bc
       -0.043499783 -0.0035346635 -0.010426514 -0.026682902
000230 92 98 8b bc 78 87 3f 3d e0 54 1e 3d 38 0f e3 bc
       -0.017040525 0.046760052 0.03865516 -0.027717218
000240 14 fa 59 3d 13 4a 63 bd 90 1e 69 3c 76 bd c0 bc
       0.05321701 -0.055490565 0.014228478 -0.023527842
000250 51 47 e5 bc 9c d9 d3 bc 90 66 a9 3b 20 57 13 bb
       -0.027988108 -0.0258606 0.005169697 -0.002248235
000260 98 4a 03 3c c0 0d 67 3c ee b8 22 bd 00 80 88 39
       0.00801339 0.014102399 -0.039727144 0.0002603531
000270 ca 53 08 3d c8 a7 43 3c 46 75 11 bd a3 ca 06 bd
       0.033283032 0.011941858 -0.03551223 -0.032908093
000280 ba ef 46 3d ec c5 c9 bc 68 77 13 3c 10 63 c8 3b
       0.048568465 -0.02463051 0.009000637 0.006115325
000290 50 d7 26 bd 50 27 f4 3b 44 4b 32 3d 5e f6 07 bd
       -0.04073268 0.0074509755 0.04352881 -0.03319394
0002a0 b8 15 f1 3c e0 39 ef 3a 4c 8b 91 bc b0 27 37 3c
       0.029429302 0.0018251501 -0.017766617 0.011178896
0002b0 50 29 59 3d 40 cf b5 bb d9 57 0d bd d6 31 ec bc
       0.053017914 -0.0055483878 -0.034507606 -0.028832357
0002c0 be 8c 91 bc e6 90 31 3d be 24 48 3d 64 db 07 3d
       -0.017767306 0.043351077 0.048863165 0.03316821
0002d0 18 e1 c8 3c f4 2c 5c 3d ea 77 21 bd 0c 86 13 bd
       0.024521396 0.05375381 -0.039421 -0.03601651
0002e0 00 cb 9b 3b 88 4a a5 bb 80 73 9a ba 88 75 1c 3d
       0.004754424 -0.005044285 -0.0011783689 0.038198024
0002f0 a4 cb f3 3c 34 57 26 3d 08 0f 62 3d 4e aa 43 3d
       0.02976019 0.040610507 0.055190116 0.047769837
000300 b0 1b b4 3b 28 51 57 3c e8 41 4f bd e0 3a 39 bc
       0.0054964647 0.013141908 -0.050599962 -0.011305541
000310 88 15 cd bc 78 cb 01 3d e8 2d 11 bc c8 a6 fa 3c
       -0.025034681 0.031688184 -0.008861043 0.030597106
000320 e8 45 ad bc a4 0f d0 3c 66 e8 6a bd 70 ef 0b bb
       -0.021151498 0.025398083 -0.05735054 -0.0021352433
000330 d4 a0 98 3c 08 8a b6 3c c0 c1 39 3d 50 71 ef 3c
       0.018631376 0.022282615 0.04535079 0.029228836
000340 a8 73 96 bc b2 71 11 3d 95 7c 30 bd e4 7b a6 3c
       -0.018365696 0.03550882 -0.04308756 0.020322748
000350 60 63 e6 bc 20 9f 76 bc 70 2f 7c bb 10 c2 aa 3c
       -0.028123558 -0.015052587 -0.0038480423 0.02084449
000360 68 b3 6f 3c 70 61 71 3b 40 10 54 3d 20 25 b6 3b
       0.014630176 0.003683176 0.05177331 0.005558625
000370 1c fe 55 bc 5e 10 35 3d b8 7f 3b 3d 52 88 35 3d
       -0.013061073 0.044205062 0.0457761 0.04431946
000380 70 98 5e 3c b8 ab 54 3d 55 18 fb bc fc c2 d6 3c
       0.013586149 0.051921576 -0.03065125 0.026216023
000390 0e d8 17 bd 14 e9 a9 3c 10 c5 f7 3b 01 b6 fb bc
       -0.03707128 0.020741023 0.0075613335 -0.030726435
0003a0 34 0a ac 3c 94 2d 92 bc a9 b9 5e bd 4c 5f b6 3c
       0.021000959 -0.017843999 -0.054376278 0.022262238
0003b0 3a b7 8a bc 38 0c 84 3c 5e d9 4b bd 7c d5 d9 3c
       -0.016933072 0.016119108 -0.049767844 0.026591055
0003c0 e8 19 d4 3c a8 62 98 3c 2c 53 ff 3c 70 2c 8e 3b
       0.02589126 0.01860173 0.03116759 0.0043387935
0003d0 ec 68 f3 bc a0 60 65 3d 91 4f 54 bd e8 c2 ab 3c
       -0.029713117 0.056000352 -0.051833693 0.020966962
0003e0 cc 65 fb bc c6 44 67 bd 3e 05 6c bd 90 10 f1 3c
       -0.030688189 -0.05646207 -0.057622187 0.029426843
0003f0 78 51 1d 3c e4 6e 13 bc 00 58 a2 b7 e4 6d e5 3c
       0.009601943 -0.008998606 -1.9352883e-05 0.028006501

fc2.bias f4 [300]
000000 65 fd ca bc 63 1e 3a bd 40 3f c0 bb c6 a7 b0 3c
       -0.024779031 -0.045439135 -0.005866915 0.021564376
000010 70 05 57 3b f0 fa 1a bd 1b f9 37 3d d0 b1 95 3b
       0.0032809637 -0.03783697 0.0449153 0.004568316
000020 7e 3e e9 3c 72 f6 ec 3c e8 a4 55 bc 80 42 c3 b9
       0.028472181 0.028926108 -0.013039805 -0.00037242845
000030 71 32 3a bd 70 06 96 bb a0 88 21 bb a5 35 1f bd
       -0.04545826 -0.004578404 -0.0024648085 -0.03886952
000040 fc b8 74 bc 6d 65 11 bd cc fa 93 bc bb a6 cc bc
       -0.014936682 -0.035497118 -0.018063925 -0.024981847
000050 c8 3a 3a 3c 2d 4d 04 3d f4 33 3d bc d8 2d 38 3c
       0.011366554 0.032300163 -0.011548031 0.011241399
000060 e0 91 b9 bb 00 d5 9d 39 b9 28 25 3d 74 de c8 bc
       -0.0056631416 0.0003010407 0.04032204 -0.024520136
000070 7c 98 21 3c 3f 9d 31 3d ea 8f a4 3c ec 91 57 3c
       0.009863015 0.043362852 0.020088155 0.013157349
000080 d1 99 db bc 56 6e 8b 3c 28 44 6a bc 2e 54 31 bd
       -0.026806744 0.017020386 -0.014298476 -0.04329317
000090 11 35 c9 bc a2 07 91 3c fe cf c6 3c 62 63 fe bc
       -0.024561437 0.017703835 0.0242691 -0.031053249
0000a0 bd 46 b8 bc 73 ec 09 3d 34 c1 cf bc 47 19 0c 3d
       -0.022494668 0.03367276 -0.025360681 0.034203794
0000b0 db 16 b8 bc e8 c8 e5 bb 3e 02 eb 3c 16 bf 16 bd
       -0.022471836 -0.0070124753 0.028687593 -0.036803328
0000c0 ec d7 56 3c 3d ed 48 3d d3 c3 0a bd 12 9a e5 3c
       0.013113003 0.049054373 -0.03387816 0.028027568
0000d0 64 57 25 3c a0 58 61 bc 6b c5 e4 bc 00 06 56 3a
       0.010091636 -0.01375404 -0.027926167 0.0008164346
0000e0 00 02 43 3c 1b 9e 3a 3d e2 04 21 bd 80 2f a9 3a
       0.011902332 0.045560937 -0.039311297 0.0012907833
0000f0 bc 93 55 3c 4a a3 16 bd e4 0e 0b bd 08 83 3e bc
       0.013035711 -0.03677682 -0.033949748 -0.01162792
000100 2f 49 01 3d c0 0a 10 bc f2 e0 d4 bc 96 89 80 3c
       0.031563934 -0.0087916255 -0.025986169 0.015690606
000110 54 ae 36 3c c4 90 10 bd 60 e8 41 bb 37 84 22 3d
       0.0111499615 -0.03529431 -0.002958797 0.03967687
000120 ac fc 47 bc 2e cb fe 3c e1 6b 09 bd 2f ae 10 3d
       -0.012206238 0.031102743 -0.033550147 0.035322364
000130 8f 6d c1 bc 38 d4 b5 3b 08 34 85 bc 06 1e 05 bd
       -0.023611812 0.00554898 -0.016260162 -0.032499336
000140 20 46 bf 3b 21 32 2b 3d 09 37 15 bd 84 1a 1d bd
       0.005837217 0.041795854 -0.03642944 -0.038355365
000150 d5 80 c9 bc b3 6b 45 bd bc 7f 73 3c c3 48 49 bd
       -0.024597565 -0.048198413 0.014861997 -0.049141657
000160 57 06 13 bd 1b 58 c2 bc 69 72 08 3d a0 aa c1 ba
       -0.035894718 -0.023723653 0.033312235 -0.0014775582
000170 f8 06 e4 bc 3b a1 01 3d ea 40 89 3c b1 ac 1a 3d
       -0.027835354 0.031647902 0.016754586 0.037762348
000180 bb 75 0a 3d 7b c1 2e 3d 28 03 b4 3b e2 01 ea 3c
       0.033803683 0.042664986 0.0054935403 0.02856535
000190 08 49 4b 3c 9a 4e fc bc 8e 9f 40 bd b8 40 45 bd
       0.012407549 -0.030799199 -0.047027163 -0.048157424
0001a0 34 b0 7e 3c 6a 8f 0c bd 96 7c 0f bd f7 1c 0c 3d
       0.01554494 -0.034316458 -0.035030924 0.03420731
0001b0 63 c0 3e bd 4a 80 b8 3c 80 0a 33 3a ab c3 14 bd
       -0.046570193 0.02252211 0.0006829873 -0.036319416
0001c0 d2 36 86 3c 00 dc 1b bc 8e 99 d3 3c 60 e2 ac ba
       0.016383562 -0.009512901 0.025830057 -0.0013190024
0001d0 5c 47 0c bd d8 e5 b8 bb 03 e3 df bc a0 df f7 3b
       -0.03424774 -0.005642634 -0.027329927 0.0075645
0001e0 74 45 6b 3c b4 80 54 bc a8 41 af bc f4 6a 0c bc
       0.014359821 -0.012970138 -0.021393612 -0.0085704215
0001f0 0b 4d 25 3d f2 ce 92 3c be 04 d7 3c 12 e6 af 3c
       0.040356677 0.017920945 0.026247378 0.02147201
000200 ef 2e 05 3d 38 40 5e bc 48 4c 4b bc 73 40 e0 bc
       0.032515462 -0.013565116 -0.012408324 -0.027374482
000210 44 6b 65 bc 46 c5 01 bd 5f ce fe bc 42 2a 9c 3c
       -0.014002625 -0.031682275 -0.031104265 0.019063119
000220 c0 d7 d5 3a ea e7 10 bd 59 eb 21 3d 7c 7f 67 3c
       0.0016314909 -0.03537742 0.039531086 0.014129516
000230 0e e0 e4 bc ba b6 0e bd b3 df 18 3d 10 dd fb bb
       -0.027938869 -0.03484223 0.03732271 -0.007686265
000240 99 b5 ec bc 35 c6 2c 3d b3 1e 1b 3d d0 c0 12 bb
       -0.028895186 0.042181212 0.037871074 -0.0022392757
000250 a7 7c 3f 3d a0 44 83 3b 66 f5 0e bd 56 74 2b bd
       0.046749737 0.0040059835 -0.034902 -0.041858993
000260 73 e8 24 bd 45 8e 27 3d 3e ae f4 3c 60 38 cc bb
       -0.040260743 0.040907163 0.029868241 -0.0062323064
000270 00 e5 17 b9 5c de 53 bc 8f 31 ea bc d4 13 16 bc
       -0.00014485791 -0.012931433 -0.028588085 -0.009160001
000280 4e 8b f8 3c 60 29 e3 bb 8c 78 2b bd 34 bc 20 3c
       0.030339863 -0.0069324225 -0.04186301 0.009810496
000290 b0 ba 59 3b 37 08 a2 bc 66 cf e1 3c 30 42 4e bb
       0.0033222847 -0.019779308 0.027564716 -0.0031472556
0002a0 41 b8 13 3d 2c d0 6c 3c eb f3 45 3d 46 e3 88 bc
       0.03606439 0.014453929 0.04832832 -0.016709935
0002b0 62 24 e1 3c 77 90 07 3d a2 5b 19 bd 7a 96 89 3c
       0.027483169 0.033096757 -0.037440903 0.016795386
0002c0 3d 07 2b 3d 60 4a 4f bc dc ef 43 bc 88 96 87 3b
       0.04175495 -0.01265201 -0.011959042 0.004137818
0002d0 60 6e 80 ba 00 87 0e b9 3a 02 8c 3c 93 32 43 bd
       -0.0009798519 -0.00013592467 0.017090905 -0.047655653
0002e0 cf ae 36 bd df a1 4b 3d 50 aa 11 3b b0 22 1f bd
       -0.044600304 0.04971492 0.0022226758 -0.03885144
0002f0 ee ea f8 3c 18 ae 0f bd 90 6c 1a 3b b9 2b 44 bd
       0.03038546 -0.035078138 0.0023563243 -0.04789326
000300 ff b0 11 3d 7e 83 bc 3c aa f8 49 bd 06 2c 17 bd
       0.035569187 0.02301192 -0.04930941 -0.03690722
000310 5a ae 90 bc 2c 95 57 3c 7f ef 3c 3d 80 cf fd bc
       -0.017661262 0.013158124 0.04612684 -0.030982733
000320 99 ce d0 bc e7 a1 12 3d 97 57 41 3d 88 95 2f 3c
       -0.025489138 0.035798933 0.047202673 0.010716803
000330 1d 8a 49 3d 3a 2e 09 bd d9 e1 10 3d a2 59 89 3c
       0.04920398 -0.03349135 0.035371635 0.016766373
000340 dc f1 01 bc 98 84 d0 bb 31 43 48 bd 0f 65 31 3d
       -0.007931199 -0.0063634627 -0.048892204 0.043309268
000350 c6 ef b0 3c 07 99 f1 bc 86 b2 bf 3c 08 56 8b 3b
       0.021598708 -0.029491914 0.023400556 0.004252199
000360 f0 f6 0b bd ed c5 25 bd d3 9e b3 bc 8b 02 fd bc
       -0.034171045 -0.04047196 -0.02192632 -0.030885002
000370 30 b1 26 bb b1 3f d8 bc 80 36 d6 bb 82 9d e8 3c
       -0.0025435202 -0.026397558 -0.0065372586 0.028395418
000380 94 ef 62 3c ac 5e 50 3c 28 e2 09 bc 1f bf 3f 3d
       0.013851065 0.012717884 -0.008415736 0.046813127
000390 86 27 e3 3c 8c 0d 55 bc 17 2b 1b 3d 16 0e f5 3c
       0.027728807 -0.013003718 0.03788289 0.029913943
0003a0 52 a6 dc 3c e0 67 f1 bb 6f ae 0f 3d 84 10 59 bc
       0.026934776 -0.007367119 0.035078462 -0.013248567
0003b0 be da 9a bc 41 64 00 3d e4 17 f8 bc 91 78 4a 3d
       -0.018903133 0.03134561 -0.03028483 0.049431387
0003c0 eb 08 4c 3d 50 9a 3a bb c0 2f 3c 3c 3a 46 ef 3c
       0.049813192 -0.0028473325 0.011485994 0.029208291
0003d0 e3 12 45 3d 7b 5c 39 bd 2a 1c eb 3c 85 b6 46 bd
       0.048113715 -0.045254212 0.028699953 -0.048513908
0003e0 e0 71 ac bc 4b 6c 17 bd e3 35 28 3d 8a 26 89 3c
       -0.021050394 -0.03696851 0.041067015 0.01674201
0003f0 3c 5a 1e bd f7 d8 2e 3d 3c 79 7f bc f0 da 2e 3b
       -0.038660273 0.042687383 -0.015592869 0.002668079

fc3.weight f4 [1, 300]
000000 15 6f 36 bb ec 21 cd 3a d2 f2 0b bb 5c 07 a7 3a
       -0.0027837206 0.0015650368 -0.002135445 0.0012743282
000010 d9 f8 03 bb a0 a9 0c 3a 32 e0 0a 3b 60 a0 27 3b
       -0.0020137338 0.0005365852 0.002119076 0.0025577769
000020 32 c9 0c bb 8a 66 1a 3b 98 3b dc 39 cc 26 29 3b
       -0.0021482226 0.0023559653 0.0004200607 0.0025810478
000030 a0 1c 6d b9 c0 a7 fc 3a e4 50 06 3a 72 55 86 ba
       -0.00022612745 0.0019276068 0.0005123748 -0.0010248853
000040 64 49 da 3a 5f 42 b4 ba 44 43 22 bb 58 f8 8a 3a
       0.0016653952 -0.001375269 -0.0024759332 0.0010602577
000050 24 cd 87 ba b0 b2 92 39 80 f3 2a 3b ec 9b 61 3a
       -0.0010360819 0.00027980423 0.0026085079 0.0008606303
000060 14 89 99 3a 84 56 60 ba 3c ef 34 bb 20 ba a0 b8
       0.0011713826 -0.00085578137 -0.0027608415 -7.664063e-05
000070 a0 23 e3 b9 9c 84 2a 3a d0 11 e1 b9 75 d1 05 bb
       -0.00043323357 0.00065047457 -0.00042928616 -0.0020419036
000080 78 af a8 3a ce 4b 20 3b 70 22 46 ba 70 79 5b 3a
       0.0012869677 0.0024459246 -0.0007558232 0.00083722826
000090 64 22 ed 3a 0a fc 37 3b 80 0f 50 b8 e0 60 68 b9
       0.0018091914 0.002807381 -4.96055e-05 -0.00022161333
0000a0 2b 90 ab ba ee fb 87 ba 6a 67 36 bb 00 2d 15 3b
       -0.001308923 -0.0010374764 -0.0027832636 0.0022762418
0000b0 e5 6e c5 ba 64 4d a3 3a 79 2c 13 bb f4 0b f8 3a
       -0.0015062956 0.0012458977 -0.0022456928 0.0018924461
0000c0 e4 48 4d ba dc 10 1d ba 70 51 2f ba e8 da 8b b9
       -0.0007830991 -0.0005991587 -0.00066878553 -0.00026675244
0000d0 0e ba 42 3b e0 ec cf 3a 3c 2d 0d 3b 70 8f 4a ba
       0.0029712948 0.0015863441 0.0021541854 -0.00077270623
0000e0 76 71 1c 3b ba 6f 3e bb 30 51 1b b9 b8 07 96 39
       0.002387134 -0.0029058293 -0.00014812197 0.0002861598
0000f0 f0 3c 2e 39 08 d5 c0 b9 4c 12 a9 3a 2a cd 08 3b
       0.00016616634 -0.00036779814 0.001289913 0.002087424
000100 98 4b cf 3a a8 8e 07 3a 70 ed 64 ba 50 cd 6c ba
       0.0015815375 0.0005171099 -0.0008732891 -0.00090332795
000110 de 06 30 bb b4 0d e5 3a 50 7e c0 3a a0 e4 bd 38
       -0.0026859562 0.0017475397 0.0014686082 9.054807e-05
000120 40 5f ec 39 f4 0d 0c 3b c8 68 84 ba f0 6b a3 39
       0.00045084395 0.0021370621 -0.0010102028 0.00031170202
000130 d9 21 d3 ba 21 23 10 bb 20 22 01 3a 18 b5 78 ba
       -0.001610811 -0.0021993595 0.00049260445 -0.0009487434
000140 e8 30 de 3a 88 ee 3d 3a 88 92 6e 3a a0 ac 99 3a
       0.0016951831 0.0007245322 0.00091008143 0.001172442
000150 24 31 7d ba 40 97 b6 b9 00 9b d8 b8 89 db 3d bb
       -0.00096585066 -0.00034826435 -0.000103285536 -0.0028969964
000160 34 e3 49 ba 9a 95 2b 3b e0 0f 2c b9 c2 41 8e ba
       -0.00077013974 0.0026181699 -0.00016409112 -0.0010853338
000170 dc 72 3d 3b 4c da ea 3a 40 aa d6 3a a0 51 b7 ba
       0.0028907573 0.0017917841 0.0016377643 -0.0013986118
000180 3a 64 c2 ba c4 3a 1c bb c0 e9 4b 3a 00 1c a6 b8
       -0.0014830895 -0.0023838738 0.0007778667 -7.920712e-05
000190 00 d8 87 39 40 2d 64 38 58 08 d0 39 c8 39 4e 3a
       0.0002591014 5.440158e-05 0.00039679068 0.00078668864
0001a0 ed 01 1b bb d0 af 26 39 fc e2 83 3a 0b 79 1c bb
       -0.002365227 0.00015896489 0.0010062153 -0.0023875858
0001b0 7e 46 c5 ba 3c b7 30 ba 68 4c 2a bb 80 c2 ae 38
       -0.0015050916 -0.0006741171 -0.0025985483 8.333195e-05
0001c0 fa 25 3a 3b e8 14 b8 3a 30 46 b6 39 e3 56 f4 ba
       0.0028403983 0.0014044316 0.0003476604 -0.0018641617
0001d0 58 a1 30 3b a3 c5 f7 ba 00 ca b7 38 6c cf 36 ba
       0.0026951637 -0.0018903505 8.7637454e-05 -0.00069736573
0001e0 d0 58 41 ba e8 77 59 3a 78 f0 38 3b 8d da 34 bb
       -0.00073756 0.00082957605 0.0028219502 -0.0027596087
0001f0 62 25 06 3b 3c 20 3b ba 88 3e 33 ba e8 f2 47 ba
       0.002046906 -0.0007138287 -0.0006837626 -0.00076274434
000200 c8 6a 1f ba ff 66 c0 ba c4 29 5e ba 30 7d 7b 3a
       -0.00060812803 -0.0014679133 -0.00084748515 0.00095935445
000210 30 5e 84 ba cc b9 34 3b c8 dc 82 b9 dc 12 9b 3a
       -0.0010098871 0.0027576564 -0.00024960027 0.0011831182
000220 fe 26 08 3b e8 94 b0 3a 51 1a d5 ba b8 42 82 ba
       0.0020775194 0.0013472112 -0.0016258453 -0.0009938097
000230 c4 73 4b 3a 7c 34 bb 3a 75 17 3e bb 64 c0 61 ba
       0.0007761086 0.0014282609 -0.002900568 -0.0008611737
000240 cb f9 1d bb 3d ee cc ba d6 a3 3d bb 00 ab 1c 39
       -0.0024105187 -0.0015634965 -0.0028936765 0.00014941022
000250 71 85 16 bb 28 ce ac 3a 60 20 23 3b 60 f7 7e b9
       -0.002296772 0.0013183998 0.0024891123 -0.00024315482
000260 4a 82 2f 3b 80 99 f7 b8 d0 3e eb b9 5e 26 86 ba
       0.002678054 -0.000118064694 -0.00044869492 -0.0010234823
000270 07 5e bb ba 9a 08 1f 3b fa 25 0d bb 85 6b fc ba
       -0.001429499 0.0024266602 -0.0021537528 -0.0019258118
000280 a2 4f 00 3b d0 4c de 3a c0 d1 c7 b8 8d 18 a8 ba
       0.0019578715 0.0016960148 -9.5281284e-05 -0.00128247
000290 d8 cc 26 3a 10 a8 36 bb 7c 51 0b bb df cb 21 bb
       0.00063629216 -0.002787117 -0.0021258285 -0.0024688167
0002a0 d4 23 a0 ba 00 8c 37 b7 2b f4 cb ba f8 5e a0 3a
       -0.0012217709 -1.0940246e-05 -0.0015560439 0.0012235334
0002b0 c8 49 81 3a 52 e0 e3 ba cc cb c1 3a 10 aa c7 b9
       0.0009863907 -0.0017385578 0.0014785468 -0.00038082944
0002c0 14 a6 db 3a 40 dd 4b b9 94 94 f6 3a 24 f3 1e 3b
       0.0016757869 -0.0001944201 0.001881259 0.002425381
0002d0 49 70 1d bb d4 e1 d4 3a 3c ef 05 bb c6 7b 22 bb
       -0.0024023226 0.0016241618 -0.0020436784 -0.0024793013
0002e0 18 b6 19 ba d0 18 6c 39 38 40 9d 39 b4 8e 37 3a
       -0.0005863621 0.00022515957 0.0002999322 0.00070021604
0002f0 20 34 0f 3a 28 c4 cd 3a 7c ed 0d 3b e4 75 ad ba
       0.00054627843 0.0015698718 0.0021656444 -0.0013233987
000300 b3 50 a2 ba c0 1a 1b 3a 44 0f 5f ba 4e f0 13 bb
       -0.0012383669 0.0005916767 -0.00085090497 -0.0022573653
000310 88 ff e3 39 d0 22 30 b9 78 20 32 bb 80 64 67 38
       0.000434872 -0.00016797637 -0.0027179997 5.516829e-05
000320 50 4b 84 b9 10 75 8d b9 48 67 79 3a 31 82 f5 ba
       -0.00025233114 -0.00026980834 0.00095139863 -0.0018730817
000330 d4 2a 30 bb d6 2d a9 ba 89 29 ec ba 20 a3 31 3b
       -0.0026880996 -0.0012907337 -0.001801775 0.0027105287
000340 ef 7f 2c bb 58 72 53 ba 82 cb 1a 3b 88 94 e3 39
       -0.0026321372 -0.000806605 0.0023619835 0.00043407478
000350 88 7a fe 3a b5 16 ad ba 8e 65 3d bb 5e 66 05 3b
       0.0019415179 -0.001320562 -0.0028899643 0.0020355205
000360 2a 99 12 bb d0 60 25 3b 60 f3 09 3b ac 88 b8 3a
       -0.0022369125 0.0025234707 0.0021049604 0.0014078817
000370 80 4d 26 39 4c a1 3c ba 20 61 ee b8 f3 e6 c1 ba
       0.00015859865 -0.0007195666 -0.00011366815 -0.001479356
000380 6f 5b c2 ba 60 87 cd 3a c9 81 a4 ba 03 77 07 bb
       -0.0014828275 0.0015680604 -0.0012550886 -0.0020670302
000390 93 e0 ad ba 64 51 13 3a d0 e5 f4 3a 90 c6 39 b9
       -0.0013265781 0.0005619733 0.0018684212 -0.00017716945
0003a0 b6 95 12 3b d0 01 3c ba 74 f2 37 ba 86 49 84 ba
       0.0022367067 -0.0007171901 -0.00070170243 -0.0010092712
0003b0 70 3b 02 ba 00 a4 79 b6 44 f6 22 bb 2c 9f 08 bb
       -0.00049679633 -3.7199352e-06 -0.0024866024 -0.0020846827
0003c0 44 83 c0 3a c0 e6 05 bb 57 4c ac ba 27 f1 04 bb
       0.0014687558 -0.0020431727 -0.001314531 -0.002028534
0003d0 54 62 86 3a 38 18 19 3b ec f3 09 3a f8 ee ac 3a
       0.0010252693 0.0023360383 0.00052624824 0.0013193777
0003e0 a6 bf b8 ba 34 16 43 3b e8 4c da b9 88 c4 8d 3a
       -0.0014095202 0.0029767873 -0.000416375 0.0010816017
0003f0 a6 91 38 3b 18 db 58 3a a8 b0 e5 3a 96 f4 a2 ba
       0.0028162985 0.00082723936 0.0017523961 -0.0012432511
